data/mixamo/36_800_24/train/VANGUARD_BY_T/Weight_Shift/Weight_Shift.npy (npy, 82208 bytes, 1 tensors)

array f8 [15, 3, 228]
000000 00 00 00 80 de ed 59 3f 00 00 00 80 de ed 59 3f
       0.0015825913287699223 0.0015825913287699223
000010 00 00 00 20 2c 2b 33 3f 00 00 00 c0 f8 0b 58 bf
       0.000292490265564993 -0.0014676980208605528
000020 00 00 00 40 72 a2 69 bf 00 00 00 40 f8 8a 74 bf
       -0.003129218239337206 -0.005015344358980656
000030 00 00 00 20 19 ed 7d bf 00 00 00 40 26 63 84 bf
       -0.00730619253590703 -0.00995473749935627
000040 00 00 00 00 98 68 8a bf 00 00 00 40 9c 1c 90 bf
       -0.012894809246063232 -0.01573413982987404
000050 00 00 00 c0 ad 99 92 bf 00 00 00 20 dd ed 94 bf
       -0.018164362758398056 -0.020438628271222115
000060 00 00 00 e0 02 47 97 bf 00 00 00 20 c9 b1 99 bf
       -0.022731823846697807 -0.025092260912060738
000070 00 00 00 80 7b 26 9c bf 00 00 00 a0 e6 ab 9e bf
       -0.02749054878950119 -0.029952624812722206
000080 00 00 00 e0 62 b4 a0 bf 00 00 00 00 6f 2f a2 bf
       -0.03262623772025108 -0.035518139600753784
000090 00 00 00 e0 60 da a3 bf 00 00 00 c0 a9 c4 a5 bf
       -0.03877547010779381 -0.04251604527235031
0000a0 00 00 00 e0 8e 04 a8 bf 00 00 00 20 89 82 aa bf
       -0.04690977558493614 -0.05177715793251991
0000b0 00 00 00 c0 e3 28 ad bf 00 00 00 60 36 ce af bf
       -0.0569525882601738 -0.06212015077471733
0000c0 00 00 00 e0 d1 26 b1 bf 00 00 00 80 60 4b b2 bf
       -0.06699859350919724 -0.07146266102790833
0000d0 00 00 00 c0 dc 52 b3 bf 00 00 00 20 7d 42 b4 bf
       -0.07548312842845917 -0.07913953810930252
0000e0 00 00 00 40 86 1b b5 bf 00 00 00 20 08 dc b5 bf
       -0.0824512392282486 -0.0853886678814888
0000f0 00 00 00 c0 54 7b b6 bf 00 00 00 60 cf f8 b6 bf
       -0.08781938254833221 -0.0897340402007103
000100 00 00 00 a0 d1 56 b7 bf 00 00 00 20 94 9c b7 bf
       -0.09116850048303604 -0.09223295003175735
000110 00 00 00 80 ef ca b7 bf 00 00 00 c0 c9 e1 b7 bf
       -0.0929403007030487 -0.09328900277614594
000120 00 00 00 e0 4e e3 b7 bf 00 00 00 00 c0 d9 b7 bf
       -0.09331219643354416 -0.09316635131835938
000130 00 00 00 80 fc c2 b7 bf 00 00 00 60 86 9e b7 bf
       -0.09281900525093079 -0.0922626480460167
000140 00 00 00 80 ff 71 b7 bf 00 00 00 60 35 42 b7 bf
       -0.09158322215080261 -0.09085401147603989
000150 00 00 00 40 b2 10 b7 bf 00 00 00 00 77 e0 b6 bf
       -0.09009851515293121 -0.08936256170272827
000160 00 00 00 00 1e b5 b6 bf 00 00 00 20 71 90 b6 bf
       -0.08870112895965576 -0.08814150840044022
000170 00 00 00 a0 01 74 b6 bf 00 00 00 60 02 60 b6 bf
       -0.08770761638879776 -0.08740248531103134
000180 00 00 00 80 a0 56 b6 bf 00 00 00 c0 14 57 b6 bf
       -0.08725932240486145 -0.08726625144481659
000190 00 00 00 60 9e 60 b6 bf 00 00 00 40 a9 70 b6 bf
       -0.0874117836356163 -0.08765657246112823
0001a0 00 00 00 40 7d 85 b6 bf 00 00 00 40 de 9c b6 bf
       -0.08797438442707062 -0.08833111822605133
0001b0 00 00 00 20 d9 b5 b6 bf 00 00 00 00 d0 cd b6 bf
       -0.08871228247880936 -0.08907794952392578
0001c0 00 00 00 00 c7 e1 b6 bf 00 00 00 e0 8a ef b6 bf
       -0.0893825888633728 -0.08959262818098068
0001d0 00 00 00 60 36 f6 b6 bf 00 00 00 60 15 f8 b6 bf
       -0.08969440311193466 -0.08972295373678207
0001e0 00 00 00 a0 0f f6 b6 bf 00 00 00 a0 85 f2 b6 bf
       -0.08969209343194962 -0.08963809162378311
0001f0 00 00 00 80 c4 ee b6 bf 00 00 00 60 4a e9 b6 bf
       -0.08958080410957336 -0.08949723094701767
000200 00 00 00 40 f1 e0 b6 bf 00 00 00 20 d4 d4 b6 bf
       -0.08936984837055206 -0.08918500691652298
000210 00 00 00 20 63 c4 b6 bf 00 00 00 00 af b1 b6 bf
       -0.08893413096666336 -0.0886487364768982
000220 00 00 00 00 bf 9b b6 bf 00 00 00 40 7e 80 b6 bf
       -0.0883139967918396 -0.0878981500864029
000230 00 00 00 60 79 60 b6 bf 00 00 00 00 3b 3d b6 bf
       -0.08740957826375961 -0.08687180280685425
000240 00 00 00 a0 70 18 b6 bf 00 00 00 a0 48 f3 b5 bf
       -0.08631042391061783 -0.08574346452951431
000250 00 00 00 80 44 cd b5 bf 00 00 00 00 b2 a4 b5 bf
       -0.08516338467597961 -0.08454430103302002
000260 00 00 00 60 e9 7b b5 bf 00 00 00 20 e7 54 b5 bf
       -0.08392199128866196 -0.08332676440477371
000270 00 00 00 20 8d 2e b5 bf 00 00 00 a0 2f 05 b5 bf
       -0.08274156600236893 -0.08211038261651993
000280 00 00 00 80 e6 d5 b4 bf 00 00 00 00 df 9a b4 bf
       -0.08138886094093323 -0.08048814535140991
000290 00 00 00 40 21 4e b4 bf 00 00 00 40 3b f0 b3 bf
       -0.07931716740131378 -0.07788439095020294
0002a0 00 00 00 40 46 7f b3 bf 00 00 00 a0 0d f7 b2 bf
       -0.07616080343723297 -0.07408223301172256
0002b0 00 00 00 60 79 55 b2 bf 00 00 00 40 74 9f b1 bf
       -0.07161673158407211 -0.06883932650089264
0002c0 00 00 00 40 a5 d1 b0 bf 00 00 00 e0 7c d8 af bf
       -0.06569893658161163 -0.06219854578375816
0002d0 00 00 00 a0 f0 e9 ad bf 00 00 00 80 dc d8 ab bf
       -0.05842544510960579 -0.05438889563083649
0002e0 00 00 00 40 4d 9b a9 bf 00 00 00 c0 00 2c a7 bf
       -0.0500129833817482 -0.04525759071111679
0002f0 00 00 00 a0 31 a4 a4 bf 00 00 00 80 3c 21 a2 bf
       -0.04031519964337349 -0.035409823060035706
000300 00 00 00 40 38 4c 9f bf 00 00 00 00 df 9c 99 bf
       -0.030564192682504654 -0.025012478232383728
000310 00 00 00 40 31 8b 93 bf 00 00 00 60 6e 73 8a bf
       -0.019085664302110672 -0.012915479950606823
000320 00 00 00 a0 17 47 7a bf 00 00 00 a0 b0 67 29 3f
       -0.006415455136448145 0.0001938250643434003
000330 00 00 00 a0 a6 50 7d 3f 00 00 00 00 af 1d 8d 3f
       0.007156992796808481 0.014216773211956024
000340 00 00 00 40 a8 c7 96 3f 00 00 00 00 44 20 9f 3f
       0.02224600687623024 0.03039652109146118
000350 00 00 00 40 26 bd a3 3f 00 00 00 e0 b8 dc a7 3f
       0.03855247050523758 0.046605851501226425
000360 00 00 00 c0 0c e5 ab 3f 00 00 00 a0 18 d6 af 3f
       0.05448188632726669 0.0621802993118763
000370 00 00 00 60 89 cc b1 3f 00 00 00 60 31 91 b3 3f
       0.06952723115682602 0.07643421739339828
000380 00 00 00 20 e9 3e b5 3f 00 00 00 00 fc ea b6 3f
       0.08299119025468826 0.0895230770111084
000390 00 00 00 20 a8 a7 b8 3f 00 00 00 e0 79 64 ba 3f
       0.09630823880434036 0.103095643222332
0003a0 00 00 00 80 d2 0e bc 3f 00 00 00 e0 30 9b bd 3f
       0.10960116982460022 0.1156492754817009
0003b0 00 00 00 e0 95 fe be 3f 00 00 00 c0 98 1b c0 3f
       0.12107216566801071 0.12584218382835388
0003c0 00 00 00 20 bb a1 c0 3f 00 00 00 00 32 10 c1 3f
       0.1299356371164322 0.13330674171447754
0003d0 00 00 00 c0 42 67 c1 3f 00 00 00 a0 fc ab c1 3f
       0.13596376776695251 0.13806112110614777
0003e0 00 00 00 20 ed dd c1 3f 00 00 00 40 66 fd c1 3f
       0.13958515226840973 0.14054563641548157
0003f0 00 00 00 a0 b9 0a c2 3f 00 00 00 80 26 0a c2 3f
       0.14095230400562286 0.1409347653388977
000400 00 00 00 e0 b1 fe c1 3f 00 00 00 c0 45 ec c1 3f
       0.14058516919612885 0.14002296328544617
000410 00 00 00 20 67 d6 c1 3f 00 00 00 e0 d2 c1 c1 3f
       0.13935555517673492 0.13872753083705902
000420 00 00 00 e0 46 af c1 3f 00 00 00 60 0e 9d c1 3f
       0.1381615251302719 0.1376054733991623
000430 00 00 00 20 79 8c c1 3f 00 00 00 00 09 7f c1 3f
       0.13709940016269684 0.13668930530548096
000440 00 00 00 80 4e 75 c1 3f 00 00 00 60 ec 6e c1 3f
       0.13639241456985474 0.13619761168956757
000450 00 00 00 e0 ee 6b c1 3f 00 00 00 20 76 6b c1 3f
       0.13610635697841644 0.13609196245670319
000460 00 00 00 a0 9f 6d c1 3f 00 00 00 20 af 71 c1 3f
       0.13615794479846954 0.13628186285495758
000470 00 00 00 20 16 78 c1 3f 00 00 00 80 09 81 c1 3f
       0.1364772468805313 0.13675040006637573
000480 00 00 00 a0 b9 8c c1 3f 00 00 00 40 c0 98 c1 3f
       0.13710708916187286 0.13747408986091614
000490 00 00 00 60 e6 a2 c1 3f 00 00 00 a0 c9 aa c1 3f
       0.13778381049633026 0.13802452385425568
0004a0 00 00 00 c0 ed b1 c1 3f 00 00 00 40 d4 b8 c1 3f
       0.1382424533367157 0.13845303654670715
0004b0 00 00 00 80 99 bd c1 3f 00 00 00 a0 3b be c1 3f
       0.13859862089157104 0.13861794769763947
0004c0 00 00 00 c0 e3 ba c1 3f 00 00 00 00 b4 b5 c1 3f
       0.1385159194469452 0.13835763931274414
0004d0 00 00 00 c0 ca ae c1 3f 00 00 00 c0 8d a5 c1 3f
       0.13814672827720642 0.13786479830741882
0004e0 00 00 00 60 2d 9a c1 3f 00 00 00 00 53 8e c1 3f
       0.13751761615276337 0.13715589046478271
0004f0 00 00 00 00 b6 82 c1 3f 00 00 00 e0 47 77 c1 3f
       0.13680148124694824 0.13645265996456146
000500 00 00 00 20 73 6c c1 3f 00 00 00 40 c3 60 c1 3f
       0.13612212240695953 0.1357654631137848
000510 00 00 00 00 bf 51 c1 3f 00 00 00 80 67 3d c1 3f
       0.1353071928024292 0.1346864104270935
000520 00 00 00 a0 86 23 c1 3f 00 00 00 e0 d7 04 c1 3f
       0.13389666378498077 0.13296030461788177
000530 00 00 00 60 55 e2 c0 3f 00 00 00 a0 ac b9 c0 3f
       0.1319071501493454 0.1306663304567337
000540 00 00 00 e0 10 88 c0 3f 00 00 00 e0 60 4b c0 3f
       0.12915240228176117 0.12730036675930023
000550 00 00 00 e0 df 03 c0 3f 00 00 00 40 75 64 bf 3f
       0.12511824071407318 0.12262661755084991
000560 00 00 00 80 ce ae be 3f 00 00 00 80 6a df bd 3f
       0.11985483765602112 0.11669030785560608
000570 00 00 00 a0 44 ef bc 3f 00 00 00 00 66 df bb 3f
       0.11302594095468521 0.10887753963470459
000580 00 00 00 60 fa a8 ba 3f 00 00 00 80 fb 4e b9 3f
       0.10414090007543564 0.09886142611503601
000590 00 00 00 a0 c4 d5 b7 3f 00 00 00 a0 c6 41 b6 3f
       0.09310559183359146 0.08694116026163101
0005a0 00 00 00 00 e6 94 b4 3f 00 00 00 00 04 dc b2 3f
       0.08039700984954834 0.0736696720123291
0005b0 00 00 00 60 90 1b b1 3f 00 00 00 60 42 ad ae 3f
       0.06682684272527695 0.05991561338305473
0005c0 00 00 00 20 3b 19 ab 3f 00 00 00 a0 1d 7a a7 3f
       0.05292687192559242 0.045853544026613235
0005d0 00 00 00 00 6b dc a3 3f 00 00 00 e0 22 56 9e 3f
       0.03879103064537048 0.029625458642840385
0005e0 00 00 00 80 72 b4 94 3f 00 00 00 c0 14 6f 86 3f
       0.020219601690769196 0.010954057797789574
0005f0 00 00 00 20 7b d8 5d 3f 00 00 00 00 d8 02 7c bf
       0.001821632613427937 -0.00683864951133728
000600 00 00 00 e0 a5 73 8e bf 00 00 00 e0 70 d5 96 bf
       -0.014869018457829952 -0.02229858748614788
000610 00 00 00 e0 1a de 9d bf 00 00 00 20 b6 1d a2 bf
       -0.029167575761675835 -0.03538293018937111
000620 00 00 00 80 fc e9 a4 bf 00 00 00 60 a7 56 a7 bf
       -0.04084767401218414 -0.04558299109339714
000630 00 00 00 60 1b 50 a9 bf 00 00 00 c0 1f d6 aa bf
       -0.04943929240107536 -0.05241488665342331
000640 00 00 00 00 04 f1 ab bf 00 00 00 60 c5 9f ac bf
       -0.0545731782913208 -0.05590645596385002
000650 00 00 00 20 58 db ac bf 00 00 00 80 f9 a5 ac bf
       -0.056360963732004166 -0.05595378577709198
000660 00 00 00 e0 40 11 ac bf 00 00 00 e0 fc 33 ab bf
       -0.05481913313269615 -0.05313101038336754
000670 00 00 00 20 81 0e aa bf 00 00 00 a0 54 ab a8 bf
       -0.05089190974831581 -0.04818214848637581
000680 00 00 00 60 bf 13 a7 bf 00 00 00 00 8c 58 a5 bf
       -0.045072536915540695 -0.04169118404388428
000690 00 00 00 e0 20 80 a3 bf 00 00 00 40 40 96 a1 bf
       -0.038086917251348495 -0.03434944897890091
0006a0 00 00 00 20 8f 4a 9f bf 00 00 00 40 50 72 9b bf
       -0.03055785782635212 -0.026803258806467056
0006b0 00 00 00 a0 ef bd 97 bf 00 00 00 40 0a 41 94 bf
       -0.0231854859739542 -0.019779358059167862
0006c0 00 00 00 c0 65 02 91 bf 00 00 00 c0 7f 04 8c bf
       -0.016610708087682724 -0.013680456206202507
0006d0 00 00 00 a0 a8 8c 86 bf 00 00 00 00 56 a2 81 bf
       -0.011010472662746906 -0.00861041247844696
0006e0 00 00 00 00 22 89 7a bf 00 00 00 00 44 db 72 bf
       -0.006478436291217804 -0.004603639245033264
0006f0 00 00 00 60 37 75 68 bf 00 00 00 20 a4 86 5a bf
       -0.0029855805914849043 -0.0016190150054171681
000700 00 00 00 40 fa 95 3f bf 00 00 00 80 3b 18 3d 3f
       -0.0004819618188776076 0.0004439492477104068
000710 00 00 00 80 fe 71 52 3f 00 00 00 c0 10 ee 59 3f
       0.0011258111335337162 0.0015826381277292967
000720 00 00 00 a0 ea a4 aa 3f 00 00 00 a0 ea a4 aa 3f
       0.05203946307301521 0.05203946307301521
000730 00 00 00 e0 72 83 aa 3f 00 00 00 60 78 7b aa 3f
       0.051784124225378036 0.05172325298190117
000740 00 00 00 20 3b 8f aa 3f 00 00 00 60 01 b1 aa 3f
       0.05187401548027992 0.05213169381022453
000750 00 00 00 40 14 db aa 3f 00 00 00 20 d9 0f ab 3f
       0.0524526908993721 0.05285528674721718
000760 00 00 00 c0 78 61 ab 3f 00 00 00 20 bd e7 ab 3f
       0.053478024899959564 0.05450240150094032
000770 00 00 00 00 92 8b ac 3f 00 00 00 e0 d4 3d ad 3f
       0.055752336978912354 0.05711236223578453
000780 00 00 00 20 af f3 ad 3f 00 00 00 20 d0 ab ae 3f
       0.058499787002801895 0.05990457907319069
000790 00 00 00 40 a8 68 af 3f 00 00 00 c0 b6 10 b0 3f
       0.06134534627199173 0.0627550333738327
0007a0 00 00 00 20 9f 68 b0 3f 00 00 00 20 93 ba b0 3f
       0.06409639865159988 0.06534690409898758
0007b0 00 00 00 e0 f2 ff b0 3f 00 00 00 e0 93 3d b1 3f
       0.06640546768903732 0.06734585016965866
0007c0 00 00 00 60 48 83 b1 3f 00 00 00 00 d7 cd b1 3f
       0.06840946525335312 0.06954711675643921
0007d0 00 00 00 40 56 13 b2 3f 00 00 00 c0 ea 4a b2 3f
       0.07060755789279938 0.07145564258098602
0007e0 00 00 00 e0 b9 74 b2 3f 00 00 00 80 d8 90 b2 3f
       0.07209359854459763 0.07252267003059387
0007f0 00 00 00 c0 e4 9d b2 3f 00 00 00 c0 81 9f b2 3f
       0.07272176444530487 0.0727463811635971
