data/mixamo/36_800_24/train/PASSIVE_MARKER/Weight_Shift/Weight_Shift.npy (npy, 82208 bytes, 1 tensors)

array f8 [15, 3, 228]
00000000: 0000 0020 0bdb 71bf 0000 0020 0bdb 71bf
00000010: 0000 0080 4cc2 76bf 0000 0040 6565 7dbf
00000020: 0000 00e0 3bd2 81bf 0000 00a0 d95d 85bf
00000030: 0000 00e0 70ae 89bf 0000 0080 6ba9 8ebf
00000040: 0000 0040 231f 92bf 0000 0020 2f00 95bf
00000050: 0000 0020 0f7e 97bf 0000 0040 acd9 99bf
00000060: 0000 0080 163e 9cbf 0000 0060 7eb1 9ebf
00000070: 0000 00e0 4f8e a0bf 0000 0000 a1c7 a1bf
00000080: 0000 0080 560f a3bf 0000 00c0 336b a4bf
00000090: 0000 0020 87f4 a5bf 0000 00c0 c1c2 a7bf
000000a0: 0000 0060 aff0 a9bf 0000 0060 7271 acbf
000000b0: 0000 00c0 cf36 afbf 0000 00c0 ee06 b1bf
000000c0: 0000 0040 8365 b2bf 0000 0060 42ab b3bf
000000d0: 0000 0060 c5d3 b4bf 0000 00c0 6ae0 b5bf
000000e0: 0000 0040 32d0 b6bf 0000 00a0 94a3 b7bf
000000f0: 0000 0000 7853 b8bf 0000 0060 3fe0 b8bf
00000100: 0000 0080 1f4c b9bf 0000 0040 8e9d b9bf
00000110: 0000 0080 82d4 b9bf 0000 0040 f2f0 b9bf
00000120: 0000 00e0 3af4 b9bf 0000 0000 dfe8 b9bf
00000130: 0000 00a0 f6cb b9bf 0000 0060 b29d b9bf
00000140: 0000 0020 e064 b9bf 0000 0080 e326 b9bf
00000150: 0000 0060 1ee5 b8bf 0000 0080 dba3 b8bf
00000160: 0000 00e0 9168 b8bf 0000 00e0 5536 b8bf
00000170: 0000 00c0 dd0f b8bf 0000 0020 4ff5 b7bf
00000180: 0000 0000 d3e8 b7bf 0000 0000 0ee9 b7bf
00000190: 0000 0080 e7f4 b7bf 0000 00a0 5009 b8bf
000001a0: 0000 00e0 6124 b8bf 0000 00e0 9c42 b8bf
000001b0: 0000 0060 4e62 b8bf 0000 0020 c580 b8bf
000001c0: 0000 0000 8b9a b8bf 0000 0060 27ad b8bf
000001d0: 0000 0040 14b8 b8bf 0000 0040 08be b8bf
000001e0: 0000 0060 25c0 b8bf 0000 0000 10c1 b8bf
000001f0: 0000 00a0 fac1 b8bf 0000 0040 3ac1 b8bf
00000200: 0000 0040 9cbd b8bf 0000 0080 92b5 b8bf
00000210: 0000 00e0 aea7 b8bf 0000 0040 f495 b8bf
00000220: 0000 0040 657f b8bf 0000 00a0 9f62 b8bf
00000230: 0000 0080 e040 b8bf 0000 00e0 a91b b8bf
00000240: 0000 0000 c8f4 b7bf 0000 0020 10ce b7bf
00000250: 0000 0080 2ca8 b7bf 0000 00a0 4082 b7bf
00000260: 0000 0000 ef5e b7bf 0000 0060 1a40 b7bf
00000270: 0000 00e0 2525 b7bf 0000 0040 900a b7bf
00000280: 0000 00a0 a6ed b6bf 0000 0000 a2c7 b6bf
00000290: 0000 00e0 3591 b6bf 0000 00a0 2c49 b6bf
000002a0: 0000 00c0 d3ec b5bf 0000 0020 8178 b5bf
000002b0: 0000 00a0 0de7 b4bf 0000 00e0 6d3a b4bf
000002c0: 0000 0020 376e b3bf 0000 00e0 ed84 b2bf
000002d0: 0000 00e0 f485 b1bf 0000 0000 1471 b0bf
000002e0: 0000 0080 ee80 aebf 0000 00e0 e1e6 abbf
000002f0: 0000 0000 c430 a9bf 0000 00c0 a97d a6bf
00000300: 0000 00e0 56d0 a3bf 0000 00e0 59cb a0bf
00000310: 0000 0000 1c39 9bbf 0000 0080 6ab7 94bf
00000320: 0000 00a0 580d 8cbf 0000 0000 ff8d 7dbf
00000330: 0000 00c0 837f 37bf 0000 0080 17f9 7a3f
00000340: 0000 00a0 2883 8d3f 0000 0020 d4df 963f
00000350: 0000 0080 2609 9f3f 0000 0020 4e8c a33f
00000360: 0000 0080 c875 a73f 0000 00a0 9341 ab3f
00000370: 0000 0040 3ee8 ae3f 0000 0080 652e b13f
00000380: 0000 0020 e3d6 b23f 0000 0000 c681 b43f
00000390: 0000 00a0 1944 b63f 0000 0080 930c b83f
000003a0: 0000 0080 ffc1 b93f 0000 0000 1f56 bb3f
000003b0: 0000 0020 7fc5 bc3f 0000 0080 fe0f be3f
000003c0: 0000 00e0 722d bf3f 0000 00e0 5a0e c03f
000003d0: 0000 00e0 176f c03f 0000 00e0 84bc c03f
000003e0: 0000 00c0 ccf5 c03f 0000 00e0 391b c13f
000003f0: 0000 0040 992b c13f 0000 0060 fc2b c13f
00000400: 0000 0020 3820 c13f 0000 0040 4c0c c13f
00000410: 0000 0000 eaf3 c03f 0000 0080 32dc c03f
00000420: 0000 0020 d3c5 c03f 0000 0000 eaae c03f
00000430: 0000 0020 b598 c03f 0000 0020 d384 c03f
00000440: 0000 00e0 4574 c03f 0000 0060 5767 c03f
00000450: 0000 00e0 e65d c03f 0000 00a0 d056 c03f
00000460: 0000 00e0 c552 c03f 0000 00c0 ca51 c03f
00000470: 0000 00a0 7554 c03f 0000 0060 785a c03f
00000480: 0000 0000 e463 c03f 0000 00e0 876e c03f
00000490: 0000 00e0 2978 c03f 0000 00e0 d47f c03f
000004a0: 0000 0060 a986 c03f 0000 0040 3d8d c03f
000004b0: 0000 00e0 1492 c03f 0000 00a0 5193 c03f
000004c0: 0000 00e0 af90 c03f 0000 0040 c38b c03f
000004d0: 0000 00e0 9484 c03f 0000 00c0 b27a c03f
000004e0: 0000 0060 106e c03f 0000 0080 4c60 c03f
000004f0: 0000 0060 a352 c03f 0000 0060 b645 c03f
00000500: 0000 0020 873a c03f 0000 00c0 e62f c03f
00000510: 0000 0060 8923 c03f 0000 0080 2813 c03f
00000520: 0000 0080 befc bf3f 0000 0080 42cb bf3f
00000530: 0000 0040 f193 bf3f 0000 00e0 d052 bf3f
00000540: 0000 0040 9002 bf3f 0000 0000 9f9e be3f
00000550: 0000 0080 7228 be3f 0000 00e0 86a3 bd3f
00000560: 0000 0020 7513 bd3f 0000 0000 4f71 bc3f
00000570: 0000 0020 84b3 bb3f 0000 00a0 9fd0 ba3f
00000580: 0000 0060 45c0 b93f 0000 00a0 2985 b83f
00000590: 0000 0020 7721 b73f 0000 0000 309a b53f
000005a0: 0000 0040 f7f0 b33f 0000 00c0 f331 b23f
000005b0: 0000 00a0 df66 b03f 0000 0000 662c ad3f
000005c0: 0000 0000 3683 a93f 0000 00a0 3dd8 a53f
000005d0: 0000 0000 2f3a a23f 0000 0000 235d 9b3f
000005e0: 0000 00a0 4c29 923f 0000 00e0 416b 823f
000005f0: 0000 0000 5c82 403f 0000 0040 74d5 7ebf
00000600: 0000 00a0 87bb 8ebf 0000 00a0 147e 96bf
00000610: 0000 0020 e31e 9dbf 0000 00e0 4694 a1bf
00000620: 0000 00e0 2448 a4bf 0000 0000 a4aa a6bf
00000630: 0000 0000 dbab a8bf 0000 00c0 8846 aabf
00000640: 0000 0080 2385 abbf 0000 00a0 ef67 acbf
00000650: 0000 0080 7edf acbf 0000 0000 aae9 acbf
00000660: 0000 0080 c294 acbf 0000 0080 ddf4 abbf
00000670: 0000 0040 5009 abbf 0000 0020 9bdd a9bf
00000680: 0000 00a0 387a a8bf 0000 0000 eaee a6bf
00000690: 0000 0040 8542 a5bf 0000 0020 2383 a3bf
000006a0: 0000 00e0 beba a1bf 0000 00e0 4ee7 9fbf
000006b0: 0000 00c0 6574 9cbf 0000 0040 3a33 99bf
000006c0: 0000 00c0 a02e 96bf 0000 00c0 cd67 93bf
000006d0: 0000 0000 fae2 90bf 0000 00e0 2a40 8dbf
000006e0: 0000 0000 6436 89bf 0000 0080 909e 85bf
000006f0: 0000 0040 6971 82bf 0000 0040 da5b 7fbf
00000700: 0000 00e0 b2a4 7abf 0000 00e0 c9be 76bf
00000710: 0000 00c0 88d5 73bf 0000 0020 0cdb 71bf
00000720: 0000 0000 5ce1 8c3f 0000 0000 5ce1 8c3f
00000730: 0000 0060 9a3b 8c3f 0000 0080 b213 8c3f
00000740: 0000 0020 6e75 8c3f 0000 00e0 971b 8d3f
00000750: 0000 0080 4cea 8d3f 0000 0020 97f0 8e3f
00000760: 0000 0060 1344 903f 0000 0020 2494 913f
00000770: 0000 0000 4f24 933f 0000 00a0 54d2 943f
00000780: 0000 0000 4384 963f 0000 00a0 d731 983f
00000790: 0000 0060 0ad7 993f 0000 00c0 9847 9b3f
000007a0: 0000 0080 8272 9c3f 0000 0080 8c52 9d3f
000007b0: 0000 0040 65d5 9d3f 0000 00a0 862f 9e3f
000007c0: 0000 0020 5bc9 9e3f 0000 00e0 f9b9 9f3f
000007d0: 0000 0060 f174 a03f 0000 0000 a20c a13f
000007e0: 0000 0080 7790 a13f 0000 00e0 5bee a13f
000007f0: 0000 0060 f11d a23f 0000 00a0 372a a23f
-0.004359286744147539 -0.004359286744147539 -0.005556391552090645 -0.0071767764165997505 -0.008701770566403866 -0.010432911105453968 -0.012539750896394253 -0.014971580356359482
-0.017696905881166458 -0.02050851471722126 -0.022941814735531807 -0.025244418531656265 -0.02758059650659561 -0.029973959550261497 -0.03233575448393822 -0.03472617268562317
-0.037226393818855286 -0.03988038748502731 -0.04288122430443764 -0.046407751739025116 -0.05066440626978874 -0.05555303022265434 -0.060965053737163544 -0.06651203334331512
-0.07186146080493927 -0.07683195918798447 -0.08135636895895004 -0.08545558154582977 -0.08911432325839996 -0.09233979135751724 -0.09502363204956055 -0.09717174619436264
-0.09881779551506042 -0.1000603586435318 -0.10089889168739319 -0.10133279860019684 -0.10138290375471115 -0.10120958089828491 -0.10076848417520523 -0.10006251186132431
-0.09919548779726028 -0.0982496440410614 -0.09724607318639755 -0.0962502658367157 -0.09534560889005661 -0.09457909315824509 -0.09399209916591644 -0.09358686953783035
-0.09339636564254761 -0.09339988231658936 -0.0935806930065155 -0.09389213472604752 -0.09430515021085739 -0.09476643055677414 -0.09525003284215927 -0.09571487456560135
-0.09610813856124878 -0.09639211744070053 -0.0965588241815567 -0.0966496616601944 -0.09668191522359848 -0.0966958999633789 -0.09670988470315933 -0.09669841825962067
-0.09664322435855865 -0.0965205729007721 -0.0963086411356926 -0.09603811800479889 -0.09569390118122101 -0.09525487571954727 -0.09473994374275208 -0.09417211264371872
-0.09357881546020508 -0.092988021671772 -0.0924098789691925 -0.09183124452829361 -0.09129232168197632 -0.09082188457250595 -0.09041058272123337 -0.09000493586063385
-0.0895637646317482 -0.08898365497589111 -0.08815323561429977 -0.0870540514588356 -0.08564494550228119 -0.08387000113725662 -0.08165059238672256 -0.0790165588259697
-0.07590050250291824 -0.07234083861112595 -0.06845026463270187 -0.06422543525695801 -0.059577420353889465 -0.05449586734175682 -0.04920017719268799 -0.04392748326063156
-0.03869887813925743 -0.032801445573568344 -0.026585042476654053 -0.02023092657327652 -0.013697330839931965 -0.007215496152639389 -0.000358552613761276 0.00658520869910717
0.014410321600735188 0.02233821339905262 0.030308343470096588 0.03817981854081154 0.04582048952579498 0.053234685212373734 0.060365624725818634 0.0671142041683197
0.07359141856431961 0.08010518550872803 0.08697662502527237 0.09394189715385437 0.10061642527580261 0.10678285360336304 0.11238855868577957 0.11743155121803284
0.12178724259138107 0.12543807923793793 0.12839029729366302 0.13075314462184906 0.13250121474266052 0.13364337384700775 0.13414302468299866 0.13415484130382538
0.13379575312137604 0.13318780064582825 0.13244366645812988 0.13171988725662231 0.1310371309518814 0.13033795356750488 0.12966026365756989 0.1290534883737564
0.12854836881160736 0.1281537264585495 0.12786565721035004 0.12764938175678253 0.12752602994441986 0.12749609351158142 0.1275774985551834 0.12776093184947968
0.12804841995239258 0.1283731311559677 0.12866710126399994 0.12890110909938812 0.12910954654216766 0.12931028008460999 0.12945805490016937 0.12949581444263458
0.12941549718379974 0.1292652189731598 0.12904606759548187 0.1287444531917572 0.1283588856458664 0.12793880701065063 0.12752191722393036 0.12712745368480682
0.12678612768650055 0.12646183371543884 0.12608449161052704 0.1255846619606018 0.12495031952857971 0.12419524788856506 0.12335117161273956 0.12235742062330246
0.12113286554813385 0.11960786581039429 0.11780467629432678 0.11577647179365158 0.11357814818620682 0.11110395193099976 0.10820794850587845 0.10474584251642227
0.10059007257223129 0.09578189998865128 0.09035439044237137 0.08438396453857422 0.07789559662342072 0.0710747092962265 0.0640697255730629 0.056979358196258545
0.049829185009002686 0.04266541078686714 0.03560015559196472 0.02672247588634491 0.017735669389367104 0.00899363961070776 0.0005038212984800339 -0.0075277844443917274
-0.015006122179329395 -0.021965334191918373 -0.028438137844204903 -0.03433438763022423 -0.039612915366888046 -0.04427063465118408 -0.048186153173446655 -0.05131938308477402
-0.05375014245510101 -0.0554804690182209 -0.05639262497425079 -0.05647021532058716 -0.05582244694232941 -0.054602548480033875 -0.05280543118715286 -0.05051884427666664
-0.0478074736893177 -0.04479151964187622 -0.04152313619852066 -0.03810987249016762 -0.03462788090109825 -0.03115580789744854 -0.027787771075963974 -0.024609480053186417
-0.02166224643588066 -0.01895066723227501 -0.016490846872329712 -0.014282546006143093 -0.012310773134231567 -0.01055634394288063 -0.009005377069115639 -0.007655956782400608
-0.006504725199192762 -0.0055530439130961895 -0.004842313937842846 -0.004359290469437838 0.01410171389579773 0.01410171389579773 0.013785558752715588 0.013709444552659988
0.013895855285227299 0.014212786220014095 0.01460704579949379 0.01510732714086771 0.01588468812406063 0.017166675999760628 0.018693193793296814 0.02033359743654728
0.021988913416862488 0.02362763322889805 0.02523437701165676 0.026640307158231735 0.027780570089817047 0.028635211288928986 0.029134351760149002 0.029478171840310097
0.030064987018704414 0.030982879921793938 0.03214220330119133 0.03329950571060181 0.03430531919002533 0.03502165898680687 0.03538469597697258 0.035478342324495316
