data/mixamo/36_800_24/train/AJ/Weight_Shift/Weight_Shift.npy (npy, 82208 bytes, 1 tensors)

array f8 [15, 3, 228]
0	0xbf81841480000000	-0.008552704006433487
1	0xbf81841480000000	-0.008552704006433487
2	0xbf839ffb20000000	-0.00958248320966959
3	0xbf86766c20000000	-0.010968060232698917
4	0xbf8927e2e0000000	-0.012283108197152615
5	0xbf8c3df0e0000000	-0.013790017925202847
6	0xbf8fffa940000000	-0.015624353662133217
7	0xbf92261020000000	-0.017723323777318
8	0xbf948080e0000000	-0.020021451637148857
9	0xbf96c83800000000	-0.022248148918151855
10	0xbf98b0ba60000000	-0.024111663922667503
11	0xbf9a72b9e0000000	-0.025828270241618156
12	0xbf9c35c0a0000000	-0.02754879929125309
13	0xbf9dfdc2e0000000	-0.029288334771990776
14	0xbf9fb336a0000000	-0.03095708228647709
15	0xbfa0b14080000000	-0.032602325081825256
16	0xbfa192eac0000000	-0.03432401269674301
17	0xbfa2852b60000000	-0.036172252148389816
18	0xbfa3a7d1c0000000	-0.03838973492383957
19	0xbfa5197a40000000	-0.041210003197193146
20	0xbfa6f74520000000	-0.0448552705347538
21	0xbfa92f79a0000000	-0.04919033125042915
22	0xbfabb899e0000000	-0.05414276942610741
23	0xbfae656fc0000000	-0.059367649257183075
24	0xbfb0848ec0000000	-0.06452266871929169
25	0xbfb1c3f0e0000000	-0.06939607113599777
26	0xbfb2ea1480000000	-0.0738842785358429
27	0xbfb3f52a60000000	-0.07795967906713486
28	0xbfb4e1d5c0000000	-0.08157096803188324
29	0xbfb5b17160000000	-0.08473881334066391
30	0xbfb65ef1c0000000	-0.08738623559474945
31	0xbfb6eb0a80000000	-0.08952394127845764
32	0xbfb7570f60000000	-0.09117218106985092
33	0xbfb7a90c20000000	-0.0924232080578804
34	0xbfb7e10e60000000	-0.09327783435583115
35	0xbfb7ff2080000000	-0.0937366783618927
36	0xbfb803bf60000000	-0.09380718320608139
37	0xbfb7f8c760000000	-0.0936398133635521
38	0xbfb7dade00000000	-0.09318339824676514
39	0xbfb7aa7520000000	-0.09244472533464432
40	0xbfb76e95e0000000	-0.09153115004301071
41	0xbfb72cb400000000	-0.09052586555480957
42	0xbfb6e64260000000	-0.08945097774267197
43	0xbfb6a00260000000	-0.08837904781103134
44	0xbfb6602000000000	-0.08740425109863281
45	0xbfb62a4e60000000	-0.08658304065465927
46	0xbfb601a680000000	-0.0859626829624176
47	0xbfb5e5f240000000	-0.08553995192050934
48	0xbfb5d93480000000	-0.08534553647041321
49	0xbfb5da0b80000000	-0.08535835146903992
50	0xbfb5e74320000000	-0.08556003123521805
51	0xbfb5fd8e40000000	-0.0859002023935318
52	0xbfb61ad0e0000000	-0.08634667843580246
53	0xbfb63b0f80000000	-0.08683869242668152
54	0xbfb65c6a80000000	-0.08734765648841858
55	0xbfb67c6fa0000000	-0.08783624321222305
56	0xbfb697c5e0000000	-0.08825337141752243
57	0xbfb6abd5e0000000	-0.08855950087308884
58	0xbfb6b811a0000000	-0.08874616771936417
59	0xbfb6bf31c0000000	-0.08885489404201508
60	0xbfb6c2c4c0000000	-0.08890943229198456
61	0xbfb6c5e640000000	-0.08895720541477203
62	0xbfb6c9c6a0000000	-0.08901635557413101
63	0xbfb6cc5f20000000	-0.08905596286058426
64	0xbfb6cc32a0000000	-0.08905331045389175
65	0xbfb6c75260000000	-0.08897890895605087
66	0xbfb6bc2080000000	-0.0888080894947052
67	0xbfb6acd940000000	-0.08857496082782745
68	0xbfb6987680000000	-0.08826389908790588
69	0xbfb67d8d20000000	-0.08785326033830643
70	0xbfb65d87c0000000	-0.08736465871334076
71	0xbfb63a1fa0000000	-0.08682439476251602
72	0xbfb6156700000000	-0.08626407384872437
73	0xbfb5f1a8a0000000	-0.08571866899728775
74	0xbfb5cfd140000000	-0.08520229160785675
75	0xbfb5aecae0000000	-0.08469837158918381
76	0xbfb5916a40000000	-0.08425010740756989
77	0xbfb57a2f60000000	-0.08389564603567123
78	0xbfb568d940000000	-0.08363111317157745
79	0xbfb55a41c0000000	-0.08340846002101898
80	0xbfb54c54e0000000	-0.08319597691297531
81	0xbfb537b6e0000000	-0.0828813835978508
82	0xbfb513cc40000000	-0.08233334124088287
83	0xbfb4df08a0000000	-0.08152822405099869
84	0xbfb49780a0000000	-0.08043674379587173
85	0xbfb439b520000000	-0.07900554686784744
86	0xbfb3c286a0000000	-0.07718697935342789
87	0xbfb335ac00000000	-0.07503771781921387
88	0xbfb28dcd20000000	-0.07247621566057205
89	0xbfb1ccf660000000	-0.06953372806310654
90	0xbfb0faf360000000	-0.06632920354604721
91	0xbfb0157c40000000	-0.06282784044742584
92	0xbfae2d0c40000000	-0.0589374378323555
93	0xbfabfa64c0000000	-0.05464472621679306
94	0xbfa9ac7d80000000	-0.050144121050834656
95	0xbfa75f1700000000	-0.04564735293388367
96	0xbfa512f260000000	-0.04116017743945122
97	0xbfa27637a0000000	-0.036058176308870316
98	0xbf9f5bb940000000	-0.030623335391283035
99	0xbf99a3ef60000000	-0.025039425119757652
100	0xbf93bd7f60000000	-0.01927756331861019
101	0xbf8bd551c0000000	-0.013590468093752861
102	0xbf7f5bc9e0000000	-0.007655895780771971
103	0xbf5d3f04c0000000	-0.0017850443255156279
104	0x3f737453a0000000	0.004749609623104334
105	0x3f873b8c80000000	0.011344049125909805
106	0x3f925d48c0000000	0.017933975905179977
107	0x3f98f38140000000	0.02436639741063118
108	0x3f9f34d1c0000000	0.03047492727637291
109	0x3fa294d760000000	0.03629181906580925
110	0x3fa56b7520000000	0.04183546081185341
111	0x3fa82218e0000000	0.047135140746831894
112	0x3faac5a280000000	0.05228908360004425
113	0x3fad7d7840000000	0.05759788304567337
114	0x3fb03e3980000000	0.06344947218894958
115	0x3fb1d283e0000000	0.06961845606565475
116	0x3fb36103c0000000	0.07569907605648041
117	0x3fb4d86480000000	0.08142688870429993
118	0x3fb6313700000000	0.08668845891952515
119	0x3fb768ec80000000	0.09144476056098938
120	0x3fb8764820000000	0.09555483609437943
121	0x3fb9571640000000	0.09898509085178375
122	0x3fba0cce40000000	0.10175789892673492
123	0x3fbaa01a00000000	0.10400545597076416
124	0x3fbb0e5980000000	0.1056877076625824
125	0x3fbb54c940000000	0.10676248371601105
126	0x3fbb6fa940000000	0.10717256367206573
127	0x3fbb698760000000	0.10707899183034897
128	0x3fbb4b34a0000000	0.1066162958741188
129	0x3fbb1d6420000000	0.10591722279787064
130	0x3fbae75960000000	0.1050926074385643
131	0x3fbab392e0000000	0.10430257767438889
132	0x3fba830ba0000000	0.10356209427118301
133	0x3fba5118c0000000	0.10279993712902069
134	0x3fba1f8300000000	0.10204333066940308
135	0x3fb9f194a0000000	0.10134247690439224
136	0x3fb9c9dc80000000	0.10073640942573547
137	0x3fb9a97ea0000000	0.10024253278970718
138	0x3fb98ff960000000	0.09985312074422836
139	0x3fb97ad000000000	0.09953022003173828
140	0x3fb96c2140000000	0.09930618107318878
141	0x3fb964f700000000	0.09919685125350952
142	0x3fb9669300000000	0.09922140836715698
143	0x3fb96fbfa0000000	0.09936139732599258
144	0x3fb9807d20000000	0.09961683303117752
145	0x3fb99486e0000000	0.09992258995771408
146	0x3fb9a70400000000	0.1002047061920166
147	0x3fb9b5e980000000	0.10043200850486755
148	0x3fb9c3f080000000	0.10064604878425598
149	0x3fb9d29160000000	0.10086926072835922
150	0x3fb9df05c0000000	0.10105930268764496
151	0x3fb9e52e60000000	0.10115327686071396
152	0x3fb9e3ee80000000	0.10113421082496643
153	0x3fb9de02a0000000	0.10104385763406754
154	0x3fb9d3a780000000	0.10088583827018738
155	0x3fb9c3e280000000	0.10064521431922913
156	0x3fb9ae00e0000000	0.10031133145093918
157	0x3fb9951a60000000	0.09993138164281845
158	0x3fb97c5200000000	0.09955322742462158
159	0x3fb965ce60000000	0.09920968860387802
160	0x3fb95431c0000000	0.09894095361232758
161	0x3fb945b4c0000000	0.09871987998485565
162	0x3fb9361ca0000000	0.0984819307923317
163	0x3fb92081c0000000	0.0981522649526596
164	0x3fb9039dc0000000	0.09771142899990082
165	0x3fb8e0cbc0000000	0.09718011319637299
166	0x3fb8bb3aa0000000	0.09660688787698746
167	0x3fb88fd3c0000000	0.09594462811946869
168	0x3fb858ee40000000	0.09510697424411774
169	0x3fb8115aa0000000	0.09401480108499527
170	0x3fb7bacbc0000000	0.09269402921199799
171	0x3fb7598140000000	0.09120948612689972
172	0x3fb6f1cae0000000	0.08962696045637131
173	0x3fb67dc940000000	0.08785684406757355
174	0x3fb5f55ae0000000	0.08577506989240646
175	0x3fb551ee80000000	0.08328142762184143
176	0x3fb48a4c00000000	0.08023524284362793
177	0x3fb39ebb20000000	0.0766407921910286
178	0x3fb28f8be0000000	0.07250284403562546
179	0x3fb15f8800000000	0.06786394119262695
180	0x3fb00ecc00000000	0.06272578239440918
181	0x3fad4fd8a0000000	0.057249803096055984
182	0x3faa6754a0000000	0.05156959965825081
183	0x3fa76fee00000000	0.04577583074569702
184	0x3fa46c2660000000	0.03988761827349663
185	0x3fa161a0e0000000	0.03394797071814537
186	0x3f9cbd4680000000	0.02806577831506729
187	0x3f952f70a0000000	0.020688781514763832
188	0x3f8b04f720000000	0.013193064369261265
189	0x3f77e97000000000	0.005837857723236084
190	0xbf56cbab20000000	-0.0013913317816331983
191	0xbf80f50460000000	-0.008279833011329174
192	0xbf8e30aee0000000	-0.014741293154656887
193	0xbf954bdac0000000	-0.02079717442393303
194	0xbf9b1b0aa0000000	-0.02647034265100956
195	0xbfa0364e00000000	-0.03166431188583374
196	0xbfa29c6240000000	-0.03634936362504959
197	0xbfa4c30c40000000	-0.040550597012043
198	0xbfa69a4d40000000	-0.04414597898721695
199	0xbfa81b3700000000	-0.04708263278007507
200	0xbfa957cf60000000	-0.0494980625808239
201	0xbfaa47b540000000	-0.05132833868265152
202	0xbfaadafbc0000000	-0.0524519607424736
203	0xbfab0da480000000	-0.052838459610939026
204	0xbfaaea7760000000	-0.05257008597254753
205	0xbfaa816780000000	-0.051768526434898376
206	0xbfa9d12c00000000	-0.05042397975921631
207	0xbfa8e503a0000000	-0.048622239381074905
208	0xbfa7c3c600000000	-0.046415507793426514
209	0xbfa67b6e60000000	-0.04391045495867729
210	0xbfa511bca0000000	-0.04115094617009163
211	0xbfa393f780000000	-0.038238272070884705
212	0xbfa20b0200000000	-0.035240232944488525
213	0xbfa080a200000000	-0.03223139047622681
214	0xbf9e022180000000	-0.029305003583431244
215	0xbf9b2fa180000000	-0.02654888480901718
216	0xbf989435e0000000	-0.02400287799537182
217	0xbf962fe760000000	-0.0216671135276556
218	0xbf94057560000000	-0.019552072510123253
219	0xbf9210e080000000	-0.01764250546693802
220	0xbf904be0e0000000	-0.01591445319354534
221	0xbf8d6620e0000000	-0.014354950748383999
222	0xbf8a881bc0000000	-0.012954918667674065
223	0xbf87fcfa80000000	-0.01171298697590828
224	0xbf85c3f660000000	-0.010627674870193005
225	0xbf83e45e60000000	-0.009712922386825085
226	0xbf827a6400000000	-0.009022504091262817
227	0xbf81841540000000	-0.008552709594368935
228	0xbf7189d640000000	-0.004281842149794102
229	0xbf7189d640000000	-0.004281842149794102
230	0xbf72e4a400000000	-0.004612579941749573
231	0xbf73256a20000000	-0.0046743531711399555
232	0xbf7238d3a0000000	-0.004448725376278162
233	0xbf70c07b00000000	-0.004089813679456711
234	0xbf6e0a7120000000	-0.003667088458314538
235	0xbf69cbb4e0000000	-0.0031488926615566015
236	0xbf633d3960000000	-0.0023485298734158278
237	0xbf50fdcee0000000	-0.0010370750678703189
238	0x3f412ada80000000	0.0005239073652774096
239	0x3f61e777c0000000	0.0021855677478015423
240	0x3f6f77e600000000	0.003841351717710495
241	0x3f764bb540000000	0.005443294532597065
242	0x3f7c8425e0000000	0.006961963605135679
243	0x3f80d59820000000	0.00821989867836237
244	0x3f82c11460000000	0.009157332591712475
245	0x3f83ea5920000000	0.009724327363073826
246	0x3f8439a340000000	0.00987556017935276
247	0x3f843d0240000000	0.009881990030407906
248	0x3f84e6b280000000	0.010205645114183426
249	0x3f86799480000000	0.010974083095788956
250	0x3f88d62be0000000	0.012127249501645565
251	0x3f8b6deee0000000	0.013393274508416653
252	0x3f8dda6000000000	0.01457667350769043
253	0x3f8fb9f000000000	0.015491366386413574
254	0x3f906a2cc0000000	0.016030024737119675
255	0x3f909d9800000000	0.01622617244720459
