data/mixamo/36_800_24/train/LOLA_B_STYPEREK/Weight_Shift/Weight_Shift.npy (npy, 82208 bytes, 1 tensors)

array f8 [15, 3, 228]
0	0xbf65625c20000000	-0.002610378200188279
1	0xbf65625c20000000	-0.002610378200188279
2	0xbf70856760000000	-0.004033473785966635
3	0xbf785cac00000000	-0.0059477537870407104
4	0xbf7facefa0000000	-0.007733284030109644
5	0xbf83f04760000000	-0.009735639207065105
6	0xbf88f12f00000000	-0.012178771197795868
7	0xbf8ec60dc0000000	-0.015026194974780083
8	0xbf92a1ac20000000	-0.018194856122136116
9	0xbf95c58f20000000	-0.021261440590023994
10	0xbf985ff800000000	-0.02380359172821045
11	0xbf9ac3c660000000	-0.026137446984648705
12	0xbf9d2f4d20000000	-0.02850075252354145
13	0xbf9fb43c20000000	-0.03096097894012928
14	0xbfa11baaa0000000	-0.03341420367360115
15	0xbfa2653ee0000000	-0.035928692668676376
16	0xbfa3c2ffa0000000	-0.038597095757722855
17	0xbfa5366260000000	-0.04143054410815239
18	0xbfa6d37560000000	-0.044582050293684006
19	0xbfa8b16a60000000	-0.04822857305407524
20	0xbfaae96e00000000	-0.052562177181243896
21	0xbfad7c0440000000	-0.05758679658174515
22	0xbfb035f480000000	-0.06332328915596008
23	0xbfb1c3e900000000	-0.06939560174942017
24	0xbfb34c84c0000000	-0.07538633048534393
25	0xbfb4bea000000000	-0.08103370666503906
26	0xbfb61449a0000000	-0.08624706417322159
27	0xbfb74a4a40000000	-0.09097732603549957
28	0xbfb8590a40000000	-0.09510864317417145
29	0xbfb940fbc0000000	-0.0986478179693222
30	0xbfba00af60000000	-0.10157295316457748
31	0xbfba9ee8e0000000	-0.10398726910352707
32	0xbfbb1ec280000000	-0.10593810677528381
33	0xbfbb83ae80000000	-0.1074780523777008
34	0xbfbbca6ca0000000	-0.10855749994516373
35	0xbfbbf08de0000000	-0.10913931578397751
36	0xbfbbf772e0000000	-0.10924451798200607
37	0xbfbbece960000000	-0.10908373445272446
38	0xbfbbceede0000000	-0.10862623900175095
39	0xbfbb9cc1c0000000	-0.10786066949367523
40	0xbfbb5c64c0000000	-0.10687856376171112
41	0xbfbb148840000000	-0.10578204691410065
42	0xbfbac86020000000	-0.10461998730897903
43	0xbfba7cd3a0000000	-0.10346720367670059
44	0xbfba365180000000	-0.1023913323879242
45	0xbfb9f8a2a0000000	-0.1014501228928566
46	0xbfb9c94c80000000	-0.10072782635688782
47	0xbfb9a93980000000	-0.10023841261863708
48	0xbfb99988e0000000	-0.09999900311231613
49	0xbfb99821a0000000	-0.09997759014368057
50	0xbfb9a4d640000000	-0.10017146170139313
51	0xbfb9bc5a80000000	-0.10053029656410217
52	0xbfb9dbce60000000	-0.10101022571325302
53	0xbfb9fe3d80000000	-0.10153564810752869
54	0xbfba2170e0000000	-0.10207276791334152
55	0xbfba435720000000	-0.10259003192186356
56	0xbfba611380000000	-0.10304376482963562
57	0xbfba77b780000000	-0.10338923335075378
58	0xbfba85c3a0000000	-0.10360357910394669
59	0xbfba8d9940000000	-0.10372312366962433
60	0xbfba90ce00000000	-0.10377204418182373
61	0xbfba931fc0000000	-0.10380743443965912
62	0xbfba966720000000	-0.10385746508836746
63	0xbfba985140000000	-0.103886678814888
64	0xbfba963420000000	-0.10385442525148392
65	0xbfba8de560000000	-0.10372766107320786
66	0xbfba7eb200000000	-0.10349571704864502
67	0xbfba6b2160000000	-0.10319717973470688
68	0xbfba51b300000000	-0.1028091311454773
69	0xbfba312380000000	-0.10231229662895203
70	0xbfba0affc0000000	-0.1017303317785263
71	0xbfb9e07200000000	-0.1010810136795044
72	0xbfb9b347a0000000	-0.10039184242486954
73	0xbfb985cb00000000	-0.0996977686882019
74	0xbfb958d7c0000000	-0.09901188313961029
75	0xbfb92b6940000000	-0.09831865131855011
76	0xbfb9006660000000	-0.09766235202550888
77	0xbfb8da9800000000	-0.09708547592163086
78	0xbfb8ba3880000000	-0.09659150242805481
79	0xbfb89b4720000000	-0.09611935168504715
80	0xbfb87b5260000000	-0.09563174098730087
81	0xbfb8534a00000000	-0.09502089023590088
82	0xbfb81ae360000000	-0.0941602811217308
83	0xbfb7cede60000000	-0.09300031512975693
84	0xbfb76ad360000000	-0.0914737805724144
85	0xbfb6eb3420000000	-0.08952642232179642
86	0xbfb64f1c40000000	-0.0871446281671524
87	0xbfb59ab600000000	-0.08439195156097412
88	0xbfb4c715e0000000	-0.08116280287504196
89	0xbfb3d38900000000	-0.07744652032852173
90	0xbfb2c5ca20000000	-0.07333052903413773
91	0xbfb19d21e0000000	-0.06880389899015427
92	0xbfb0547b60000000	-0.06378909200429916
93	0xbfade20fa0000000	-0.05836533382534981
94	0xbfab03ccc0000000	-0.05276336520910263
95	0xbfa8187360000000	-0.04706154391169548
96	0xbfa5168bc0000000	-0.04118763655424118
97	0xbfa19f1f20000000	-0.03441712632775307
98	0xbf9bdb4180000000	-0.027203582227230072
99	0xbf9430cce0000000	-0.01971740834414959
100	0xbf8871bdc0000000	-0.011935694143176079
101	0xbf70f68000000000	-0.004141330718994141
102	0x3f6fdd6f60000000	0.0038897681515663862
103	0x3f884abdc0000000	0.011861307546496391
104	0x3f95319440000000	0.020696941763162613
105	0x3f9e416a40000000	0.02954641357064247
106	0x3fa39e8a60000000	0.0383189432322979
107	0x3fa803c400000000	0.04690372943878174
108	0x3fac3da8e0000000	0.05515792593359947
109	0x3fb026df60000000	0.0630931481719017
110	0x3fb2190000000000	0.0706939697265625
111	0x3fb3ea6cc0000000	0.07779578864574432
112	0x3fb5a09300000000	0.08448141813278198
113	0x3fb7530560000000	0.09111054986715317
114	0x3fb922a020000000	0.09818459302186966
115	0x3fbb029440000000	0.10550810396671295
116	0x3fbcd8d0a0000000	0.11268333345651627
117	0x3fbe9341c0000000	0.11943446099758148
118	0x3fc016d540000000	0.1256968080997467
119	0x3fc0d1abe0000000	0.13139866292476654
120	0x3fc1720900000000	0.13629257678985596
121	0x3fc1f669c0000000	0.14033243060112
122	0x3fc2611560000000	0.14358775317668915
123	0x3fc2b9e520000000	0.14629806578159332
124	0x3fc3025080000000	0.14850813150405884
125	0x3fc337b960000000	0.15013806521892548
126	0x3fc35436e0000000	0.1510075181722641
127	0x3fc35c35a0000000	0.15125150978565216
128	0x3fc354d720000000	0.1510266214609146
129	0x3fc3442280000000	0.1505168080329895
130	0x3fc32fe0a0000000	0.14989860355854034
131	0x3fc31dc180000000	0.14934557676315308
132	0x3fc30d46e0000000	0.1488426774740219
133	0x3fc2fb2b60000000	0.14829008281230927
134	0x3fc2e85da0000000	0.1477162390947342
135	0x3fc2d6c760000000	0.1471795290708542
136	0x3fc2c76ec0000000	0.14671120047569275
137	0x3fc2bace80000000	0.14632588624954224
138	0x3fc2b14240000000	0.14603450894355774
139	0x3fc2aa0280000000	0.14581328630447388
140	0x3fc2a55ca0000000	0.14567144215106964
141	0x3fc2a32b20000000	0.14560450613498688
142	0x3fc2a49a00000000	0.14564824104309082
143	0x3fc2a9aea0000000	0.1458032876253128
144	0x3fc2b28800000000	0.1460733413696289
145	0x3fc2bc8a80000000	0.14637881517410278
146	0x3fc2c4c080000000	0.14662939310073853
147	0x3fc2c9e640000000	0.14678648114204407
148	0x3fc2ce5aa0000000	0.14692242443561554
149	0x3fc2d44520000000	0.1471029669046402
150	0x3fc2da1b60000000	0.14728109538555145
151	0x3fc2dc3ce0000000	0.1473461240530014
152	0x3fc2d96aa0000000	0.14726002514362335
153	0x3fc2d3e9c0000000	0.1470920741558075
154	0x3fc2cc8ca0000000	0.14686734974384308
155	0x3fc2c2bbe0000000	0.14656780660152435
156	0x3fc2b61020000000	0.146181121468544
157	0x3fc2a7d3c0000000	0.14574667811393738
158	0x3fc298ca80000000	0.14528781175613403
159	0x3fc289e640000000	0.14483335614204407
160	0x3fc27d0800000000	0.1444406509399414
161	0x3fc270e700000000	0.14407050609588623
162	0x3fc26276c0000000	0.14362987875938416
163	0x3fc24ecf60000000	0.1430300921201706
164	0x3fc2354060000000	0.14225010573863983
165	0x3fc2165c00000000	0.14130735397338867
166	0x3fc1f38a20000000	0.1402447372674942
167	0x3fc1cabbe0000000	0.13899944722652435
168	0x3fc1991360000000	0.13748399913311005
169	0x3fc15b9360000000	0.13560716807842255
170	0x3fc1120ae0000000	0.13336311280727386
171	0x3fc0bdefe0000000	0.130796417593956
172	0x3fc0624fe0000000	0.12800024449825287
173	0x3fbff92bc0000000	0.12489579617977142
174	0x3fbf106960000000	0.1213441714644432
175	0x3fbe0463c0000000	0.11725448071956635
176	0x3fbcceb6e0000000	0.1125292107462883
177	0x3fbb701ca0000000	0.1071794405579567
178	0x3fb9e62c20000000	0.10116840153932571
179	0x3fb83249a0000000	0.09451732784509659
180	0x3fb6573760000000	0.08726831525564194
181	0x3fb465f560000000	0.07968076318502426
182	0x3fb26a63c0000000	0.07193587720394135
183	0x3fb069c880000000	0.06411412358283997
184	0x3facc98a00000000	0.05622512102127075
185	0x3fa8bb6f20000000	0.04830500856041908
186	0x3fa4b811a0000000	0.04046683385968208
187	0x3f9f329240000000	0.03046635165810585
188	0x3f94d6ba80000000	0.020350374281406403
189	0x3f857db0e0000000	0.010493642650544643
190	0x3f4d14a020000000	0.0008874685154296458
191	0xbf80983a80000000	-0.00810285285115242
192	0xbf90bb7aa0000000	-0.01634017564356327
193	0xbf988b8540000000	-0.023969728499650955
194	0xbf9fcf9700000000	-0.031065329909324646
195	0xbfa32f5960000000	-0.03747062012553215
196	0xbfa618a6c0000000	-0.04315682500600815
197	0xbfa8a37bc0000000	-0.04812227934598923
198	0xbfaabf57c0000000	-0.05224107950925827
199	0xbfac6b5680000000	-0.055506423115730286
200	0xbfadafdf20000000	-0.057982418686151505
201	0xbfae908ba0000000	-0.05969654396176338
202	0xbfaefed0e0000000	-0.06053784117102623
203	0xbfaef9b860000000	-0.06049896404147148
204	0xbfae8ed3c0000000	-0.059683434665203094
205	0xbfadd26460000000	-0.058245789259672165
206	0xbfacc5eae0000000	-0.05619749054312706
207	0xbfab74c8c0000000	-0.05362536758184433
208	0xbfa9e63c00000000	-0.05058467388153076
209	0xbfa82cdea0000000	-0.04721732810139656
210	0xbfa652d000000000	-0.04360055923461914
211	0xbfa4664fc0000000	-0.03984307497739792
212	0xbfa2709f80000000	-0.03601549565792084
213	0xbfa07de8c0000000	-0.032210610806941986
214	0xbf9d36ae00000000	-0.02852889895439148
215	0xbf99a5d000000000	-0.025046586990356445
216	0xbf964fdd20000000	-0.021789031103253365
217	0xbf933716c0000000	-0.018764834851026535
218	0xbf90660c40000000	-0.016014281660318375
219	0xbf8bc96420000000	-0.01356771681457758
220	0xbf8760a600000000	-0.01141481101512909
221	0xbf83782300000000	-0.009506486356258392
222	0xbf80005c00000000	-0.007813185453414917
223	0xbf79f94840000000	-0.00634124968200922
224	0xbf74bf50a0000000	-0.005065264645963907
225	0xbf704bcea0000000	-0.0039785453118383884
226	0xbf69df0320000000	-0.0031580983195453882
227	0xbf65625ca0000000	-0.0026103791315108538
228	0xbf7b881520000000	-0.006721575278788805
229	0xbf7b881520000000	-0.006721575278788805
230	0xbf7d04ea40000000	-0.00708476547151804
231	0xbf7d785800000000	-0.007194846868515015
232	0xbf7cc3ed80000000	-0.0070227887481451035
233	0xbf7b77bbe0000000	-0.006705984007567167
234	0xbf79cebb80000000	-0.006300671026110649
235	0xbf77a89380000000	-0.005776001140475273
236	0xbf7444c3e0000000	-0.004948392044752836
237	0xbf6d3de5e0000000	-0.00356955430470407
238	0xbf5f738940000000	-0.0019196358043700457
239	0xbf212eb0c0000000	-0.0001310911902692169
240	0x3f5bb124c0000000	0.0016901835333555937
241	0x3f6cbed1c0000000	0.003508958499878645
242	0x3f75bb7da0000000	0.005305758211761713
243	0x3f7c1920e0000000	0.006859901826828718
244	0x3f809ce4c0000000	0.008111750707030296
245	0x3f827c9520000000	0.009026684798300266
246	0x3f8378e240000000	0.009507911279797554
247	0x3f840e6ac0000000	0.009793123230338097
248	0x3f852793e0000000	0.010329394601285458
249	0x3f870e3040000000	0.011257531121373177
250	0x3f89a4f3e0000000	0.012521653436124325
251	0x3f8c5b0ae0000000	0.013845524750649929
252	0x3f8ecba140000000	0.015036830678582191
253	0x3f90483840000000	0.015900496393442154
254	0x3f90bf2e00000000	0.016354292631149292
255	0x3f90e365c0000000	0.01649245247244835
