data/mixamo/36_800_24/train/URIEL_A_PLOTEXIA/Weight_Shift/Weight_Shift.npy (npy, 82208 bytes, 1 tensors)

array f8 [15, 3, 228]
00000000: 0000 0000 6e70 91bf 0000 0000 6e70 91bf
00000010: 0000 0040 d8e1 92bf 0000 00c0 3fc9 94bf
00000020: 0000 0060 3793 96bf 0000 00a0 e69f 98bf
00000030: 0000 0040 3023 9bbf 0000 00e0 b901 9ebf
00000040: 0000 0040 5e87 a0bf 0000 0040 79d6 a1bf
00000050: 0000 0060 a9d6 a2bf 0000 00e0 49b3 a3bf
00000060: 0000 0000 b28c a4bf 0000 0040 3a68 a5bf
00000070: 0000 00e0 cd35 a6bf 0000 0040 e8fd a6bf
00000080: 0000 00e0 1cd7 a7bf 0000 00e0 a0cc a8bf
00000090: 0000 00a0 1016 aabf 0000 00a0 c2e3 abbf
000000a0: 0000 0000 e24a aebf 0000 0080 2896 b0bf
000000b0: 0000 0040 4843 b2bf 0000 0000 0f12 b4bf
000000c0: 0000 0040 02e2 b5bf 0000 0080 c3a1 b7bf
000000d0: 0000 0060 bb47 b9bf 0000 00a0 76ca babf
000000e0: 0000 0060 6b1d bcbf 0000 0080 3742 bdbf
000000f0: 0000 0060 9736 bebf 0000 00e0 a6fc bebf
00000100: 0000 00e0 5d95 bfbf 0000 0040 dc04 c0bf
00000110: 0000 00c0 962d c0bf 0000 0040 2145 c0bf
00000120: 0000 00e0 d44a c0bf 0000 00c0 d844 c0bf
00000130: 0000 0060 a330 c0bf 0000 00c0 900e c0bf
00000140: 0000 0020 71c6 bfbf 0000 0040 d964 bfbf
00000150: 0000 0080 5bfb bebf 0000 00e0 1a92 bebf
00000160: 0000 00a0 2332 bebf 0000 0000 3fe1 bdbf
00000170: 0000 0080 e5a4 bdbf 0000 0040 4d7c bdbf
00000180: 0000 00e0 8d69 bdbf 0000 00c0 bb6a bdbf
00000190: 0000 00e0 6e7e bdbf 0000 0060 df9f bdbf
000001a0: 0000 0040 adcb bdbf 0000 00e0 14fb bdbf
000001b0: 0000 0020 292b bebf 0000 0000 4359 bebf
000001c0: 0000 00e0 ee80 bebf 0000 00e0 749e bebf
000001d0: 0000 0080 83b0 bebf 0000 00e0 7cba bebf
000001e0: 0000 0020 29bf bebf 0000 0060 1cc4 bebf
000001f0: 0000 00c0 40cb bebf 0000 00c0 90d1 bebf
00000200: 0000 0080 b2d4 bebf 0000 0080 f2d0 bebf
00000210: 0000 0060 dcc3 bebf 0000 00a0 18b1 bebf
00000220: 0000 00c0 b496 bebf 0000 0020 5d72 bebf
00000230: 0000 0000 7646 bebf 0000 0080 7215 bebf
00000240: 0000 00a0 6ae2 bdbf 0000 0080 73b1 bdbf
00000250: 0000 00c0 cb83 bdbf 0000 0060 ab56 bdbf
00000260: 0000 0080 d12d bdbf 0000 00e0 8c0e bdbf
00000270: 0000 0080 41fa bcbf 0000 00e0 18ed bcbf
00000280: 0000 0040 54e5 bcbf 0000 0040 f6d7 bcbf
00000290: 0000 00c0 b5b6 bcbf 0000 0060 3d7e bcbf
000002a0: 0000 0020 a52d bcbf 0000 0060 febf bbbf
000002b0: 0000 0000 3235 bbbf 0000 0020 7895 babf
000002c0: 0000 0080 30d6 b9bf 0000 00a0 cef6 b8bf
000002d0: 0000 00e0 1501 b8bf 0000 0000 26ef b6bf
000002e0: 0000 0020 f9b8 b5bf 0000 0020 f95e b4bf
000002f0: 0000 00c0 88f1 b2bf 0000 0020 6b80 b1bf
00000300: 0000 00e0 720a b0bf 0000 0080 39b1 acbf
00000310: 0000 0040 d201 a9bf 0000 00a0 082b a5bf
00000320: 0000 00e0 422c a1bf 0000 00c0 6371 9abf
00000330: 0000 0020 b467 92bf 0000 00a0 d066 85bf
00000340: 0000 0040 c231 62bf 0000 0020 649e 783f
00000350: 0000 00c0 c402 8d3f 0000 0000 f08d 963f
00000360: 0000 0040 69f8 9d3f 0000 0020 476c a23f
00000370: 0000 0040 4eb8 a53f 0000 00a0 04f6 a83f
00000380: 0000 0060 d91c ac3f 0000 00e0 7646 af3f
00000390: 0000 0060 9166 b13f 0000 00e0 1b54 b33f
000003a0: 0000 0080 8b4a b53f 0000 00a0 9b2f b73f
000003b0: 0000 00c0 edf7 b83f 0000 00e0 559c ba3f
000003c0: 0000 0040 6808 bc3f 0000 0000 af32 bd3f
000003d0: 0000 00a0 e71e be3f 0000 0000 56e0 be3f
000003e0: 0000 0060 ad76 bf3f 0000 0040 b1d8 bf3f
000003f0: 0000 0000 5bfb bf3f 0000 0040 d8ec bf3f
00000400: 0000 0060 22bb bf3f 0000 0040 3274 bf3f
00000410: 0000 0000 5024 bf3f 0000 00c0 c1da be3f
00000420: 0000 0000 7897 be3f 0000 0080 9551 be3f
00000430: 0000 0000 5a0a be3f 0000 0060 79c6 bd3f
00000440: 0000 0060 a48a bd3f 0000 0020 6459 bd3f
00000450: 0000 0020 0732 bd3f 0000 0060 de10 bd3f
00000460: 0000 0000 2ff9 bc3f 0000 0080 eeec bc3f
00000470: 0000 00a0 93ed bc3f 0000 00c0 dff8 bc3f
00000480: 0000 0080 0e0f bd3f 0000 00c0 272a bd3f
00000490: 0000 0060 6042 bd3f 0000 0000 0655 bd3f
000004a0: 0000 0020 4868 bd3f 0000 0060 2e7f bd3f
000004b0: 0000 0040 c295 bd3f 0000 00a0 eaa4 bd3f
000004c0: 0000 00e0 fda9 bd3f 0000 00c0 a3a8 bd3f
000004d0: 0000 0040 e8a1 bd3f 0000 0040 1494 bd3f
000004e0: 0000 00a0 d77c bd3f 0000 0040 f55f bd3f
000004f0: 0000 00e0 6242 bd3f 0000 0000 8a28 bd3f
00000500: 0000 00a0 a417 bd3f 0000 00a0 ca0d bd3f
00000510: 0000 0000 2e05 bd3f 0000 0020 83f5 bc3f
00000520: 0000 0020 dfda bc3f 0000 00e0 51b6 bc3f
00000530: 0000 0060 5a8d bc3f 0000 0040 985d bc3f
00000540: 0000 0080 b41f bc3f 0000 00c0 c8ca bb3f
00000550: 0000 0060 4d60 bb3f 0000 0020 63e6 ba3f
00000560: 0000 00c0 3765 ba3f 0000 00e0 4ad7 b93f
00000570: 0000 0020 3f34 b93f 0000 00c0 bb79 b83f
00000580: 0000 0060 ad9b b73f 0000 0000 5a96 b63f
00000590: 0000 0000 3865 b53f 0000 0080 9008 b43f
000005a0: 0000 0000 c480 b23f 0000 0080 18db b03f
000005b0: 0000 00c0 b843 ae3f 0000 0080 7db9 aa3f
000005c0: 0000 00a0 ac1a a73f 0000 0080 d06d a33f
000005d0: 0000 0060 c48e 9f3f 0000 0080 4441 963f
000005e0: 0000 0060 cd72 893f 0000 00c0 eb17 6a3f
000005f0: 0000 0000 ffa5 78bf 0000 00a0 7752 8ebf
00000600: 0000 00a0 739a 97bf 0000 0060 ed88 9fbf
00000610: 0000 0000 e77b a3bf 0000 0060 4be3 a6bf
00000620: 0000 0080 89f7 a9bf 0000 0080 1ec2 acbf
00000630: 0000 00c0 902c afbf 0000 0040 e495 b0bf
00000640: 0000 0060 6b6f b1bf 0000 0040 3918 b2bf
00000650: 0000 0080 2686 b2bf 0000 0060 11b8 b2bf
00000660: 0000 0080 49b4 b2bf 0000 00e0 2a81 b2bf
00000670: 0000 00c0 661c b2bf 0000 0060 218f b1bf
00000680: 0000 0040 1cde b0bf 0000 0020 c011 b0bf
00000690: 0000 00c0 4b5c aebf 0000 00a0 9879 acbf
000006a0: 0000 0000 6285 aabf 0000 0020 9c8b a8bf
000006b0: 0000 0000 fb9c a6bf 0000 0000 84ca a4bf
000006c0: 0000 0060 ba1b a3bf 0000 0020 0092 a1bf
000006d0: 0000 0080 0230 a0bf 0000 0000 88e1 9dbf
000006e0: 0000 0080 fc9a 9bbf 0000 0080 8f86 99bf
000006f0: 0000 00a0 67a2 97bf 0000 0080 a8f1 95bf
00000700: 0000 0000 9270 94bf 0000 00e0 3422 93bf
00000710: 0000 00e0 4b1f 92bf 0000 00c0 6e70 91bf
00000720: 0000 00c0 a2eb 9ebf 0000 00c0 a2eb 9ebf
00000730: 0000 0080 8c73 9fbf 0000 0080 0293 9fbf
00000740: 0000 00a0 2943 9fbf 0000 00a0 a5c3 9ebf
00000750: 0000 00c0 5137 9ebf 0000 0060 9f92 9dbf
00000760: 0000 0020 8e88 9cbf 0000 00e0 05be 9abf
00000770: 0000 0060 9f94 98bf 0000 00e0 8545 96bf
00000780: 0000 0000 fafb 93bf 0000 0080 03d2 91bf
00000790: 0000 0060 a6af 8fbf 0000 0060 da9b 8cbf
000007a0: 0000 0000 b78a 8abf 0000 0080 7cd6 89bf
000007b0: 0000 00c0 beae 8abf 0000 00c0 a20f 8cbf
000007c0: 0000 0020 f87e 8cbf 0000 00c0 0859 8bbf
000007d0: 0000 00c0 7571 88bf 0000 00c0 f491 84bf
000007e0: 0000 0000 6b76 80bf 0000 0000 8dd8 79bf
000007f0: 0000 0020 4cff 74bf 0000 0000 fed2 72bf
-0.017030447721481323 -0.017030447721481323 -0.018439654260873795 -0.020298954099416733 -0.022045960649847984 -0.024047473445534706 -0.026501420885324478 -0.02930345945060253
-0.03228277713060379 -0.03483942896127701 -0.036793988198041916 -0.03847723826766014 -0.04013592004776001 -0.04181081801652908 -0.04337924346327782 -0.04490590840578079
-0.046563055366277695 -0.04843619093298912 -0.050949592143297195 -0.054472047835588455 -0.05916506052017212 -0.0647912323474884 -0.07133914530277252 -0.07840055227279663
-0.08547987043857574 -0.09231206774711609 -0.09875079244375229 -0.10465184599161148 -0.10982390493154526 -0.11429163813591003 -0.11802049726247787 -0.1210426613688469
-0.12337290495634079 -0.12514832615852356 -0.12639126181602478 -0.12710967659950256 -0.12728367745876312 -0.12710103392601013 -0.12648431956768036 -0.12544450163841248
-0.12412173300981522 -0.12263257801532745 -0.12102290987968445 -0.11941688507795334 -0.11795256286859512 -0.11671823263168335 -0.11579737067222595 -0.1151779443025589
-0.11489187926054001 -0.11490987241268158 -0.11521046608686447 -0.1157207116484642 -0.11638911068439484 -0.11711245030164719 -0.11784607917070389 -0.11854952573776245
-0.11915486305952072 -0.11960535496473312 -0.11988088488578796 -0.12003307789564133 -0.12010437995195389 -0.1201799139380455 -0.1202888935804367 -0.12038521468639374
-0.12043300271034241 -0.12037578225135803 -0.12017609924077988 -0.1198897734284401 -0.11948709189891815 -0.11893255263566971 -0.1182626485824585 -0.11751475930213928
-0.11673609167337418 -0.11598894000053406 -0.11529229581356049 -0.11460372060537338 -0.11398038268089294 -0.11350326985120773 -0.11319360136985779 -0.11299281567335129
-0.11287428438663483 -0.11267031729221344 -0.11216293275356293 -0.11130126565694809 -0.11007148772478104 -0.10839834064245224 -0.10628044605255127 -0.10384321957826614
-0.1009245216846466 -0.09751597791910172 -0.09376656264066696 -0.08958661556243896 -0.08485371619462967 -0.07957417517900467 -0.07399801909923553 -0.06836576014757156
-0.06265943497419357 -0.05603961646556854 -0.04884202033281326 -0.041343946009874344 -0.03354081138968468 -0.02582317218184471 -0.017973722890019417 -0.010450010187923908
-0.0022209924645721912 0.006010428536683321 0.01416543684899807 0.02202582359313965 0.029267925769090652 0.035982344299554825 0.04242176562547684 0.04875196889042854
0.054907601326704025 0.06108447536826134 0.06797131150960922 0.07550214976072311 0.08316871523857117 0.09057018905878067 0.09753309190273285 0.10394798964262009
0.10950328409671783 0.1140546202659607 0.1176590695977211 0.12061059474945068 0.12290462106466293 0.12440021336078644 0.12492913007736206 0.12470771372318268
0.12394919246435165 0.12286676466464996 0.12164783477783203 0.12052546441555023 0.11949872970581055 0.11843237280845642 0.11734545230865479 0.11630972474813461
0.11539676040410995 0.11464525014162064 0.11404461413621902 0.11353864520788193 0.11317723989486694 0.11299028992652893 0.11300013214349747 0.1131725162267685
0.11351099610328674 0.11392448842525482 0.11429407447576523 0.11457860469818115 0.11487246304750443 0.11522188037633896 0.11556638777256012 0.11579767614603043
0.11587511748075485 0.11585448682308197 0.11575175821781158 0.1155407577753067 0.1151861920952797 0.11474545300006866 0.11429422348737717 0.113899827003479
0.11364201456308365 0.11349169164896011 0.11336028575897217 0.11312121897935867 0.11271471530199051 0.11215697973966599 0.11153187602758408 0.11080314218997955
0.10985878109931946 0.10856299102306366 0.1069382056593895 0.10507792979478836 0.10310696065425873 0.10094135254621506 0.09845346957445145 0.09560750424861908
0.09221919625997543 0.08823168277740479 0.08357572555541992 0.07825568318367004 0.07227730751037598 0.0658431351184845 0.05911042541265488 0.052196428179740906
0.045125383883714676 0.037947192788124084 0.030818050727248192 0.021733351051807404 0.012425999157130718 0.003185234498232603 -0.006017681211233139 -0.014805731363594532
-0.02305012382566929 -0.03079577349126339 -0.03805467486381531 -0.04470286890864372 -0.05071668326854706 -0.056168511509895325 -0.06088688224554062 -0.06478716433048248
-0.06810637563467026 -0.07068212330341339 -0.07235947251319885 -0.07312115281820297 -0.07306346297264099 -0.07228343933820724 -0.07074587047100067 -0.06859024614095688
-0.0658891350030899 -0.06277085095643997 -0.05929791182279587 -0.05561520531773567 -0.051798880100250244 -0.04794013872742653 -0.04416641592979431 -0.040607571601867676
-0.03732092306017876 -0.0343170203268528 -0.03161628544330597 -0.02918064594268799 -0.026958413422107697 -0.024927370250225067 -0.023080462589859962 -0.02142966538667679
-0.019960671663284302 -0.018685175105929375 -0.017697511240839958 -0.01703045889735222 -0.030195754021406174 -0.030195754021406174 -0.03071422129869461 -0.03083423525094986
-0.03052964247763157 -0.030043208971619606 -0.029507901519536972 -0.02887963317334652 -0.027864666655659676 -0.026115505024790764 -0.02400445006787777 -0.02174958400428295
-0.019515901803970337 -0.01740270107984543 -0.015471744351089 -0.01396914105862379 -0.012959890067577362 -0.012616131454706192 -0.013028612360358238 -0.013701697811484337
-0.013914049603044987 -0.013353412970900536 -0.0119351577013731 -0.01004401408135891 -0.008038364350795746 -0.006310034543275833 -0.005126283038407564 -0.004595749080181122
