data/mixamo/36_800_24/train/GIRLSCOUNT_T/Weight_Shift/Weight_Shift.npy (npy, 82208 bytes, 1 tensors)

array f8 [15, 3, 228]
0	0xbf8a30f6e0000000	-0.012788704596459866
1	0xbf8a30f6e0000000	-0.012788704596459866
2	0xbf8ce21600000000	-0.014103099703788757
3	0xbf903be9c0000000	-0.015853550285100937
4	0xbf91ebb400000000	-0.017500698566436768
5	0xbf93d17880000000	-0.019353754818439484
6	0xbf961d6140000000	-0.021596450358629227
7	0xbf98c19dc0000000	-0.024176087230443954
8	0xbf9b940e00000000	-0.026931971311569214
9	0xbf9dead380000000	-0.02921610325574875
10	0xbf9faabb60000000	-0.030924728140234947
11	0xbfa08e7760000000	-0.03233693167567253
12	0xbfa1401240000000	-0.033691950142383575
13	0xbfa1f4fe40000000	-0.03507227450609207
14	0xbfa29f9480000000	-0.03637374937534332
15	0xbfa33e8020000000	-0.03758621588349342
16	0xbfa3dcbd80000000	-0.03879348933696747
17	0xbfa4776480000000	-0.03997339308261871
18	0xbfa52a0bc0000000	-0.041336409747600555
19	0xbfa61eb840000000	-0.04320312291383743
20	0xbfa78717c0000000	-0.04595255106687546
21	0xbfa96992e0000000	-0.04963358864188194
22	0xbfabe30200000000	-0.054466307163238525
23	0xbfaece5780000000	-0.06016801297664642
24	0xbfb0f51ee0000000	-0.06624024361371994
25	0xbfb27ce840000000	-0.07221843302249908
26	0xbfb3eb3260000000	-0.07780756801366806
27	0xbfb532a160000000	-0.08280380815267563
28	0xbfb6481f60000000	-0.08703800290822983
29	0xbfb7322b60000000	-0.09060927480459213
30	0xbfb7f67200000000	-0.0936042070388794
31	0xbfb8a046a0000000	-0.09619561582803726
32	0xbfb93215a0000000	-0.09842047840356827
33	0xbfb9aa8c20000000	-0.10025859624147415
34	0xbfba0220a0000000	-0.1015949621796608
35	0xbfba33ade0000000	-0.10235106199979782
36	0xbfba3f5d80000000	-0.102529376745224
37	0xbfba34e3a0000000	-0.102369524538517
38	0xbfba1194a0000000	-0.10183075815439224
39	0xbfb9d4d560000000	-0.10090383142232895
40	0xbfb9863660000000	-0.09970416873693466
41	0xbfb92df0e0000000	-0.09835725277662277
42	0xbfb8cf2000000000	-0.09691047668457031
43	0xbfb86f92a0000000	-0.09545246511697769
44	0xbfb815e1a0000000	-0.09408388286828995
45	0xbfb7c814a0000000	-0.09289673715829849
46	0xbfb78db1a0000000	-0.09200582653284073
47	0xbfb7674c00000000	-0.09141993522644043
48	0xbfb75568a0000000	-0.09114698320627213
49	0xbfb754e820000000	-0.09113932400941849
50	0xbfb76554c0000000	-0.09138993918895721
51	0xbfb782d7c0000000	-0.09184025228023529
52	0xbfb7a9bb80000000	-0.09243366122245789
53	0xbfb7d350c0000000	-0.09306816756725311
54	0xbfb7fc7d20000000	-0.09369642287492752
55	0xbfb823c780000000	-0.09429594874382019
56	0xbfb84710c0000000	-0.09483437240123749
57	0xbfb8639920000000	-0.09526974707841873
58	0xbfb877eb60000000	-0.09557982534170151
59	0xbfb8867ba0000000	-0.09580204635858536
60	0xbfb891d160000000	-0.09597500413656235
61	0xbfb89e76a0000000	-0.09616795927286148
62	0xbfb8adedc0000000	-0.09640394151210785
63	0xbfb8bc2440000000	-0.09662081301212311
64	0xbfb8c4e4e0000000	-0.09675436466932297
65	0xbfb8c52600000000	-0.09675824642181396
66	0xbfb8bbbfc0000000	-0.09661482274532318
67	0xbfb8abeda0000000	-0.09637341648340225
68	0xbfb89454e0000000	-0.09601335972547531
69	0xbfb8744560000000	-0.09552415460348129
70	0xbfb84de1c0000000	-0.09493838250637054
71	0xbfb822a2e0000000	-0.09427850693464279
72	0xbfb7f500a0000000	-0.09358219057321548
73	0xbfb7c88400000000	-0.09290337562561035
74	0xbfb79f2840000000	-0.09227229654788971
75	0xbfb7784fc0000000	-0.09167955815792084
76	0xbfb75795a0000000	-0.09118018299341202
77	0xbfb7401700000000	-0.09082168340682983
78	0xbfb73254e0000000	-0.09061174839735031
79	0xbfb72b1a60000000	-0.09050145000219345
80	0xbfb7298ce0000000	-0.09047775715589523
81	0xbfb7250de0000000	-0.09040915220975876
82	0xbfb7128640000000	-0.0901264101266861
83	0xbfb6ec5d20000000	-0.08954412490129471
84	0xbfb6ad6de0000000	-0.0885838195681572
85	0xbfb6533cc0000000	-0.0872076004743576
86	0xbfb5e358a0000000	-0.08550027757883072
87	0xbfb565fba0000000	-0.08358738571405411
88	0xbfb4d1cba0000000	-0.08132622390985489
89	0xbfb4235da0000000	-0.0786646381020546
90	0xbfb35f7420000000	-0.07567525655031204
91	0xbfb282c080000000	-0.07230761647224426
92	0xbfb1888be0000000	-0.06848978251218796
93	0xbfb0775e40000000	-0.06432141363620758
94	0xbfaeaeb6a0000000	-0.05992670729756355
95	0xbfac46d780000000	-0.05522798001766205
96	0xbfa9a7cc40000000	-0.05010832101106644
97	0xbfa6890aa0000000	-0.04401429370045662
98	0xbfa3208bc0000000	-0.03735768049955368
99	0xbf9f13b420000000	-0.030348600819706917
100	0xbf978559e0000000	-0.022969631478190422
101	0xbf8fe870e0000000	-0.015580064617097378
102	0xbf810d69e0000000	-0.008326365612447262
103	0xbf597b6000000000	-0.0015552937984466553
104	0x3f771feee0000000	0.005645688157528639
105	0x3f89f54140000000	0.012674817815423012
106	0x3f93e10480000000	0.019413061439990997
107	0x3f9a5932e0000000	0.025730891153216362
108	0x3fa0151ea0000000	0.03141112998127937
109	0x3fa2b454c0000000	0.03653206676244736
110	0x3fa50d6f80000000	0.04111813008785248
111	0x3fa7320bc0000000	0.045303694903850555
112	0x3fa93efee0000000	0.049308743327856064
113	0x3fab7d5440000000	0.05369056016206741
114	0x3fae44a140000000	0.059117354452610016
115	0x3fb0bcf9e0000000	0.06538354605436325
116	0x3fb2732e40000000	0.07207001745700836
117	0x3fb42731a0000000	0.07872305065393448
118	0x3fb5be3fa0000000	0.08493421226739883
119	0x3fb729a520000000	0.09047920256853104
120	0x3fb8616700000000	0.09523624181747437
121	0x3fb9679640000000	0.099236860871315
122	0x3fba467dc0000000	0.1026381105184555
123	0x3fbb0f5b80000000	0.10570308566093445
124	0x3fbbc00c40000000	0.1083991676568985
125	0x3fbc48e840000000	0.11048747599124908
126	0x3fbc9a2960000000	0.11172731965780258
127	0x3fbcbce180000000	0.11225709319114685
128	0x3fbcbd6e80000000	0.11226549744606018
129	0x3fbca9e300000000	0.11196726560592651
130	0x3fbc8de0e0000000	0.11153989285230637
131	0x3fbc769bc0000000	0.11118482053279877
132	0x3fbc622e00000000	0.11087310314178467
133	0x3fbc471e00000000	0.11046016216278076
134	0x3fbc24c200000000	0.10993587970733643
135	0x3fbbfef960000000	0.10935934633016586
136	0x3fbbd8d9c0000000	0.10877762734889984
137	0x3fbbb587c0000000	0.10823868215084076
138	0x3fbb95a140000000	0.10775192081928253
139	0x3fbb776240000000	0.10729040205478668
140	0x3fbb5c8d20000000	0.10688097029924393
141	0x3fbb47a2a0000000	0.1065618172287941
142	0x3fbb3c7160000000	0.10639103502035141
143	0x3fbb3a9400000000	0.10636258125305176
144	0x3fbb418c80000000	0.10646894574165344
145	0x3fbb4bcb60000000	0.1066252812743187
146	0x3fbb527800000000	0.10672712326049805
147	0x3fbb52cc20000000	0.10673213750123978
148	0x3fbb537140000000	0.10674197971820831
149	0x3fbb5accc0000000	0.10685424506664276
150	0x3fbb66c660000000	0.10703697055578232
151	0x3fbb6e2780000000	0.10714957118034363
152	0x3fbb6c5120000000	0.1071215346455574
153	0x3fbb650d20000000	0.10701067000627518
154	0x3fbb5ad4c0000000	0.10685472190380096
155	0x3fbb4c4520000000	0.1066325381398201
156	0x3fbb36dba0000000	0.1063058152794838
157	0x3fbb1c4020000000	0.10589981824159622
158	0x3fbafee300000000	0.10545176267623901
159	0x3fbae24480000000	0.10501506924629211
160	0x3fbacadd60000000	0.10465797036886215
161	0x3fbab6f120000000	0.10435397177934647
162	0x3fbaa14d80000000	0.10402378439903259
163	0x3fba83c780000000	0.10357329249382019
164	0x3fba5c6280000000	0.10297217965126038
165	0x3fba2d4200000000	0.10225307941436768
166	0x3fb9fb3de0000000	0.10148989409208298
167	0x3fb9c33b80000000	0.10063526034355164
168	0x3fb97e45a0000000	0.09958300739526749
169	0x3fb9241880000000	0.098207026720047
170	0x3fb8b30260000000	0.09648146480321884
171	0x3fb82e7600000000	0.0944589376449585
172	0x3fb79da0e0000000	0.09224896878004074
173	0x3fb6fd6720000000	0.08980412036180496
174	0x3fb648ff80000000	0.08705136179924011
175	0x3fb584a780000000	0.08405539393424988
176	0x3fb4a88700000000	0.08069652318954468
177	0x3fb3afabc0000000	0.07689927518367767
178	0x3fb29318e0000000	0.07255702465772629
179	0x3fb14e6da0000000	0.0676029697060585
180	0x3fafc2ae80000000	0.06203217804431915
181	0x3facb82240000000	0.05609232932329178
182	0x3fa9940520000000	0.04995742812752724
183	0x3fa65fc400000000	0.04369938373565674
184	0x3fa31c1260000000	0.037323545664548874
185	0x3f9f9ac320000000	0.0308638084679842
186	0x3f990a95a0000000	0.02445443905889988
187	0x3f908c5fa0000000	0.01616048254072666
188	0x3f7fb79200000000	0.007743425667285919
189	0xbf405cff60000000	-0.0004993674228899181
190	0xbf81a1f2a0000000	-0.008609672077000141
191	0xbf908f53c0000000	-0.01617174968123436
192	0xbf9796efa0000000	-0.023036712780594826
193	0xbf9e1798c0000000	-0.029386889189481735
194	0xbfa2135d40000000	-0.0353039875626564
195	0xbfa4cc61e0000000	-0.040621813386678696
196	0xbfa72a9600000000	-0.045246779918670654
197	0xbfa93a0f80000000	-0.04927109181880951
198	0xbfaaf314e0000000	-0.05263581499457359
199	0xbfac58bca0000000	-0.05536450818181038
200	0xbfad79b420000000	-0.057569149881601334
201	0xbfae4a7020000000	-0.05916166678071022
202	0xbfaec01280000000	-0.06005914509296417
203	0xbfaed6ed40000000	-0.06023351103067398
204	0xbfae973cc0000000	-0.0597475990653038
205	0xbfae122bc0000000	-0.05873238295316696
206	0xbfad4b7680000000	-0.05721636116504669
207	0xbfac4b6260000000	-0.05526263639330864
208	0xbfab14fd20000000	-0.052894506603479385
209	0xbfa9b7f5e0000000	-0.050231631845235825
210	0xbfa83c5480000000	-0.04733528196811676
211	0xbfa6ad8f60000000	-0.044292908161878586
212	0xbfa51414c0000000	-0.041168831288814545
213	0xbfa37b30e0000000	-0.03804924711585045
214	0xbfa1edb040000000	-0.03501654416322708
215	0xbfa074a160000000	-0.032139819115400314
216	0xbf9e260cc0000000	-0.02944202348589897
217	0xbf9b9557c0000000	-0.026936884969472885
218	0xbf994463a0000000	-0.024674946442246437
219	0xbf97394700000000	-0.022679433226585388
220	0xbf956ca940000000	-0.02092232182621956
221	0xbf93cf0380000000	-0.019344381988048553
222	0xbf9253f7e0000000	-0.0178984384983778
223	0xbf90f840a0000000	-0.016572007909417152
224	0xbf8f68f700000000	-0.01533692330121994
225	0xbf8d289e60000000	-0.014237630181014538
226	0xbf8b6a1700000000	-0.013385944068431854
227	0xbf8a30f6a0000000	-0.012788702733814716
228	0xbfb8fe45c0000000	-0.09762988984584808
229	0xbfb8fe45c0000000	-0.09762988984584808
230	0xbfb9185060000000	-0.09802725166082382
231	0xbfb91e6460000000	-0.09811999648809433
232	0xbfb90ecc20000000	-0.09788203984498978
233	0xbfb8f47940000000	-0.09748037159442902
234	0xbfb8d410c0000000	-0.09698586165904999
235	0xbfb8ab4ba0000000	-0.09636376053094864
236	0xbfb86cda60000000	-0.09541096538305283
237	0xbfb808d3c0000000	-0.09388469159603119
238	0xbfb7914180000000	-0.09206017851829529
239	0xbfb71126a0000000	-0.09010545164346695
240	0xbfb6904460000000	-0.08813884109258652
241	0xbfb6122680000000	-0.08621445298194885
242	0xbfb5993700000000	-0.08436912298202515
243	0xbfb5387700000000	-0.08289283514022827
244	0xbfb4f3a000000000	-0.08184242248535156
245	0xbfb4cddfa0000000	-0.0812663808465004
246	0xbfb4ca88e0000000	-0.08121543377637863
247	0xbfb4d32900000000	-0.08134704828262329
248	0xbfb4c10400000000	-0.0810701847076416
249	0xbfb4873f40000000	-0.08018870651721954
250	0xbfb4294ea0000000	-0.07875529676675797
251	0xbfb3bf1120000000	-0.07713419944047928
252	0xbfb35b3d60000000	-0.07561095803976059
253	0xbfb30f66e0000000	-0.07445376366376877
254	0xbfb2e3a220000000	-0.07378590852022171
255	0xbfb2d27860000000	-0.07352402061223984
