data/mixamo/36_800_24/train/PEASANT_MAN/Weight_Shift/Weight_Shift.npy (npy, 82208 bytes, 1 tensors)

array f8 [15, 3, 228]
000000 00 00 00 80 e4 2c 8b bf 00 00 00 80 e4 2c 8b bf
       -0.013269219547510147 -0.013269219547510147
000010 00 00 00 00 cf 5c 8d bf 00 00 00 00 72 25 90 bf
       -0.014337174594402313 -0.015767842531204224
000020 00 00 00 40 df 95 91 bf 00 00 00 00 2c 4a 93 bf
       -0.01717327907681465 -0.01883763074874878
000030 00 00 00 c0 25 62 95 bf 00 00 00 c0 d5 bb 97 bf
       -0.020882215350866318 -0.02317747101187706
000040 00 00 00 60 5e 31 9a bf 00 00 00 a0 9f 51 9c bf
       -0.025578951463103294 -0.027655119076371193
000050 00 00 00 20 70 fc 9d bf 00 00 00 40 a9 6d 9f bf
       -0.02928328700363636 -0.030691761523485184
000060 00 00 00 a0 85 69 a0 bf 00 00 00 60 e8 14 a1 bf
       -0.032055068761110306 -0.03336263820528984
000070 00 00 00 60 4b a7 a1 bf 00 00 00 e0 a0 26 a2 bf
       -0.03447948023676872 -0.03545096144080162
000080 00 00 00 c0 76 b0 a2 bf 00 00 00 a0 9c 52 a3 bf
       -0.03650256246328354 -0.03773965314030647
000090 00 00 00 20 77 4e a4 bf 00 00 00 a0 a5 e5 a5 bf
       -0.039661142975091934 -0.04276769235730171
0000a0 00 00 00 a0 7e 41 a8 bf 00 00 00 60 0d 4d ab bf
       -0.04737468436360359 -0.053322236984968185
0000b0 00 00 00 e0 60 fc ae bf 00 00 00 a0 63 7c b1 bf
       -0.06051924452185631 -0.06830427795648575
0000c0 00 00 00 80 d6 75 b3 bf 00 00 00 e0 d8 57 b5 bf
       -0.07601681351661682 -0.08337169140577316
0000d0 00 00 00 80 4c 1b b7 bf 00 00 00 40 2d b9 b8 bf
       -0.09026029706001282 -0.09657557308673859
0000e0 00 00 00 20 55 26 ba bf 00 00 00 a0 c7 64 bb bf
       -0.1021474078297615 -0.10700652748346329
0000f0 00 00 00 e0 98 6f bc bf 00 00 00 40 4a 48 bd bf
       -0.11107783764600754 -0.11438430845737457
000100 00 00 00 a0 0e ef bd bf 00 00 00 40 f9 6c be bf
       -0.11692897230386734 -0.11885030567646027
000110 00 00 00 20 11 c3 be bf 00 00 00 e0 18 f2 be bf
       -0.12016398459672928 -0.12088160961866379
000120 00 00 00 60 3d f9 be bf 00 00 00 40 6d e6 be bf
       -0.12099059671163559 -0.12070353329181671
000130 00 00 00 00 db b3 be bf 00 00 00 80 f7 62 be bf
       -0.11993187665939331 -0.11869761347770691
000140 00 00 00 a0 b8 fe bd bf 00 00 00 80 45 8f bd bf
       -0.11716798692941666 -0.11546739935874939
000150 00 00 00 a0 3e 17 bd bf 00 00 00 40 08 9f bc bf
       -0.11363593488931656 -0.1118016391992569
000160 00 00 00 00 4b 31 bc bf 00 00 00 40 c2 d4 bb bf
       -0.11012715101242065 -0.10871519148349762
000170 00 00 00 a0 3e 8f bb bf 00 00 00 80 2c 60 bb bf
       -0.10765448957681656 -0.1069362461566925
000180 00 00 00 20 91 4a bb bf 00 00 00 80 55 4c bb bf
       -0.10660655051469803 -0.1066335141658783
000190 00 00 00 40 98 63 bb bf 00 00 00 e0 79 8a bb bf
       -0.10698844492435455 -0.107581727206707
0001a0 00 00 00 a0 2c bd bb bf 00 00 00 00 a3 f4 bb bf
       -0.1083553209900856 -0.10920161008834839
0001b0 00 00 00 c0 c4 2d bc bf 00 00 00 e0 02 65 bc bf
       -0.11007337272167206 -0.11091630905866623
0001c0 00 00 00 e0 99 94 bc bf 00 00 00 c0 ed b7 bc bf
       -0.11164247244596481 -0.11218152940273285
0001d0 00 00 00 00 06 ce bc bf 00 00 00 e0 92 db bc bf
       -0.11251866817474365 -0.11272542923688889
0001e0 00 00 00 60 8b e3 bc bf 00 00 00 e0 89 eb bc bf
       -0.11284705251455307 -0.11296903342008591
0001f0 00 00 00 a0 b4 f5 bc bf 00 00 00 20 b7 fe bc bf
       -0.11312416940927505 -0.1132616475224495
000200 00 00 00 60 f7 03 bd bf 00 00 00 20 d7 01 bd bf
       -0.11334177106618881 -0.1133093312382698
000210 00 00 00 20 97 f5 bc bf 00 00 00 a0 b8 e2 bc bf
       -0.11312241107225418 -0.11283449083566666
000220 00 00 00 80 53 c7 bc bf 00 00 00 00 67 a1 bc bf
       -0.11241647601127625 -0.11183780431747437
000230 00 00 00 60 c2 73 bc bf 00 00 00 00 52 41 bc bf
       -0.11114134639501572 -0.11037170886993408
000240 00 00 00 60 a7 0d bc bf 00 00 00 a0 16 dd bb bf
       -0.10958334058523178 -0.10884229093790054
000250 00 00 00 80 dd b1 bb bf 00 00 00 a0 77 8a bb bf
       -0.10818275809288025 -0.10758159309625626
000260 00 00 00 80 13 6c bb bf 00 00 00 c0 05 5c bb bf
       -0.10711786150932312 -0.10687290132045746
000270 00 00 00 60 a1 5a bb bf 00 00 00 c0 8b 62 bb bf
       -0.10685165971517563 -0.10697244107723236
000280 00 00 00 a0 e8 70 bb bf 00 00 00 20 83 79 bb bf
       -0.10719159990549088 -0.10732287913560867
000290 00 00 00 80 4f 6d bb bf 00 00 00 00 24 49 bb bf
       -0.10713669657707214 -0.10658478736877441
0002a0 00 00 00 a0 27 0b bb bf 00 00 00 60 77 ae ba bf
       -0.10563895851373672 -0.10422464460134506
0002b0 00 00 00 80 09 30 ba bf 00 00 00 40 c4 96 b9 bf
       -0.10229548811912537 -0.09995676577091217
0002c0 00 00 00 00 f6 d8 b8 bf 00 00 00 40 6d fc b7 bf
       -0.09706056118011475 -0.09369547665119171
0002d0 00 00 00 20 9d 10 b7 bf 00 00 00 80 7e 0c b6 bf
       -0.09009725600481033 -0.08612814545631409
0002e0 00 00 00 20 bd e4 b4 bf 00 00 00 a0 22 98 b3 bf
       -0.08161527663469315 -0.07654014974832535
0002f0 00 00 00 40 44 3c b2 bf 00 00 00 a0 7c e5 b0 bf
       -0.07123209536075592 -0.06600169092416763
000300 00 00 00 80 92 1f af bf 00 00 00 c0 79 13 ac bf
       -0.06078775227069855 -0.05483608692884445
000310 00 00 00 80 3c d0 a8 bf 00 00 00 c0 f8 72 a5 bf
       -0.048463717103004456 -0.04189278930425644
000320 00 00 00 20 5c fc a1 bf 00 00 00 80 c1 48 9d bf
       -0.035128477960824966 -0.02859785407781601
000330 00 00 00 e0 80 65 96 bf 00 00 00 c0 eb a0 8f bf
       -0.021871579810976982 -0.015443651005625725
000340 00 00 00 40 46 48 81 bf 00 00 00 40 88 26 56 bf
       -0.008438633754849434 -0.0013519602362066507
000350 00 00 00 60 0d 55 77 3f 00 00 00 80 b6 76 89 3f
       0.005696346517652273 0.012433458119630814
000360 00 00 00 e0 dc 01 93 3f 00 00 00 80 d3 c2 98 3f
       0.018561793491244316 0.02418070286512375
000370 00 00 00 60 c0 36 9e 3f 00 00 00 a0 94 c0 a1 3f
       0.029505735263228416 0.03467239812016487
000380 00 00 00 e0 3e 6e a4 3f 00 00 00 80 c0 68 a7 3f
       0.039903607219457626 0.04572106897830963
000390 00 00 00 40 c4 15 ab 3f 00 00 00 20 28 45 af 3f
       0.052900440990924835 0.061074499040842056
0003a0 00 00 00 80 40 c7 b1 3f 00 00 00 c0 b7 d7 b3 3f
       0.06944659352302551 0.07751034200191498
0003b0 00 00 00 00 c3 c9 b5 3f 00 00 00 20 c3 91 b7 3f
       0.0851098895072937 0.0920679047703743
0003c0 00 00 00 e0 ba 19 b9 3f 00 00 00 a0 9b 5b ba 3f
       0.0980488583445549 0.10296032577753067
0003d0 00 00 00 80 d5 5b bb 3f 00 00 00 80 11 2b bc 3f
       0.10687002539634705 0.11003217101097107
0003e0 00 00 00 00 7b c3 bc 3f 00 00 00 e0 b6 1b bd 3f
       0.11235779523849487 0.1137041375041008
0003f0 00 00 00 c0 db 2a bd 3f 00 00 00 c0 7d 02 bd 3f
       0.11393521726131439 0.1133192628622055
000400 00 00 00 c0 c3 b3 bc 3f 00 00 00 c0 f8 4e bc 3f
       0.11211799085140228 0.11058001220226288
000410 00 00 00 c0 e8 df bb 3f 00 00 00 20 37 77 bb 3f
       0.10888533294200897 0.10728783160448074
000420 00 00 00 e0 91 15 bb 3f 00 00 00 60 02 b2 ba 3f
       0.10579787939786911 0.10427870601415634
000430 00 00 00 e0 95 4e ba 3f 00 00 00 c0 c5 f0 b9 3f
       0.10276161879301071 0.10133014619350433
000440 00 00 00 00 b7 9d b9 3f 00 00 00 20 90 57 b9 3f
       0.1000627875328064 0.09899235516786575
000450 00 00 00 e0 ba 1c b9 3f 00 00 00 a0 7d e9 b8 3f
       0.0980946347117424 0.09731278568506241
000460 00 00 00 e0 75 c3 b8 3f 00 00 00 00 df ad b8 3f
       0.0967324897646904 0.09640306234359741
000470 00 00 00 80 32 aa b8 3f 00 00 00 40 15 b5 b8 3f
       0.09634700417518616 0.09651310741901398
000480 00 00 00 c0 7f ce b8 3f 00 00 00 80 1e f0 b8 3f
       0.09690092504024506 0.09741392731666565
000490 00 00 00 80 83 11 b9 3f 00 00 00 00 37 2e b9 3f
       0.09792348742485046 0.09836143255233765
0004a0 00 00 00 80 63 4a b9 3f 00 00 00 40 84 68 b9 3f
       0.09879133105278015 0.09925104677677155
0004b0 00 00 00 c0 c4 84 b9 3f 00 00 00 c0 1f 98 b9 3f
       0.09968213737010956 0.09997747838497162
0004c0 00 00 00 e0 94 9f b9 3f 00 00 00 20 b9 9e b9 3f
       0.10009127110242844 0.10007817298173904
0004d0 00 00 00 c0 11 96 b9 3f 00 00 00 c0 03 84 b9 3f
       0.09994612634181976 0.09967063367366791
0004e0 00 00 00 a0 e2 66 b9 3f 00 00 00 40 e0 43 b9 3f
       0.09922615438699722 0.09869195520877838
0004f0 00 00 00 20 69 21 b9 3f 00 00 00 40 d1 04 b9 3f
       0.09816605597734451 0.09772975742816925
000500 00 00 00 20 63 f4 b8 3f 00 00 00 e0 be ee b8 3f
       0.09747905284166336 0.0973929688334465
000510 00 00 00 e0 4c ed b8 3f 00 00 00 c0 07 e7 b8 3f
       0.09737091511487961 0.09727524220943451
000520 00 00 00 60 06 da b8 3f 00 00 00 60 5f ca b8 3f
       0.09707679599523544 0.09683796018362045
000530 00 00 00 c0 64 c0 b8 3f 00 00 00 40 d1 b8 b8 3f
       0.09668569266796112 0.09657008945941925
000540 00 00 00 c0 30 aa b8 3f 00 00 00 a0 7e 8b b8 3f
       0.0963468998670578 0.09587851911783218
000550 00 00 00 c0 0d 61 b8 3f 00 00 00 00 9e 32 b8 3f
       0.09523092210292816 0.09452235698699951
000560 00 00 00 c0 87 09 b8 3f 00 00 00 60 f9 de b7 3f
       0.09389542043209076 0.09324606508016586
000570 00 00 00 20 47 a8 b7 3f 00 00 00 a0 d5 5a b7 3f
       0.09241146594285965 0.09122977405786514
000580 00 00 00 60 11 e6 b6 3f 00 00 00 60 d1 45 b6 3f
       0.08944805711507797 0.08700283616781235
000590 00 00 00 a0 79 75 b5 3f 00 00 00 00 5c 74 b4 3f
       0.0838237777352333 0.07990050315856934
0005a0 00 00 00 a0 95 3e b3 3f 00 00 00 80 bc e1 b1 3f
       0.07517371326684952 0.06985071301460266
0005b0 00 00 00 00 4d 6c b0 3f 00 00 00 e0 91 cd ad 3f
       0.0641525387763977 0.058208998292684555
0005c0 00 00 00 e0 0d a4 aa 3f 00 00 00 a0 cc 64 a7 3f
       0.05203288421034813 0.04569091275334358
0005d0 00 00 00 a0 6e 22 a4 3f 00 00 00 40 f4 26 a0 3f
       0.03932519629597664 0.031547196209430695
0005e0 00 00 00 c0 8d 2d 98 3f 00 00 00 40 a8 02 90 3f
       0.023611273616552353 0.015635136514902115
0005f0 00 00 00 60 70 cc 7e 3f 00 00 00 c0 0c 7b 39 bf
       0.007519186940044165 -0.00038880406646057963
000600 00 00 00 a0 32 56 80 bf 00 00 00 00 f3 56 8f bf
       -0.007976909168064594 -0.015302561223506927
000610 00 00 00 80 18 ee 96 bf 00 00 00 60 b8 b4 9d bf
       -0.022392638027668 -0.029009705409407616
000620 00 00 00 40 b5 04 a2 bf 00 00 00 00 3e fe a4 bf
       -0.03519216924905777 -0.04100221395492554
000630 00 00 00 40 a8 a9 a7 bf 00 00 00 a0 17 f3 a9 bf
       -0.04621625691652298 -0.05068277195096016
000640 00 00 00 60 2a 0b ac bf 00 00 00 20 77 d1 ad bf
       -0.05477268621325493 -0.058238718658685684
000650 00 00 00 00 37 29 af bf 00 00 00 e0 6a 02 b0 bf
       -0.06086131930351257 -0.06253688782453537
000660 00 00 00 a0 3f 35 b0 bf 00 00 00 00 e1 34 b0 bf
       -0.06331250816583633 -0.06330686807632446
000670 00 00 00 c0 ab ff af bf 00 00 00 60 1a 3d af bf
       -0.06249748915433884 -0.061013054102659225
000680 00 00 00 80 23 27 ae bf 00 00 00 60 66 d0 ac bf
       -0.05889235436916351 -0.05627746507525444
000690 00 00 00 60 9d 41 ab bf 00 00 00 c0 0c 8f a9 bf
       -0.053234975785017014 -0.04991950839757919
0006a0 00 00 00 80 10 c4 a7 bf 00 00 00 a0 c9 ee a5 bf
       -0.0464177280664444 -0.04283742979168892
0006b0 00 00 00 60 4f 24 a4 bf 00 00 00 60 ad 78 a2 bf
       -0.03933952376246452 -0.03607694432139397
0006c0 00 00 00 c0 00 f2 a0 bf 00 00 00 40 66 1a 9f bf
       -0.03309633582830429 -0.03037414327263832
0006d0 00 00 00 40 e8 91 9c bf 00 00 00 80 90 3b 9a bf
       -0.027900341898202896 -0.025617845356464386
0006e0 00 00 00 e0 a8 08 98 bf 00 00 00 c0 84 f9 95 bf
       -0.02347053401172161 -0.02145965024828911
0006f0 00 00 00 20 80 0f 94 bf 00 00 00 80 22 4d 92 bf
       -0.019590379670262337 -0.017872370779514313
000700 00 00 00 40 32 b4 90 bf 00 00 00 a0 17 a4 8e bf
       -0.01631239429116249 -0.014961418695747852
000710 00 00 00 80 e9 8d 8c bf 00 00 00 80 e3 2c 8b bf
       -0.013942550867795944 -0.01326921209692955
000720 00 00 00 e0 70 dc 93 bf 00 00 00 e0 70 dc 93 bf
       -0.019395602867007256 -0.019395602867007256
000730 00 00 00 60 5a 6b 94 bf 00 00 00 80 9d 77 94 bf
       -0.01994076929986477 -0.019987545907497406
000740 00 00 00 40 e9 fa 93 bf 00 00 00 e0 ac 43 93 bf
       -0.019511837512254715 -0.01881284825503826
000750 00 00 00 40 0b 78 92 bf 00 00 00 e0 ec 86 91 bf
       -0.01803605630993843 -0.017116261646151543
000760 00 00 00 20 7d 1a 90 bf 00 00 00 60 71 a9 8b bf
       -0.01572604663670063 -0.013506780378520489
000770 00 00 00 20 0b 56 86 bf 00 00 00 c0 4b c7 80 bf
       -0.010906302370131016 -0.008192626759409904
000780 00 00 00 80 be b8 76 bf 00 00 00 20 f4 31 69 bf
       -0.005547279492020607 -0.003075577551499009
000790 00 00 00 60 f1 05 4c bf 00 00 00 60 56 b4 48 3f
       -0.0008552006329409778 0.0007539197686128318
0007a0 00 00 00 c0 64 d4 5b 3f 00 00 00 80 a7 11 5e 3f
       0.0016985877882689238 0.0018352637998759747
0007b0 00 00 00 40 c1 29 53 3f 00 00 00 a0 05 41 36 3f
       0.0011696231085807085 0.00033956897095777094
0007c0 00 00 00 20 87 f4 27 3f 00 00 00 20 ed 4c 50 3f
       0.00018276357150170952 0.0009949031518772244
0007d0 00 00 00 20 e2 91 66 3f 00 00 00 00 f1 72 74 3f
       0.002755109453573823 0.004992429167032242
0007e0 00 00 00 20 16 e6 7d 3f 00 00 00 c0 58 e5 82 3f
       0.007299505639821291 0.00922650657594204
0007f0 00 00 00 c0 a2 70 85 3f 00 00 00 80 26 81 86 3f
       0.01046874187886715 0.010988522320985794
