data/mixamo/36_800_24/train/PRISONER_B/Weight_Shift/Weight_Shift.npy (npy, 82208 bytes, 1 tensors)

array f8 [15, 3, 228]
0	0xbf8e65be00000000	-0.014842495322227478
1	0xbf8e65be00000000	-0.014842495322227478
2	0xbf90a96e60000000	-0.016271328553557396
3	0xbf929a31e0000000	-0.018166331574320793
4	0xbf946a2cc0000000	-0.019936274737119675
5	0xbf967a8600000000	-0.021951764822006226
6	0xbf990295e0000000	-0.024423925206065178
7	0xbf9bec0320000000	-0.02726750262081623
8	0xbf9f24c8e0000000	-0.030413759872317314
9	0xbfa1328ca0000000	-0.03358878567814827
10	0xbfa290fe80000000	-0.03626246750354767
11	0xbfa3d72b60000000	-0.038750987499952316
12	0xbfa52344a0000000	-0.041284698992967606
13	0xbfa6787700000000	-0.043887823820114136
14	0xbfa7c50ba0000000	-0.04642521217465401
15	0xbfa9123e60000000	-0.04896731302142143
16	0xbfaa703240000000	-0.05163723975419998
17	0xbfabe88640000000	-0.05450839549303055
18	0xbfada7a8e0000000	-0.05791976675391197
19	0xbfafd38600000000	-0.0621606707572937
20	0xbfb13ef700000000	-0.06736701726913452
21	0xbfb2c64200000000	-0.07333767414093018
22	0xbfb47b05e0000000	-0.08000218123197556
23	0xbfb6422540000000	-0.08694680035114288
24	0xbfb802e2e0000000	-0.09379404038190842
25	0xbfb9af3660000000	-0.10032977908849716
26	0xbfbb3f69c0000000	-0.1064363569021225
27	0xbfbcad9c80000000	-0.11202409863471985
28	0xbfbdf08ca0000000	-0.11695174127817154
29	0xbfbf08bd80000000	-0.12122711539268494
30	0xbfbff16a40000000	-0.12477745115756989
31	0xbfc055f980000000	-0.12762373685836792
32	0xbfc09d4d20000000	-0.1298004537820816
33	0xbfc0d371e0000000	-0.1314527839422226
34	0xbfc0f90a80000000	-0.13260012865066528
35	0xbfc10e4b00000000	-0.1332486867904663
36	0xbfc112e7a0000000	-0.1333894282579422
37	0xbfc10cd640000000	-0.13320425152778625
38	0xbfc0f9eae0000000	-0.13262687623500824
39	0xbfc0da7a80000000	-0.13166743516921997
40	0xbfc0b2af80000000	-0.13045305013656616
41	0xbfc08609e0000000	-0.12909053266048431
42	0xbfc055f880000000	-0.12762361764907837
43	0xbfc0262e00000000	-0.12616515159606934
44	0xbfbff55120000000	-0.1248369887471199
45	0xbfbfab96e0000000	-0.12371199578046799
46	0xbfbf73f5c0000000	-0.12286315858364105
47	0xbfbf4e1ea0000000	-0.12228576093912125
48	0xbfbf3c4a00000000	-0.12201368808746338
49	0xbfbf3cb4e0000000	-0.12202005833387375
50	0xbfbf4e1140000000	-0.12228496372699738
51	0xbfbf6c0a80000000	-0.12274232506752014
52	0xbfbf93b420000000	-0.12334752827882767
53	0xbfbfbf1280000000	-0.12400928139686584
54	0xbfbfeb7980000000	-0.12468680739402771
55	0xbfc00b0fa0000000	-0.12533755600452423
56	0xbfc01d5080000000	-0.12589460611343384
57	0xbfc02ac4c0000000	-0.12630519270896912
58	0xbfc032d9a0000000	-0.1265518218278885
59	0xbfc0371ae0000000	-0.12668167054653168
60	0xbfc038ac40000000	-0.12672951817512512
61	0xbfc039fe40000000	-0.1267698109149933
62	0xbfc03c0100000000	-0.12683117389678955
63	0xbfc03d7b00000000	-0.12687623500823975
64	0xbfc03d7a00000000	-0.1268761157989502
65	0xbfc03a6320000000	-0.12678183615207672
66	0xbfc0331e60000000	-0.1265600174665451
67	0xbfc0294960000000	-0.1262599676847458
68	0xbfc01bfb60000000	-0.12585394084453583
69	0xbfc00a1fa0000000	-0.12530894577503204
70	0xbfbfe9ac40000000	-0.12465931475162506
71	0xbfbfba5ba0000000	-0.12393734604120255
72	0xbfbf88d040000000	-0.12318135797977448
73	0xbfbf586aa0000000	-0.12244287878274918
74	0xbfbf2a5a60000000	-0.12174000591039658
75	0xbfbefc4680000000	-0.12103691697120667
76	0xbfbed17f80000000	-0.12038418650627136
77	0xbfbeae7840000000	-0.11984969675540924
78	0xbfbe944a80000000	-0.11945024132728577
79	0xbfbe7f1320000000	-0.11912650614976883
80	0xbfbe6c9840000000	-0.11884452402591705
81	0xbfbe52fe40000000	-0.11845387518405914
82	0xbfbe25fc40000000	-0.11776711046695709
83	0xbfbde2b840000000	-0.11674071848392487
84	0xbfbd879760000000	-0.11535020917654037
85	0xbfbd0fc2a0000000	-0.11352173238992691
86	0xbfbc747300000000	-0.11115187406539917
87	0xbfbbb8c940000000	-0.10828836262226105
88	0xbfbad44120000000	-0.104801245033741
89	0xbfb9c940c0000000	-0.1007271260023117
90	0xbfb8a1da00000000	-0.09621965885162354
91	0xbfb75adf20000000	-0.09123034030199051
92	0xbfb5edb0a0000000	-0.08565811067819595
93	0xbfb45bc7c0000000	-0.07952545583248138
94	0xbfb2b79760000000	-0.07311388105154037
95	0xbfb113c480000000	-0.06670787930488586
96	0xbfaee2b2e0000000	-0.0603233240544796
97	0xbfab3151c0000000	-0.053110651671886444
98	0xbfa7459d60000000	-0.045452993363142014
99	0xbfa34451e0000000	-0.03763061389327049
100	0xbf9e5f7040000000	-0.029660943895578384
101	0xbf9666a660000000	-0.021875953301787376
102	0xbf8c0752a0000000	-0.013685842044651508
103	0xbf769b2140000000	-0.005519037134945393
104	0x3f6d49bea0000000	0.0035752032417804003
105	0x3f8a1d2a00000000	0.012750938534736633
106	0x3f9687a5c0000000	0.022001828998327255
107	0x3f9fde2180000000	0.031120799481868744
108	0x3fa462d280000000	0.03981645405292511
109	0x3fa8a19e60000000	0.0481080524623394
110	0x3facc00240000000	0.05615241080522537
111	0x3fb0600380000000	0.06396505236625671
112	0x3fb24bf200000000	0.07147133350372314
113	0x3fb42f0d80000000	0.07884296774864197
114	0x3fb62e1480000000	0.0866406261920929
115	0x3fb84194c0000000	0.09475068747997284
116	0x3fba47dcc0000000	0.10265903174877167
117	0x3fbc2cdc40000000	0.11005951464176178
118	0x3fbdf27120000000	0.11698061972856522
119	0x3fbf937ce0000000	0.12334423512220383
120	0x3fc07ebae0000000	0.1288674920797348
121	0x3fc113d720000000	0.1334179788827896
122	0x3fc189ece0000000	0.13702164590358734
123	0x3fc1e94200000000	0.13993096351623535
124	0x3fc2323a00000000	0.14215779304504395
125	0x3fc2623fe0000000	0.14362333714962006
126	0x3fc274aec0000000	0.144185870885849
127	0x3fc2701640000000	0.1440456211566925
128	0x3fc25a9240000000	0.1433890163898468
129	0x3fc23a6f60000000	0.14240829646587372
130	0x3fc21581a0000000	0.14128132164478302
131	0x3fc1f2f860000000	0.14022736251354218
132	0x3fc1d319e0000000	0.13925479352474213
133	0x3fc1b23800000000	0.13825130462646484
134	0x3fc1913860000000	0.13724426925182343
135	0x3fc1723940000000	0.13629832863807678
136	0x3fc1573c80000000	0.13547474145889282
137	0x3fc14157a0000000	0.1348065882921219
138	0x3fc1305e40000000	0.13428857922554016
139	0x3fc1228980000000	0.13386648893356323
140	0x3fc1191920000000	0.13357843458652496
141	0x3fc114ae80000000	0.1334436535835266
142	0x3fc1160120000000	0.13348402082920074
143	0x3fc11c2ca0000000	0.1336723119020462
144	0x3fc1275360000000	0.1340126246213913
145	0x3fc1349fe0000000	0.13441847264766693
146	0x3fc140a8c0000000	0.1347857415676117
147	0x3fc14a1ec0000000	0.1350744664669037
148	0x3fc1535000000000	0.13535499572753906
149	0x3fc15d6580000000	0.1356627345085144
150	0x3fc1667d60000000	0.13594023883342743
151	0x3fc16ba600000000	0.13609766960144043
152	0x3fc16be640000000	0.13610532879829407
153	0x3fc1690140000000	0.13601699471473694
154	0x3fc16352c0000000	0.13584360480308533
155	0x3fc15a25c0000000	0.13556358218193054
156	0x3fc14cb7e0000000	0.13515375554561615
157	0x3fc13ce540000000	0.13467088341712952
158	0x3fc12cbcc0000000	0.1341777741909027
159	0x3fc11e01a0000000	0.13372822105884552
160	0x3fc1130b20000000	0.13339366018772125
161	0x3fc10adf60000000	0.1331443041563034
162	0x3fc102a520000000	0.13289321959018707
163	0x3fc0f693a0000000	0.13252492249011993
164	0x3fc0e50860000000	0.131989523768425
165	0x3fc0ce5160000000	0.1312963217496872
166	0x3fc0b48be0000000	0.13050983846187592
167	0x3fc0963840000000	0.12958434224128723
168	0x3fc0700fe0000000	0.12841986119747162
169	0x3fc03e4c00000000	0.12690114974975586
170	0x3fc001b080000000	0.1250515580177307
171	0x3fbf7a05c0000000	0.12295566499233246
172	0x3fbee7db20000000	0.12072534114122391
173	0x3fbe46d540000000	0.11826832592487335
174	0x3fbd8b3c40000000	0.11540581285953522
175	0x3fbca7cf80000000	0.1119355857372284
176	0x3fbb9127a0000000	0.10768363624811172
177	0x3fba47e260000000	0.10265936702489853
178	0x3fb8ca0280000000	0.09683242440223694
179	0x3fb71ba4c0000000	0.09026555716991425
180	0x3fb53f40c0000000	0.0829964131116867
181	0x3fb343c140000000	0.07525260746479034
182	0x3fb1356600000000	0.06722104549407959
183	0x3fae3b2e00000000	0.059045255184173584
184	0x3fa9ff3f80000000	0.05077551305294037
185	0x3fa5c0b7a0000000	0.04248594120144844
186	0x3fa1965500000000	0.034350067377090454
187	0x3f98db5760000000	0.024274220690131187
188	0x3f8cecc780000000	0.014123495668172836
189	0x3f7162bbe0000000	0.004244550596922636
190	0xbf75e269a0000000	-0.0053428770042955875
191	0xbf8d838980000000	-0.014411043375730515
192	0xbf9770b200000000	-0.022890836000442505
193	0xbf9f8fa3c0000000	-0.030821379274129868
194	0xbfa3932a80000000	-0.03823216259479523
195	0xbfa70dd1a0000000	-0.04502730444073677
196	0xbfaa3442e0000000	-0.05117997154593468
197	0xbfad09d420000000	-0.05671561136841774
198	0xbfaf78efa0000000	-0.06146954372525215
199	0xbfb0bb8f80000000	-0.06536194682121277
200	0xbfb18ea900000000	-0.06858307123184204
201	0xbfb22f31e0000000	-0.07103263586759567
202	0xbfb2926d00000000	-0.07254678010940552
203	0xbfb2b79ee0000000	-0.07311432808637619
204	0xbfb2a68260000000	-0.07285322993993759
205	0xbfb266a180000000	-0.07187852263450623
206	0xbfb1f55320000000	-0.07014960795640945
207	0xbfb15b5420000000	-0.06779981404542923
208	0xbfb09df760000000	-0.06491037458181381
209	0xbfaf8bde40000000	-0.061613984405994415
210	0xbfadaf4040000000	-0.05797768384218216
211	0xbfabb96780000000	-0.054148897528648376
212	0xbfa9b489c0000000	-0.050205521285533905
213	0xbfa7ac13c0000000	-0.04623471945524216
214	0xbfa5afeec0000000	-0.04235788434743881
215	0xbfa3cff660000000	-0.03869600221514702
216	0xbfa213be40000000	-0.03530687838792801
217	0xbfa07d03a0000000	-0.032203782349824905
218	0xbf9e1d4420000000	-0.029408516362309456
219	0xbf9b8a7560000000	-0.026895364746451378
220	0xbf9936c320000000	-0.0246229637414217
221	0xbf971b36a0000000	-0.02256474830210209
222	0xbf9534e0c0000000	-0.020709525793790817
223	0xbf93876d00000000	-0.019071295857429504
224	0xbf921079e0000000	-0.0176409762352705
225	0xbf90cfc9c0000000	-0.016417648643255234
226	0xbf8fb23460000000	-0.015476617030799389
227	0xbf8e65c0e0000000	-0.014842516742646694
228	0xbf8316c700000000	-0.009320788085460663
229	0xbf8316c700000000	-0.009320788085460663
230	0xbf8411bc20000000	-0.009799451567232609
231	0xbf84516800000000	-0.009920895099639893
232	0xbf83c791e0000000	-0.009657992981374264
233	0xbf82e49ea0000000	-0.009225119836628437
234	0xbf81e4a2e0000000	-0.008736870251595974
235	0xbf80b30f00000000	-0.008154027163982391
236	0xbf7d828f80000000	-0.007204590365290642
237	0xbf76b9eda0000000	-0.005548408720642328
238	0xbf6d1e88a0000000	-0.0035545986611396074
239	0xbf57452720000000	-0.0014202959137037396
240	0x3f46fc6260000000	0.0007014732691459358
241	0x3f6658ed00000000	0.0027279499918222427
242	0x3f72e207c0000000	0.004610090516507626
243	0x3f7916d3a0000000	0.0061252848245203495
244	0x3f7d7aed60000000	0.00719731068238616
245	0x3f7f793cc0000000	0.007683980278670788
246	0x3f7ea7cb60000000	0.0074842399917542934
247	0x3f7cc28c60000000	0.007021473255008459
248	0x3f7c71a6c0000000	0.006944323889911175
249	0x3f7ecee760000000	0.007521537598222494
250	0x3f820e2ca0000000	0.008816097863018513
251	0x3f857af780000000	0.010488446801900864
252	0x3f890b4320000000	0.012228512205183506
253	0x3f8c0d2fa0000000	0.013697025366127491
254	0x3f8e0af460000000	0.014669331721961498
255	0x3f8ee08560000000	0.015076677314937115
