data/mixamo/36_800_24/train/ERIKA_ARCHER/Weight_Shift/Weight_Shift.npy (npy, 82208 bytes, 1 tensors)

array f8 [15, 3, 228]
0	0xbf672c6040000000	-0.002828777302056551
1	0xbf672c6040000000	-0.002828777302056551
2	0xbf70ceb220000000	-0.004103370476514101
3	0xbf77d873a0000000	-0.00582165876403451
4	0xbf7e714440000000	-0.007432238198816776
5	0xbf82f63560000000	-0.009258667938411236
6	0xbf8786e9e0000000	-0.01148779597133398
7	0xbf8cce7000000000	-0.01406562328338623
8	0xbf91481a00000000	-0.01687660813331604
9	0xbf93de4640000000	-0.019402597099542618
10	0xbf95f83ae0000000	-0.021454734727740288
11	0xbf97daf7a0000000	-0.023296231403946877
12	0xbf99b89980000000	-0.025118254125118256
13	0xbf9ba18480000000	-0.02698332816362381
14	0xbf9d88d680000000	-0.02884230762720108
15	0xbf9f762180000000	-0.030724070966243744
16	0xbfa0c46100000000	-0.032748252153396606
17	0xbfa1e1d0a0000000	-0.03492595627903938
18	0xbfa32d1600000000	-0.03745335340499878
19	0xbfa4c100a0000000	-0.04053499177098274
20	0xbfa6bacdc0000000	-0.04439394921064377
21	0xbfa90ce820000000	-0.048926595598459244
22	0xbfabb32300000000	-0.05410107970237732
23	0xbfae822520000000	-0.05958667770028114
24	0xbfb0a3c340000000	-0.0649988204240799
25	0xbfb1f17a20000000	-0.0700908973813057
26	0xbfb3215a80000000	-0.07472768425941467
27	0xbfb4325420000000	-0.07889295369386673
28	0xbfb5232380000000	-0.08256742358207703
29	0xbfb5f56400000000	-0.08577561378479004
30	0xbfb6a3a700000000	-0.08843463659286499
31	0xbfb73021c0000000	-0.09057818353176117
32	0xbfb79d9600000000	-0.09224832057952881
33	0xbfb7f1b260000000	-0.09353175014257431
34	0xbfb82b8120000000	-0.09441382437944412
35	0xbfb849d8a0000000	-0.09487680345773697
36	0xbfb84e0ae0000000	-0.09494083374738693
37	0xbfb8436b00000000	-0.09477871656417847
38	0xbfb8273160000000	-0.09434803575277328
39	0xbfb7f92e00000000	-0.09364593029022217
40	0xbfb7c00660000000	-0.09277381747961044
41	0xbfb7814420000000	-0.09181619435548782
42	0xbfb73e85a0000000	-0.09079775959253311
43	0xbfb6fc3b80000000	-0.08978626132011414
44	0xbfb6bfa6e0000000	-0.0888618752360344
45	0xbfb68bf9a0000000	-0.08807335048913956
46	0xbfb6646d40000000	-0.08746989071369171
47	0xbfb64940a0000000	-0.08705524355173111
48	0xbfb63c4d20000000	-0.0868576243519783
49	0xbfb63c04a0000000	-0.08685330301523209
50	0xbfb647a540000000	-0.08703072369098663
51	0xbfb65c25e0000000	-0.08734356611967087
52	0xbfb6776a40000000	-0.08775962889194489
53	0xbfb695a960000000	-0.08822115510702133
54	0xbfb6b535e0000000	-0.08870255202054977
55	0xbfb6d3afc0000000	-0.08916758000850677
56	0xbfb6edd940000000	-0.08956678211688995
57	0xbfb70123c0000000	-0.08986113965511322
58	0xbfb70cc9a0000000	-0.09003887325525284
59	0xbfb7134000000000	-0.09013748168945312
60	0xbfb715e720000000	-0.09017796069383621
61	0xbfb717b360000000	-0.09020539373159409
62	0xbfb719cd40000000	-0.09023745357990265
63	0xbfb71a2f20000000	-0.09024328738451004
64	0xbfb7175660000000	-0.09019985049962997
65	0xbfb70fb000000000	-0.09008312225341797
66	0xbfb701fcc0000000	-0.08987407386302948
67	0xbfb6f034c0000000	-0.0896027535200119
68	0xbfb6d94c80000000	-0.08925321698188782
69	0xbfb6bc2700000000	-0.08880847692489624
70	0xbfb69a10e0000000	-0.08828835934400558
71	0xbfb6743b60000000	-0.08771105855703354
72	0xbfb64c6a80000000	-0.08710351586341858
73	0xbfb624acc0000000	-0.08649711310863495
74	0xbfb5fd8840000000	-0.08589984476566315
75	0xbfb5d60fa0000000	-0.08529756218194962
76	0xbfb5b10280000000	-0.08473220467567444
77	0xbfb59068e0000000	-0.08423476666212082
78	0xbfb573aa40000000	-0.08379615843296051
79	0xbfb5575680000000	-0.08336392045021057
80	0xbfb538ff80000000	-0.08290097117424011
81	0xbfb51202c0000000	-0.08230607211589813
82	0xbfb4dadfc0000000	-0.0814647525548935
83	0xbfb491a800000000	-0.08034753799438477
84	0xbfb4335040000000	-0.07890798151493073
85	0xbfb3bc8be0000000	-0.07709573954343796
86	0xbfb32ea6e0000000	-0.0749306008219719
87	0xbfb28f9060000000	-0.07250311225652695
88	0xbfb1d9b560000000	-0.06972821801900864
89	0xbfb10b86e0000000	-0.06658213585615158
90	0xbfb029a020000000	-0.06313515454530716
91	0xbfae674b80000000	-0.05938182771205902
92	0xbfac47dc00000000	-0.05523574352264404
93	0xbfa9f4a1c0000000	-0.05069451779127121
94	0xbfa7848a40000000	-0.0459330752491951
95	0xbfa50c3cc0000000	-0.04110898822546005
96	0xbfa28a7dc0000000	-0.03621285408735275
97	0xbf9f4385c0000000	-0.030531015247106552
98	0xbf98fc14c0000000	-0.024399112910032272
99	0xbf926b6f80000000	-0.01798795908689499
100	0xbf8703d2a0000000	-0.011237760074436665
101	0xbf71fc4040000000	-0.004390955902636051
102	0x3f65461a80000000	0.0025969045236706734
103	0x3f83663340000000	0.009472275152802467
104	0x3f918bd540000000	0.017134983092546463
105	0x3f996fa7a0000000	0.024839991703629494
106	0x3fa09cf880000000	0.03244759142398834
107	0x3fa465e7a0000000	0.0398399718105793
108	0x3fa80490e0000000	0.04690983518958092
109	0x3fab7f1bc0000000	0.05370413511991501
110	0x3faecb8660000000	0.0601465217769146
111	0x3fb0f35520000000	0.066212959587574
112	0x3fb26e8ec0000000	0.07199947535991669
113	0x3fb3ee55c0000000	0.07785545289516449
114	0x3fb58c1ec0000000	0.08416931331157684
115	0x3fb73b2260000000	0.09074606746435165
116	0x3fb8e90040000000	0.0973053127527237
117	0x3fba846f80000000	0.10358330607414246
118	0x3fbbfaeba0000000	0.1092974916100502
119	0x3fbd460ba0000000	0.11435005813837051
120	0x3fbe639860000000	0.11870720237493515
121	0x3fbf51cfc0000000	0.12234209477901459
122	0x3fc0090b60000000	0.12527601420879364
123	0x3fc0577120000000	0.12766851484775543
124	0x3fc0937a80000000	0.12950068712234497
125	0x3fc0bc1ee0000000	0.13074098527431488
126	0x3fc0cfdfa0000000	0.1313437968492508
127	0x3fc0d30b20000000	0.13144053518772125
128	0x3fc0c96120000000	0.13114561140537262
129	0x3fc0b7a280000000	0.130604088306427
130	0x3fc0a1e8c0000000	0.12994107604026794
131	0x3fc08d8420000000	0.1293187290430069
132	0x3fc07ae4e0000000	0.12875042855739594
133	0x3fc067a040000000	0.1281624138355255
134	0x3fc05481a0000000	0.12757892906665802
135	0x3fc0431360000000	0.12704698741436005
136	0x3fc03486e0000000	0.12660299241542816
137	0x3fc0295340000000	0.1262611448764801
138	0x3fc0214e60000000	0.12601642310619354
139	0x3fc01b5aa0000000	0.12583477795124054
140	0x3fc01829a0000000	0.12573738396167755
141	0x3fc017b560000000	0.12572352588176727
142	0x3fc01a8a40000000	0.1258099377155304
143	0x3fc0207be0000000	0.1259913295507431
144	0x3fc029aee0000000	0.1262720674276352
145	0x3fc033d720000000	0.1265820413827896
146	0x3fc03c8f60000000	0.12684814631938934
147	0x3fc0430e20000000	0.1270463615655899
148	0x3fc048ec20000000	0.12722541391849518
149	0x3fc04f1400000000	0.12741327285766602
150	0x3fc0541d40000000	0.12756696343421936
151	0x3fc055d660000000	0.12761954963207245
152	0x3fc053b480000000	0.12755447626113892
153	0x3fc04f4b80000000	0.12741988897323608
154	0x3fc048dec0000000	0.12722381949424744
155	0x3fc0400b00000000	0.12695443630218506
156	0x3fc0348e60000000	0.1266038864850998
157	0x3fc027bf80000000	0.12621301412582397
158	0x3fc01abe80000000	0.12581616640090942
159	0x3fc00e3b20000000	0.1254342943429947
160	0x3fc0033480000000	0.12509781122207642
161	0x3fbff10d40000000	0.12477190792560577
162	0x3fbfd7f280000000	0.12438884377479553
163	0x3fbfb60940000000	0.12387140095233917
164	0x3fbf89aee0000000	0.1231946274638176
165	0x3fbf53d980000000	0.12237319350242615
166	0x3fbf171f00000000	0.12144654989242554
167	0x3fbecfdb00000000	0.12035912275314331
168	0x3fbe78af80000000	0.11902901530265808
169	0x3fbe0c4bc0000000	0.11737512052059174
170	0x3fbd8ac800000000	0.11539888381958008
171	0x3fbcf64300000000	0.11313265562057495
172	0x3fbc526400000000	0.11063218116760254
173	0x3fbb994d80000000	0.10780796408653259
174	0x3fbac554e0000000	0.10457354038953781
175	0x3fb9d7cea0000000	0.10094920545816422
176	0x3fb8c8f280000000	0.09681621193885803
177	0x3fb798ee00000000	0.09217727184295654
178	0x3fb648ae80000000	0.0870465338230133
179	0x3fb4d9c360000000	0.08144780248403549
180	0x3fb34cc5c0000000	0.07539020478725433
181	0x3fb1ad9780000000	0.06905505061149597
182	0x3fb00495c0000000	0.06256996095180511
183	0x3facacffa0000000	0.056007374078035355
184	0x3fa945df00000000	0.049361199140548706
185	0x3fa5d57f80000000	0.04264448583126068
186	0x3fa268be40000000	0.03595537692308426
187	0x3f9be11f20000000	0.027225958183407784
188	0x3f92afef80000000	0.0182492658495903
189	0x3f833c8960000000	0.009392808191478252
190	0x3f44b35e40000000	0.0006317339139059186
191	0xbf7f74be80000000	-0.007679695263504982
192	0xbf8f7b4960000000	-0.015371869318187237
193	0xbf9708a360000000	-0.022493889555335045
194	0xbf9dcbfd40000000	-0.029098469763994217
195	0xbfa1f7d320000000	-0.03509387746453285
196	0xbfa4ac1600000000	-0.04037541151046753
197	0xbfa70979e0000000	-0.04499417170882225
198	0xbfa901f0a0000000	-0.04884292557835579
199	0xbfaa93eae0000000	-0.05190977081656456
200	0xbfabc41280000000	-0.05423028767108917
201	0xbfac8e10a0000000	-0.055771369487047195
202	0xbfacec7a60000000	-0.056491684168577194
203	0xbface0c360000000	-0.056402307003736496
204	0xbfac7864c0000000	-0.05560602992773056
205	0xbfabc6bb80000000	-0.05425058305263519
206	0xbfaacc17c0000000	-0.05233835428953171
207	0xbfa992d720000000	-0.04994842782616615
208	0xbfa8227560000000	-0.047137897461652756
209	0xbfa68b44c0000000	-0.044031284749507904
210	0xbfa4d50560000000	-0.040687721222639084
211	0xbfa30d6940000000	-0.037211693823337555
212	0xbfa13e3cc0000000	-0.03367795795202255
213	0xbf9ee2a9e0000000	-0.030161527916789055
214	0xbf9b638540000000	-0.026746828109025955
215	0xbf98147320000000	-0.02351550944149494
216	0xbf94ffe2e0000000	-0.02050737850368023
217	0xbf9228c7e0000000	-0.01773369126021862
218	0xbf8f2c4c20000000	-0.01522120926529169
219	0xbf8a91e940000000	-0.012973615899682045
220	0xbf8678d1a0000000	-0.01097263116389513
221	0xbf82d40360000000	-0.009193445555865765
222	0xbf7f38f320000000	-0.0076226708479225636
223	0xbf799f20e0000000	-0.006255272310227156
224	0xbf74c849a0000000	-0.005073821637779474
225	0xbf70ba1d00000000	-0.004083741456270218
226	0xbf6b5abe80000000	-0.0033391686156392097
227	0xbf672c66e0000000	-0.0028287896420806646
228	0x3f71f407a0000000	0.004383115563541651
229	0x3f71f407a0000000	0.004383115563541651
230	0x3f70a5f280000000	0.004064509645104408
231	0x3f703faa20000000	0.00396696524694562
232	0x3f70dc1140000000	0.0041161226108670235
233	0x3f7202d2c0000000	0.004397223703563213
234	0x3f7381b3c0000000	0.004762365482747555
235	0x3f756f3280000000	0.005232999101281166
236	0x3f786babc0000000	0.00596205797046423
237	0x3f7d44fe00000000	0.007145874202251434
238	0x3f819159c0000000	0.008578015491366386
239	0x3f84c108a0000000	0.010133807547390461
240	0x3f88005f00000000	0.011719457805156708
241	0x3f8b3fec20000000	0.013305515982210636
242	0x3f8e7bcc80000000	0.014884565025568008
243	0x3f90a24400000000	0.01624399423599243
244	0x3f91c255a0000000	0.017342889681458473
245	0x3f92960620000000	0.018150420859456062
246	0x3f930755e0000000	0.018582670018076897
247	0x3f934af7a0000000	0.018840664997696877
248	0x3f93cbf420000000	0.019332708790898323
249	0x3f94a86920000000	0.020173685625195503
250	0x3f95d35c40000000	0.021314088255167007
251	0x3f970ca400000000	0.02250915765762329
252	0x3f98274300000000	0.023587271571159363
253	0x3f98f5a520000000	0.02437456138432026
254	0x3f99640fe0000000	0.024795768782496452
255	0x3f99898820000000	0.024938704445958138
