data/mixamo/36_800_24/train/CLAIRE/Weight_Shift/Weight_Shift.npy (npy, 82208 bytes, 1 tensors)

array f8 [15, 3, 228]
000000 00 00 00 00 d8 e9 79 bf 00 00 00 00 d8 e9 79 bf
       -0.006326526403427124 -0.006326526403427124
000010 00 00 00 c0 13 10 7e bf 00 00 00 20 74 d2 81 bf
       -0.007339551113545895 -0.008702189661562443
000020 00 00 00 e0 2e 78 84 bf 00 00 00 80 3b 80 87 bf
       -0.00999485608190298 -0.011475052684545517
000030 00 00 00 40 a9 31 8b bf 00 00 00 a0 56 6b 8f bf
       -0.013278314843773842 -0.015341450460255146
000040 00 00 00 00 0b fa 91 bf 00 00 00 c0 a5 f5 93 bf
       -0.017555400729179382 -0.019491758197546005
000050 00 00 00 c0 f6 84 95 bf 00 00 00 e0 26 e4 96 bf
       -0.021015029400587082 -0.02235470525920391
000060 00 00 00 60 3b 3c 98 bf 00 00 00 a0 53 94 99 bf
       -0.023667266592383385 -0.024979883804917336
000070 00 00 00 20 e8 d7 9a bf 00 00 00 80 e5 16 9c bf
       -0.026214243844151497 -0.027431093156337738
000080 00 00 00 c0 b8 6e 9d bf 00 00 00 00 8e f0 9e bf
       -0.028742682188749313 -0.030214518308639526
000090 00 00 00 40 a1 70 a0 bf 00 00 00 00 8e bf a1 bf
       -0.032109297811985016 -0.0346645712852478
0000a0 00 00 00 60 83 7e a3 bf 00 00 00 40 49 9e a5 bf
       -0.038074593991041183 -0.0422232523560524
0000b0 00 00 00 80 ab 17 a8 bf 00 00 00 80 01 bb aa bf
       -0.04705558717250824 -0.05220799148082733
0000c0 00 00 00 20 3d 53 ad bf 00 00 00 c0 e3 c5 af bf
       -0.0572756864130497 -0.06205665320158005
0000d0 00 00 00 c0 44 04 b1 bf 00 00 00 00 a8 0b b2 bf
       -0.06647138297557831 -0.07049036026000977
0000e0 00 00 00 40 36 f5 b2 bf 00 00 00 e0 04 c2 b3 bf
       -0.07405413687229156 -0.07717924565076828
0000f0 00 00 00 20 27 6d b4 bf 00 00 00 e0 1e f7 b4 bf
       -0.07979054003953934 -0.08189576119184494
000100 00 00 00 c0 1d 61 b5 bf 00 00 00 60 4d b1 b5 bf
       -0.08351312577724457 -0.084736667573452
000110 00 00 00 a0 10 e8 b5 bf 00 00 00 80 87 05 b6 bf
       -0.08557227998971939 -0.08602187037467957
000120 00 00 00 20 09 0a b6 bf 00 00 00 e0 40 ff b5 bf
       -0.08609063178300858 -0.0859261080622673
000130 00 00 00 c0 e0 e1 b5 bf 00 00 00 60 62 b2 b5 bf
       -0.08547787368297577 -0.08475317806005478
000140 00 00 00 60 9a 77 b5 bf 00 00 00 60 cd 36 b5 bf
       -0.0838562473654747 -0.08286746591329575
000150 00 00 00 e0 75 f1 b4 bf 00 00 00 60 62 ac b4 bf
       -0.0818093940615654 -0.08075537532567978
000160 00 00 00 a0 a5 6d b4 bf 00 00 00 60 cb 38 b4 bf
       -0.07979808002710342 -0.0789916142821312
000170 00 00 00 60 d1 10 b4 bf 00 00 00 20 8b f5 b3 bf
       -0.07838162034749985 -0.07796544581651688
000180 00 00 00 e0 f6 e8 b3 bf 00 00 00 60 b9 e9 b3 bf
       -0.07777350395917892 -0.07778509706258774
000190 00 00 00 e0 ab f6 b3 bf 00 00 00 c0 8c 0c b4 bf
       -0.07798265665769577 -0.07831649482250214
0001a0 00 00 00 60 45 29 b4 bf 00 00 00 60 ea 48 b4 bf
       -0.07875474542379379 -0.07923760265111923
0001b0 00 00 00 40 b0 69 b4 bf 00 00 00 00 33 89 b4 bf
       -0.07973767817020416 -0.08021849393844604
0001c0 00 00 00 a0 0b a4 b4 bf 00 00 00 60 ad b7 b4 bf
       -0.08062813431024551 -0.08092769235372543
0001d0 00 00 00 40 94 c3 b4 bf 00 00 00 80 6c ca b4 bf
       -0.08110930025577545 -0.08121374249458313
0001e0 00 00 00 00 b4 cd b4 bf 00 00 00 40 82 d0 b4 bf
       -0.08126378059387207 -0.081306591629982
0001f0 00 00 00 e0 09 d4 b4 bf 00 00 00 80 4f d6 b4 bf
       -0.08136045187711716 -0.08139511942863464
000200 00 00 00 80 ea d5 b4 bf 00 00 00 00 fc d0 b4 bf
       -0.08138909935951233 -0.0813138484954834
000210 00 00 00 00 f0 c5 b4 bf 00 00 00 40 ea b6 b4 bf
       -0.0811452865600586 -0.08091606199741364
000220 00 00 00 20 d4 a2 b4 bf 00 00 00 a0 47 88 b4 bf
       -0.08060956746339798 -0.08020446449518204
000230 00 00 00 a0 bf 68 b4 bf 00 00 00 e0 e4 45 b4 bf
       -0.07972333580255508 -0.07919149845838547
000240 00 00 00 80 be 21 b4 bf 00 00 00 20 94 fe b3 bf
       -0.07863989472389221 -0.07810331135988235
000250 00 00 00 80 46 dd b3 bf 00 00 00 60 ac bc b3 bf
       -0.07759514451026917 -0.07709767669439316
000260 00 00 00 c0 99 9f b3 bf 00 00 00 40 9e 88 b3 bf
       -0.07665406167507172 -0.0763033777475357
000270 00 00 00 80 92 77 b3 bf 00 00 00 00 32 69 b3 bf
       -0.0760432779788971 -0.07582390308380127
000280 00 00 00 c0 66 5b b3 bf 00 00 00 20 fd 46 b3 bf
       -0.07561342418193817 -0.07530195266008377
000290 00 00 00 80 95 23 b3 bf 00 00 00 e0 a8 ef b2 bf
       -0.07476171851158142 -0.07396941632032394
0002a0 00 00 00 e0 6c a9 b2 bf 00 00 00 c0 6e 4d b2 bf
       -0.07289772480726242 -0.07149402797222137
0002b0 00 00 00 80 0e dc b1 bf 00 00 00 60 36 5b b1 bf
       -0.06976404786109924 -0.06779804080724716
0002c0 00 00 00 80 fe c4 b0 bf 00 00 00 00 e8 19 b0 bf
       -0.06550589203834534 -0.06289529800415039
0002d0 00 00 00 a0 ee c1 ae bf 00 00 00 60 50 2e ad bf
       -0.060073334723711014 -0.05699397251009941
0002e0 00 00 00 20 6d 6b ab bf 00 00 00 00 90 75 a9 bf
       -0.05355397239327431 -0.04972505569458008
0002f0 00 00 00 60 9e 64 a7 bf 00 00 00 a0 91 52 a5 bf
       -0.04568953439593315 -0.04164557531476021
000300 00 00 00 20 29 3e a3 bf 00 00 00 60 da d4 a0 bf
       -0.037583623081445694 -0.03287393972277641
000310 00 00 00 c0 cb 71 9c bf 00 00 00 c0 0c 01 97 bf
       -0.02777784690260887 -0.022464942187070847
000320 00 00 00 40 e0 4a 91 bf 00 00 00 60 c6 24 87 bf
       -0.01688719168305397 -0.011300611309707165
000330 00 00 00 20 85 e4 76 bf 00 00 00 80 c2 53 0a bf
       -0.005589027423411608 -5.021512333769351e-05
000340 00 00 00 60 6f e0 78 3f 00 00 00 c0 9d 0d 89 3f
       0.006073412951081991 0.012233002111315727
000350 00 00 00 c0 1f c2 92 3f 00 00 00 e0 60 c4 98 3f
       0.018318649381399155 0.024186624214053154
000360 00 00 00 00 82 66 9e 3f 00 00 00 a0 d1 db a1 3f
       0.02968791127204895 0.03488020971417427
000370 00 00 00 80 2a 64 a4 3f 00 00 00 c0 db cf a6 3f
       0.03982670605182648 0.044554583728313446
000380 00 00 00 e0 ac 2c a9 3f 00 00 00 00 f7 a0 ab 3f
       0.04916897043585777 0.05396243929862976
000390 00 00 00 20 ec 62 ae 3f 00 00 00 80 13 ac b0 3f
       0.059348467737436295 0.06512567400932312
0003a0 00 00 00 00 b1 27 b2 3f 00 00 00 20 4c 91 b3 3f
       0.07091814279556274 0.07643581181764603
0003b0 00 00 00 c0 c3 de b4 3f 00 00 00 00 77 0d b6 3f
       0.08152411878108978 0.08614295721054077
0003c0 00 00 00 a0 7e 12 b7 3f 00 00 00 a0 44 eb b7 3f
       0.09012595564126968 0.09343365579843521
0003d0 00 00 00 60 8b 99 b8 3f 00 00 00 e0 19 26 b9 3f
       0.09609290212392807 0.09823762625455856
0003e0 00 00 00 40 b8 8e b9 3f 00 00 00 00 ce d0 b9 3f
       0.09983398020267487 0.10084235668182373
0003f0 00 00 00 60 46 e8 b9 3f 00 00 00 80 89 df b9 3f
       0.10120048373937607 0.10106715559959412
000400 00 00 00 40 69 bf b9 3f 00 00 00 e0 56 90 b9 3f
       0.10057695209980011 0.09985869377851486
000410 00 00 00 c0 a1 59 b9 3f 00 00 00 40 85 25 b9 3f
       0.09902392327785492 0.09822876751422882
000420 00 00 00 20 f0 f4 b8 3f 00 00 00 40 45 c3 b8 3f
       0.09748745709657669 0.0967295914888382
000430 00 00 00 20 5b 92 b8 3f 00 00 00 80 5c 65 b8 3f
       0.09598321467638016 0.09529665112495422
000440 00 00 00 e0 d2 3e b8 3f 00 00 00 a0 c9 1f b8 3f
       0.09470861405134201 0.09423504024744034
000450 00 00 00 00 ab 07 b8 3f 00 00 00 c0 14 f4 b7 3f
       0.09386700391769409 0.09356813132762909
000460 00 00 00 e0 1e e7 b7 3f 00 00 00 20 a0 e1 b7 3f
       0.09337037056684494 0.09328652173280716
000470 00 00 00 80 96 e4 b7 3f 00 00 00 80 c7 ee b7 3f
       0.0933317244052887 0.09348723292350769
000480 00 00 00 a0 45 00 b8 3f 00 00 00 60 e9 14 b8 3f
       0.09375414997339249 0.09406908601522446
000490 00 00 00 00 e4 27 b8 3f 00 00 00 80 46 37 b8 3f
       0.09435868263244629 0.09459343552589417
0004a0 00 00 00 a0 08 46 b8 3f 00 00 00 20 84 55 b8 3f
       0.09481862932443619 0.09505487233400345
0004b0 00 00 00 20 f8 62 b8 3f 00 00 00 c0 59 6a b8 3f
       0.0952601507306099 0.09537278115749359
0004c0 00 00 00 c0 97 6a b8 3f 00 00 00 e0 5d 66 b8 3f
       0.09537647664546967 0.09531199187040329
0004d0 00 00 00 60 e3 5d b8 3f 00 00 00 a0 24 50 b8 3f
       0.0951826199889183 0.0949728861451149
0004e0 00 00 00 a0 7b 3c b8 3f 00 00 00 c0 f8 25 b8 3f
       0.09467289596796036 0.09432940185070038
0004f0 00 00 00 80 b2 0f b8 3f 00 00 00 60 c5 fb b7 3f
       0.09398952126502991 0.09368547052145004
000500 00 00 00 60 dd ec b7 3f 00 00 00 40 26 e1 b7 3f
       0.09345801919698715 0.09327925741672516
000510 00 00 00 60 4a d4 b7 3f 00 00 00 00 4f c1 b7 3f
       0.09308304637670517 0.09279340505599976
000520 00 00 00 e0 f1 a6 b7 3f 00 00 00 c0 6b 86 b7 3f
       0.09239112585783005 0.09189485013484955
000530 00 00 00 40 de 62 b7 3f 00 00 00 60 4a 39 b7 3f
       0.09135235846042633 0.09071793407201767
000540 00 00 00 80 36 04 b7 3f 00 00 00 60 7d be b6 3f
       0.08990803360939026 0.08884414285421371
000550 00 00 00 00 e4 69 b6 3f 00 00 00 00 94 0a b6 3f
       0.08755326271057129 0.08609890937805176
000560 00 00 00 e0 e4 a4 b5 3f 00 00 00 00 03 33 b5 3f
       0.08454733341932297 0.08280962705612183
000570 00 00 00 a0 a8 ae b4 3f 00 00 00 c0 b9 16 b4 3f
       0.08079008013010025 0.07847176492214203
000580 00 00 00 80 94 62 b3 3f 00 00 00 c0 f0 90 b2 3f
       0.07572296261787415 0.07252411544322968
000590 00 00 00 20 41 a1 b1 3f 00 00 00 e0 cb 94 b0 3f
       0.0688667967915535 0.06477045267820358
0005a0 00 00 00 60 f3 d5 ae 3f 00 00 00 60 fe 59 ac 3f
       0.060226064175367355 0.05537409707903862
0005b0 00 00 00 e0 51 c5 a9 3f 00 00 00 e0 82 21 a7 3f
       0.05033355578780174 0.04517754539847374
0005c0 00 00 00 c0 be 6e a4 3f 00 00 00 20 ba b0 a1 3f
       0.03990741819143295 0.03455144539475441
0005d0 00 00 00 60 2a e5 9d 3f 00 00 00 40 9e d2 96 3f
       0.029194509610533714 0.022287819534540176
0005e0 00 00 00 40 a5 10 8f 3f 00 00 00 80 3f 8d 80 3f
       0.015168467536568642 0.008081909269094467
0005f0 00 00 00 e0 95 41 50 3f 00 00 00 20 91 c8 77 bf
       0.000992199289612472 -0.005806509871035814
000600 00 00 00 c0 8c f5 88 bf 00 00 00 80 8e 9a 92 bf
       -0.01218709908425808 -0.018167711794376373
000610 00 00 00 00 9c 56 98 bf 00 00 00 a0 73 97 9d bf
       -0.02376788854598999 -0.028898054733872414
000620 00 00 00 80 26 2b a1 bf 00 00 00 c0 38 4c a3 bf
       -0.033532336354255676 -0.0376909002661705
000630 00 00 00 e0 00 1f a5 bf 00 00 00 40 98 9c a6 bf
       -0.04125216230750084 -0.04416347295045853
000640 00 00 00 40 fa d5 a7 bf 00 00 00 80 fc c3 a8 bf
       -0.04655439406633377 -0.04837025701999664
000650 00 00 00 a0 bf 56 a9 bf 00 00 00 00 96 8a a9 bf
       -0.04948996379971504 -0.049885451793670654
000660 00 00 00 60 ef 69 a9 bf 00 00 00 60 de 03 a9 bf
       -0.049636345356702805 -0.048857640475034714
000670 00 00 00 a0 37 57 a8 bf 00 00 00 a0 7f 6f a7 bf
       -0.047540415078401566 -0.04577254131436348
000680 00 00 00 c0 53 53 a6 bf 00 00 00 a0 28 10 a5 bf
       -0.04360448569059372 -0.041138906031847
000690 00 00 00 c0 0b ac a3 bf 00 00 00 80 3e 34 a2 bf
       -0.038421981036663055 -0.03555484116077423
0006a0 00 00 00 c0 54 b1 a0 bf 00 00 00 20 8c 59 9e bf
       -0.03260292857885361 -0.029638471081852913
0006b0 00 00 00 00 c3 65 9b bf 00 00 00 40 90 9e 98 bf
       -0.026755377650260925 -0.024042371660470963
0006c0 00 00 00 60 c7 0d 96 bf 00 00 00 60 41 b3 93 bf
       -0.02153693698346615 -0.019238492473959923
0006d0 00 00 00 a0 67 91 91 bf 00 00 00 60 d9 48 8f bf
       -0.017156237736344337 -0.015275667421519756
0006e0 00 00 00 20 4c cc 8b bf 00 00 00 40 81 a6 88 bf
       -0.01357326004654169 -0.012036332860589027
0006f0 00 00 00 60 c5 d2 85 bf 00 00 00 40 89 51 83 bf
       -0.010655920021235943 -0.00943286158144474
000700 00 00 00 40 00 22 81 bf 00 00 00 00 a7 94 7e bf
       -0.008365632966160774 -0.007465984672307968
000710 00 00 00 40 82 cc 7b bf 00 00 00 00 ce e9 79 bf
       -0.00678683165460825 -0.006326489150524139
000720 00 00 00 40 86 42 69 bf 00 00 00 40 86 42 69 bf
       -0.0030834791250526905 -0.0030834791250526905
000730 00 00 00 c0 48 f0 6b bf 00 00 00 80 97 6e 6c bf
       -0.0034104748629033566 -0.0034707030281424522
000740 00 00 00 e0 4d 99 6a bf 00 00 00 60 ab b5 67 bf
       -0.0032469292636960745 -0.002894243923947215
000750 00 00 00 00 6c 57 64 bf 00 00 00 e0 fd 36 60 bf
       -0.002483092248439789 -0.0019793470855802298
000760 00 00 00 e0 1b a7 53 bf 00 00 00 e0 b1 61 14 3f
       -0.0011995098320767283 7.77497116359882e-05
000770 00 00 00 a0 1d 24 5a 3f 00 00 00 c0 a0 54 6a 3f
       0.0015955247217789292 0.0032141818664968014
000780 00 00 00 a0 b8 c8 73 3f 00 00 00 40 69 31 7a 3f
       0.0048300945200026035 0.006394778378307819
000790 00 00 00 e0 57 21 80 3f 00 00 00 00 41 a8 82 3f
       0.007876097224652767 0.0091099813580513
0007a0 00 00 00 00 48 90 84 3f 00 00 00 20 7e be 85 3f
       0.010040819644927979 0.010617242194712162
0007b0 00 00 00 60 6a 1a 86 3f 00 00 00 a0 2f 30 86 3f
       0.010792571119964123 0.010834095068275928
0007c0 00 00 00 e0 50 e4 86 3f 00 00 00 60 1d 79 88 3f
       0.011177665553987026 0.011949758045375347
0007d0 00 00 00 c0 e7 d1 8a 3f 00 00 00 20 25 66 8d 3f
       0.01309567503631115 0.014354982413351536
0007e0 00 00 00 20 e5 d5 8f 3f 00 00 00 20 5d df 90 3f
       0.015544691123068333 0.016477065160870552
0007f0 00 00 00 20 7f 72 91 3f 00 00 00 e0 d2 aa 91 3f
       0.017038332298398018 0.017253203317523003
