data/mixamo/36_800_24/train/WARROK_W/Weight_Shift/Weight_Shift.npy (npy, 82208 bytes, 1 tensors)

array f8 [15, 3, 228]
-0.0251067653298378 -0.0251067653298378 -0.026403911411762238 -0.028111500665545464 -0.02978089265525341 -0.031671252101659775 -0.03390207514166832 -0.036359965801239014
-0.03884752094745636 -0.040605977177619934 -0.04171013832092285 -0.042360030114650726 -0.04282141476869583 -0.04322269931435585 -0.04341541603207588 -0.04315734654664993
-0.042465608566999435 -0.04120185598731041 -0.03971326723694801 -0.03875093534588814 -0.038993146270513535 -0.040976643562316895 -0.045313041657209396 -0.05145621672272682
-0.058529309928417206 -0.06581632047891617 -0.07289239019155502 -0.07923076301813126 -0.08437835425138474 -0.0885763019323349 -0.09224119037389755 -0.09577051550149918
-0.09915006160736084 -0.10213131457567215 -0.10441043972969055 -0.10578592121601105 -0.10620652139186859 -0.10604079812765121 -0.10525049269199371 -0.10382503271102905
-0.10192258656024933 -0.0997571274638176 -0.09741824865341187 -0.09503279626369476 -0.0927601158618927 -0.0907871201634407 -0.0893431082367897 -0.08843637257814407
-0.08804409950971603 -0.08806703239679337 -0.08849894255399704 -0.08924538642168045 -0.09019563347101212 -0.09117339551448822 -0.09209500998258591 -0.09295465052127838
-0.09374987334012985 -0.09444602578878403 -0.09501834958791733 -0.09551097452640533 -0.09599154442548752 -0.09657266736030579 -0.09729094058275223 -0.09800785779953003
-0.09856081753969193 -0.09885604679584503 -0.09888393431901932 -0.09873969107866287 -0.0983925387263298 -0.09783203154802322 -0.0971212387084961 -0.0963108241558075
-0.09546799212694168 -0.09469663351774216 -0.09407772868871689 -0.09360191971063614 -0.09336693584918976 -0.09346145391464233 -0.09391174465417862 -0.09465909749269485
-0.09573827683925629 -0.09694290161132812 -0.0979846939444542 -0.09869314730167389 -0.09895234555006027 -0.09873475879430771 -0.0981861874461174 -0.0974639430642128
-0.09631568938493729 -0.0947134792804718 -0.09283339232206345 -0.09048330038785934 -0.08757291734218597 -0.08434782922267914 -0.08087503910064697 -0.07667602598667145
-0.07142264395952225 -0.06488314270973206 -0.057734884321689606 -0.05014839023351669 -0.04224497079849243 -0.034711021929979324 -0.02779868058860302 -0.022095786407589912
-0.016761446371674538 -0.012071792036294937 -0.008004797622561455 -0.004735672380775213 -0.002778407884761691 -0.0020653398241847754 -0.0023569646291434765 -0.003157957922667265
-0.003666248871013522 -0.0027851953636854887 0.000739377923309803 0.006429633125662804 0.013377298600971699 0.020703477784991264 0.02770095318555832 0.033910639584064484
0.039186473935842514 0.04375063627958298 0.04810527712106705 0.05270680412650108 0.057343490421772 0.06125447526574135 0.06388835608959198 0.06540536880493164
0.06613878905773163 0.06644678115844727 0.06658359616994858 0.0668589323759079 0.06716800481081009 0.06719794124364853 0.06685712933540344 0.06623589992523193
0.0654032900929451 0.06446466594934464 0.06345289200544357 0.062371209263801575 0.06128411740064621 0.06031542643904686 0.05960338935256004 0.059133853763341904
0.058871421962976456 0.058688677847385406 0.05841132998466492 0.05797673389315605 0.05761490389704704 0.05756513401865959 0.05780576169490814 0.058037228882312775
0.05809014290571213 0.058056801557540894 0.05802979692816734 0.0579446479678154 0.05769462510943413 0.05729721486568451 0.05680886283516884 0.05632784590125084
0.05598392337560654 0.05576437711715698 0.05556017905473709 0.0552450492978096 0.054819826036691666 0.054400816559791565 0.054179124534130096 0.05409734696149826
0.053967636078596115 0.053541574627161026 0.05273512750864029 0.05156676098704338 0.05023976042866707 0.04882942512631416 0.047410931438207626 0.046131715178489685
0.04480401799082756 0.04317113384604454 0.040904827415943146 0.037766460329294205 0.03369930759072304 0.02909436821937561 0.02417868748307228 0.01902308501303196
0.01364361122250557 0.008106415160000324 0.0027215948794037104 -0.003911265172064304 -0.01029541902244091 -0.016351010650396347 -0.02217075042426586 -0.02728419005870819
-0.03165440261363983 -0.03567741438746452 -0.039529647678136826 -0.04273754358291626 -0.045262545347213745 -0.0473833829164505 -0.04913748800754547 -0.05063445121049881
-0.052347391843795776 -0.053804486989974976 -0.05492343008518219 -0.05555571988224983 -0.05567646771669388 -0.055387161672115326 -0.054812345653772354 -0.053984254598617554
-0.05283747613430023 -0.0514470599591732 -0.04984154924750328 -0.04803894832730293 -0.04607004672288895 -0.04404556006193161 -0.04206761345267296 -0.04020116850733757
-0.03841496258974075 -0.036731231957674026 -0.03524348884820938 -0.033985435962677 -0.03289021924138069 -0.0318618044257164 -0.03079606033861637 -0.029631009325385094
-0.028297891840338707 -0.026970338076353073 -0.025899119675159454 -0.025106756016612053 -0.33982884883880615 -0.33982884883880615 -0.34035152196884155 -0.3403458595275879
-0.3397889733314514 -0.33900025486946106 -0.33814144134521484 -0.33715111017227173 -0.33569711446762085 -0.3334517776966095 -0.33079949021339417 -0.32805219292640686
-0.32539233565330505 -0.32289719581604004 -0.32061538100242615 -0.31891217827796936 -0.3177574574947357 -0.31732064485549927 -0.3175773322582245 -0.31785285472869873
-0.3173817992210388 -0.31606435775756836 -0.3140868544578552 -0.31186342239379883 -0.30963754653930664 -0.30773046612739563 -0.30646657943725586 -0.3059313893318176
00000000: 0000 0080 96b5 99bf 0000 0080 96b5 99bf
00000010: 0000 0080 a009 9bbf 0000 00e0 42c9 9cbf
00000020: 0000 00e0 e17e 9ebf 0000 00e0 3637 a0bf
00000030: 0000 00e0 9c5b a1bf 0000 0000 c69d a2bf
00000040: 0000 0080 d2e3 a3bf 0000 0080 4eca a4bf
00000050: 0000 0000 085b a5bf 0000 00c0 36b0 a5bf
00000060: 0000 0040 b0ec a5bf 0000 0020 4921 a6bf
00000070: 0000 00a0 8b3a a6bf 0000 0040 b818 a6bf
00000080: 0000 0060 0dbe a5bf 0000 00e0 6818 a5bf
00000090: 0000 0020 4c55 a4bf 0000 00a0 29d7 a3bf
000000a0: 0000 00e0 e8f6 a3bf 0000 0000 e4fa a4bf
000000b0: 0000 0060 4533 a7bf 0000 0020 7858 aabf
000000c0: 0000 00c0 8df7 adbf 0000 00a0 56d9 b0bf
000000d0: 0000 0060 13a9 b2bf 0000 00a0 7748 b4bf
000000e0: 0000 00e0 d199 b5bf 0000 00c0 efac b6bf
000000f0: 0000 0060 1e9d b7bf 0000 00a0 6a84 b8bf
00000100: 0000 0000 e661 b9bf 0000 0020 4725 babf
00000110: 0000 0080 a4ba babf 0000 0040 c914 bbbf
00000120: 0000 00c0 5930 bbbf 0000 0060 7d25 bbbf
00000130: 0000 0040 b2f1 babf 0000 0000 4794 babf
00000140: 0000 0040 9917 babf 0000 00e0 ae89 b9bf
00000150: 0000 0000 67f0 b8bf 0000 00c0 1154 b8bf
00000160: 0000 0080 20bf b7bf 0000 0020 d33d b7bf
00000170: 0000 00a0 30df b6bf 0000 0020 c4a3 b6bf
00000180: 0000 00e0 0e8a b6bf 0000 00a0 8f8b b6bf
00000190: 0000 00e0 dda7 b6bf 0000 0020 c9d8 b6bf
000001a0: 0000 00a0 0f17 b7bf 0000 00c0 2357 b7bf
000001b0: 0000 00e0 8993 b7bf 0000 0040 e0cb b7bf
000001c0: 0000 00e0 fdff b7bf 0000 0060 9d2d b8bf
000001d0: 0000 0060 1f53 b8bf 0000 0040 6873 b8bf
000001e0: 0000 00e0 e692 b8bf 0000 0080 fcb8 b8bf
000001f0: 0000 0020 0fe8 b8bf 0000 0000 0b17 b9bf
00000200: 0000 0020 483b b9bf 0000 0040 a14e b9bf
00000210: 0000 0020 7550 b9bf 0000 0020 0147 b9bf
00000220: 0000 00e0 4030 b9bf 0000 0020 850b b9bf
00000230: 0000 0000 f0dc b8bf 0000 0080 d3a7 b8bf
00000240: 0000 0020 9770 b8bf 0000 00e0 093e b8bf
00000250: 0000 0060 7a15 b8bf 0000 00a0 4bf6 b7bf
00000260: 0000 0040 e5e6 b7bf 0000 0000 17ed b7bf
00000270: 0000 00a0 990a b8bf 0000 0020 943b b8bf
00000280: 0000 00c0 4d82 b8bf 0000 0000 40d1 b8bf
00000290: 0000 0060 8615 b9bf 0000 0040 f443 b9bf
000002a0: 0000 00e0 f054 b9bf 0000 0060 ae46 b9bf
000002b0: 0000 00e0 ba22 b9bf 0000 00a0 65f3 b8bf
000002c0: 0000 0020 25a8 b8bf 0000 0080 243f b8bf
000002d0: 0000 00e0 edc3 b7bf 0000 00e0 e929 b7bf
000002e0: 0000 00c0 2d6b b6bf 0000 00c0 d197 b5bf
000002f0: 0000 0000 3ab4 b4bf 0000 0040 0aa1 b3bf
00000300: 0000 0020 c148 b2bf 0000 0080 2e9c b0bf
00000310: 0000 0040 6d8f adbf 0000 00c0 0cad a9bf
00000320: 0000 0000 22a1 a5bf 0000 00a0 a4c5 a1bf
00000330: 0000 00e0 4177 9cbf 0000 0020 47a0 96bf
00000340: 0000 00a0 e929 91bf 0000 0080 18b9 88bf
00000350: 0000 00c0 d164 80bf 0000 0060 b665 73bf
00000360: 0000 0060 bec2 66bf 0000 00e0 54eb 60bf
00000370: 0000 00c0 e94e 63bf 0000 00c0 b7de 69bf
00000380: 0000 0060 ae08 6ebf 0000 0060 fad0 66bf
00000390: 0000 0000 5a3a 483f 0000 0080 f555 7a3f
000003a0: 0000 00a0 8e65 8b3f 0000 00e0 4a33 953f
000003b0: 0000 0080 a35d 9c3f 0000 0040 bc5c a13f
000003c0: 0000 00e0 3f10 a43f 0000 00c0 7b66 a63f
000003d0: 0000 0040 41a1 a83f 0000 00e0 62fc aa3f
000003e0: 0000 0040 205c ad3f 0000 0020 bf5c af3f
000003f0: 0000 00c0 fc5a b03f 0000 0000 68be b03f
00000400: 0000 00c0 78ee b03f 0000 0000 a802 b13f
00000410: 0000 0060 9f0b b13f 0000 00c0 aa1d b13f
00000420: 0000 0020 ec31 b13f 0000 0060 e233 b13f
00000430: 0000 0080 8c1d b13f 0000 0000 d6f4 b03f
00000440: 0000 0020 45be b03f 0000 00a0 c180 b03f
00000450: 0000 00e0 723e b03f 0000 0080 1eef af3f
00000460: 0000 00c0 a160 af3f 0000 00e0 a9e1 ae3f
00000470: 0000 00e0 5584 ae3f 0000 00e0 ca46 ae3f
00000480: 0000 0020 6524 ae3f 0000 0040 710c ae3f
00000490: 0000 0000 17e8 ad3f 0000 0060 20af ad3f
000004a0: 0000 0060 b37f ad3f 0000 0060 2d79 ad3f
000004b0: 0000 0080 b798 ad3f 0000 0040 0eb7 ad3f
000004c0: 0000 00c0 fdbd ad3f 0000 0000 9fb9 ad3f
000004d0: 0000 00e0 14b6 ad3f 0000 00c0 ebaa ad3f
000004e0: 0000 0060 268a ad3f 0000 0080 0f56 ad3f
000004f0: 0000 0020 0d16 ad3f 0000 00e0 00d7 ac3f
00000500: 0000 00c0 eca9 ac3f 0000 0000 268d ac3f
00000510: 0000 0040 6272 ac3f 0000 0040 1449 ac3f
00000520: 0000 0020 5811 ac3f 0000 0080 6cda ab3f
00000530: 0000 00c0 5dbd ab3f 0000 00c0 a5b2 ab3f
00000540: 0000 0060 a5a1 ab3f 0000 0020 cd69 ab3f
00000550: 0000 0040 1900 ab3f 0000 0060 f566 aa3f
00000560: 0000 00a0 06b9 a93f 0000 00a0 2b00 a93f
00000570: 0000 00e0 3e46 a83f 0000 0080 939e a73f
00000580: 0000 0060 8df0 a63f 0000 00e0 861a a63f
00000590: 0000 0040 7af1 a43f 0000 0020 2056 a33f
000005a0: 0000 0020 0941 a13f 0000 0000 eaca 9d3f
000005b0: 0000 0040 4cc2 983f 0000 00a0 c97a 933f
000005c0: 0000 0080 2ef1 8b3f 0000 00a0 189a 803f
000005d0: 0000 0020 994b 663f 0000 0040 4205 70bf
000005e0: 0000 00c0 c315 85bf 0000 00c0 51be 90bf
000005f0: 0000 00e0 edb3 96bf 0000 0000 63f0 9bbf
00000600: 0000 0080 0135 a0bf 0000 0060 4f44 a2bf
00000610: 0000 00e0 3a3d a4bf 0000 0000 b2e1 a5bf
00000620: 0000 0000 a72c a7bf 0000 0080 a242 a8bf
00000630: 0000 0080 8c28 a9bf 0000 0040 c2ec a9bf
00000640: 0000 0000 47cd aabf 0000 0000 438c abbf
00000650: 0000 0080 ec1e acbf 0000 00a0 cc71 acbf
00000660: 0000 0040 a081 acbf 0000 00c0 b45b acbf
00000670: 0000 0020 5d10 acbf 0000 0000 d3a3 abbf
00000680: 0000 0080 830d abbf 0000 00e0 4457 aabf
00000690: 0000 00e0 d484 a9bf 0000 00a0 8f98 a8bf
000006a0: 0000 0040 7e96 a7bf 0000 00c0 238d a6bf
000006b0: 0000 00e0 e289 a5bf 0000 0060 3f95 a4bf
000006c0: 0000 0040 20ab a3bf 0000 00a0 6fce a2bf
000006d0: 0000 0040 6f0b a2bf 0000 0000 8a66 a1bf
000006e0: 0000 00a0 fcd6 a0bf 0000 00c0 3050 a0bf
000006f0: 0000 00a0 0089 9fbf 0000 0060 9757 9ebf
00000700: 0000 0060 1ffa 9cbf 0000 00c0 1c9e 9bbf
00000710: 0000 0080 4c85 9abf 0000 00e0 95b5 99bf
00000720: 0000 0080 c1bf d5bf 0000 0080 c1bf d5bf
00000730: 0000 00c0 51c8 d5bf 0000 0000 3ac8 d5bf
00000740: 0000 0040 1abf d5bf 0000 0020 2eb2 d5bf
00000750: 0000 0000 1ca4 d5bf 0000 0040 e293 d5bf
00000760: 0000 00c0 0f7c d5bf 0000 0020 4657 d5bf
00000770: 0000 00a0 d12b d5bf 0000 00a0 cefe d4bf
00000780: 0000 0060 3ad3 d4bf 0000 0000 59aa d4bf
00000790: 0000 0060 f684 d4bf 0000 00a0 0e69 d4bf
000007a0: 0000 0060 2356 d4bf 0000 0040 fb4e d4bf
000007b0: 0000 00e0 2f53 d4bf 0000 0080 b357 d4bf
000007c0: 0000 00c0 fb4f d4bf 0000 0000 663a d4bf
000007d0: 0000 00c0 ff19 d4bf 0000 0000 92f5 d3bf
000007e0: 0000 0000 1ad1 d3bf 0000 0020 dbb1 d3bf
000007f0: 0000 0000 269d d3bf 0000 0040 6194 d3bf
