data/mixamo/36_800_24/train/BIG_VEGAS/Weight_Shift/Weight_Shift.npy (npy, 82208 bytes, 1 tensors)

array f8 [15, 3, 228]
000000 00 00 00 60 fd c4 3c bf 00 00 00 60 fd c4 3c bf
       -0.00043898759759031236 -0.00043898759759031236
000010 00 00 00 60 6d 4d 59 bf 00 00 00 e0 00 06 69 bf
       -0.0015443390002474189 -0.0030546204652637243
000020 00 00 00 a0 bb 6c 72 bf 00 00 00 00 38 39 79 bf
       -0.004498227033764124 -0.00615808367729187
000030 00 00 00 c0 98 bd 80 bf 00 00 00 e0 85 73 85 bf
       -0.008174126967787743 -0.01047424878925085
000040 00 00 00 60 e7 9f 8a bf 00 00 00 60 8f a7 8f bf
       -0.0130003048107028 -0.015456314198672771
000050 00 00 00 80 78 f7 91 bf 00 00 00 a0 a1 f9 93 bf
       -0.017545588314533234 -0.01950695551931858
000060 00 00 00 e0 95 fd 95 bf 00 00 00 60 7f 08 98 bf
       -0.021475164219737053 -0.023469915613532066
000070 00 00 00 c0 30 07 9a bf 00 00 00 80 7c 08 9c bf
       -0.025418054312467575 -0.027376122772693634
000080 00 00 00 e0 6a 30 9e bf 00 00 00 80 d7 4b a0 bf
       -0.029481573030352592 -0.0318286269903183
000090 00 00 00 00 9f c4 a1 bf 00 00 00 e0 18 a0 a3 bf
       -0.034703224897384644 -0.038330819457769394
0000a0 00 00 00 00 30 ef a5 bf 00 00 00 00 e0 a1 a8 bf
       -0.04284048080444336 -0.048110008239746094
0000b0 00 00 00 c0 e8 95 ab bf 00 00 00 40 8a 80 ae bf
       -0.053878091275691986 -0.0595744326710701
0000c0 00 00 00 00 ee 92 b0 bf 00 00 00 20 a8 c2 b1 bf
       -0.06474196910858154 -0.06937647610902786
0000d0 00 00 00 40 d7 d9 b2 bf 00 00 00 00 83 de b3 bf
       -0.0736364871263504 -0.07761400938034058
0000e0 00 00 00 e0 02 ce b4 bf 00 00 00 a0 34 a5 b5 bf
       -0.08126848191022873 -0.0845520868897438
0000f0 00 00 00 e0 ea 59 b6 bf 00 00 00 e0 2a e8 b6 bf
       -0.08730953186750412 -0.08948009461164474
000100 00 00 00 a0 d9 4f b7 bf 00 00 00 60 79 99 b7 bf
       -0.09106216579675674 -0.09218557924032211
000110 00 00 00 80 dc c8 b7 bf 00 00 00 80 07 e1 b7 bf
       -0.09290865063667297 -0.09327742457389832
000120 00 00 00 40 f8 e2 b7 bf 00 00 00 a0 32 d7 b7 bf
       -0.09330703318119049 -0.09312740713357925
000130 00 00 00 20 57 ba b7 bf 00 00 00 20 1f 8d b7 bf
       -0.09268707782030106 -0.09199709445238113
000140 00 00 00 e0 a1 56 b7 bf 00 00 00 00 a6 1b b7 bf
       -0.09116565436124802 -0.09026563167572021
000150 00 00 00 20 54 dd b6 bf 00 00 00 a0 f1 9f b6 bf
       -0.08931470662355423 -0.08837804943323135
000160 00 00 00 a0 3b 69 b6 bf 00 00 00 c0 ef 3b b6 bf
       -0.08754322677850723 -0.0868520587682724
000170 00 00 00 80 8a 19 b6 bf 00 00 00 40 a8 01 b6 bf
       -0.08632722496986389 -0.08596278727054596
000180 00 00 00 e0 e2 f6 b5 bf 00 00 00 c0 50 f8 b5 bf
       -0.08579843491315842 -0.08582024276256561
000190 00 00 00 a0 77 04 b6 bf 00 00 00 40 35 18 b6 bf
       -0.08600566536188126 -0.08630688488483429
0001a0 00 00 00 00 16 32 b6 bf 00 00 00 c0 57 4f b6 bf
       -0.08670175075531006 -0.08714817464351654
0001b0 00 00 00 a0 7c 6e b6 bf 00 00 00 e0 3e 8c b6 bf
       -0.08762339502573013 -0.08807747811079025
0001c0 00 00 00 a0 7d a4 b6 bf 00 00 00 20 c5 b4 b6 bf
       -0.08844742923974991 -0.08869583159685135
0001d0 00 00 00 40 50 bd b6 bf 00 00 00 80 68 c1 b6 bf
       -0.08882619440555573 -0.08888867497444153
0001e0 00 00 00 e0 7d c1 b6 bf 00 00 00 60 8f bf b6 bf
       -0.0888899490237236 -0.08886047452688217
0001f0 00 00 00 60 07 bd b6 bf 00 00 00 60 f6 b8 b6 bf
       -0.08882185071706772 -0.08875980228185654
000200 00 00 00 60 e2 b2 b6 bf 00 00 00 a0 67 a9 b6 bf
       -0.08866705745458603 -0.08852241188287735
000210 00 00 00 20 f5 9a b6 bf 00 00 00 c0 43 89 b6 bf
       -0.08830196410417557 -0.08803199231624603
000220 00 00 00 a0 3f 73 b6 bf 00 00 00 20 10 57 b6 bf
       -0.08769605308771133 -0.0872659757733345
000230 00 00 00 00 c8 35 b6 bf 00 00 00 c0 82 11 b6 bf
       -0.08675813674926758 -0.08620469272136688
000240 00 00 00 80 50 ec b5 bf 00 00 00 80 97 c7 b5 bf
       -0.08563712239265442 -0.08507677912712097
000250 00 00 00 00 db a3 b5 bf 00 00 00 00 00 80 b5 bf
       -0.08453148603439331 -0.083984375
000260 00 00 00 c0 9e 5e b5 bf 00 00 00 80 9c 41 b5 bf
       -0.0834750384092331 -0.08303239941596985
000270 00 00 00 80 3b 28 b5 bf 00 00 00 40 89 0e b5 bf
       -0.08264514803886414 -0.08225305378437042
000280 00 00 00 e0 f2 f0 b4 bf 00 00 00 a0 a0 c8 b4 bf
       -0.08180158585309982 -0.08118633180856705
000290 00 00 00 c0 d7 8e b4 bf 00 00 00 40 28 44 b4 bf
       -0.08030460774898529 -0.07916499674320221
0002a0 00 00 00 20 2c e7 b3 bf 00 00 00 a0 44 73 b3 bf
       -0.07774616032838821 -0.07597760111093521
0002b0 00 00 00 00 62 e4 b2 bf 00 00 00 a0 c9 3d b2 bf
       -0.07379734516143799 -0.07125530391931534
0002c0 00 00 00 60 c2 7a b1 bf 00 00 00 40 62 9f b0 bf
       -0.06827940791845322 -0.06493200361728668
0002d0 00 00 00 e0 51 6b af bf 00 00 00 c0 60 75 ad bf
       -0.06136566027998924 -0.05753614753484726
0002e0 00 00 00 80 46 49 ab bf 00 00 00 40 8a dc a8 bf
       -0.05329342186450958 -0.0485575869679451
0002f0 00 00 00 60 75 53 a6 bf 00 00 00 40 15 dc a3 bf
       -0.043605487793684006 -0.03878847509622574
000300 00 00 00 e0 08 79 a1 bf 00 00 00 a0 12 88 9d bf
       -0.03412654623389244 -0.028839388862252235
000310 00 00 00 80 bc d9 97 bf 00 00 00 80 26 ff 91 bf
       -0.023291535675525665 -0.017574883997440338
000320 00 00 00 40 9a d7 87 bf 00 00 00 80 cc 90 77 bf
       -0.011641697958111763 -0.0057533252984285355
000330 00 00 00 60 3d d5 3e 3f 00 00 00 00 2f 96 7b 3f
       0.00047047375119291246 0.006735023111104965
000340 00 00 00 80 9f 54 8c 3f 00 00 00 c0 28 8f 95 3f
       0.01383328065276146 0.021053921431303024
000350 00 00 00 60 12 ff 9c 3f 00 00 00 60 38 29 a2 3f
       0.028316771611571312 0.035470735281705856
000360 00 00 00 20 bc b2 a5 3f 00 00 00 40 12 1a a9 3f
       0.042379263788461685 0.049027033150196075
000370 00 00 00 c0 0b 5e ac 3f 00 00 00 40 6e 73 af 3f
       0.055405013263225555 0.06142754107713699
000380 00 00 00 40 b4 3d b1 3f 00 00 00 60 5b ce b2 3f
       0.06734777987003326 0.07346125692129135
000390 00 00 00 40 0c 81 b4 3f 00 00 00 00 e4 3d b6 3f
       0.080094113945961 0.08688187599182129
0003a0 00 00 00 e0 fe e5 b7 3f 00 00 00 60 8e 69 b9 3f
       0.09335320442914963 0.0992669090628624
0003b0 00 00 00 60 33 c9 ba 3f 00 00 00 80 a2 08 bc 3f
       0.10463257879018784 0.109506756067276
0003c0 00 00 00 20 8b 1b bd 3f 00 00 00 e0 80 01 be 3f
       0.11370152980089188 0.11721044033765793
0003d0 00 00 00 20 7c b9 be 3f 00 00 00 60 d7 46 bf 3f
       0.12001777440309525 0.1221747025847435
0003e0 00 00 00 a0 32 a6 bf 3f 00 00 00 80 91 db bf 3f
       0.12362972646951675 0.12444409728050232
0003f0 00 00 00 20 71 e7 bf 3f 00 00 00 40 1e d6 bf 3f
       0.12462527304887772 0.12436093389987946
000400 00 00 00 a0 22 af bf 3f 00 00 00 a0 23 79 bf 3f
       0.12376610189676285 0.12294218689203262
000410 00 00 00 60 cb 3a bf 3f 00 00 00 a0 d8 fd be 3f
       0.1219908818602562 0.12106088548898697
000420 00 00 00 20 d4 c3 be 3f 00 00 00 40 d8 89 be 3f
       0.12017560750246048 0.11929084360599518
000430 00 00 00 e0 02 54 be 3f 00 00 00 00 3f 26 be 3f
       0.11846940964460373 0.11777108907699585
000440 00 00 00 60 31 02 be 3f 00 00 00 c0 e1 e6 bd 3f
       0.11722096055746078 0.11680422723293304
000450 00 00 00 a0 96 d3 bd 3f 00 00 00 40 56 c6 bd 3f
       0.1165098324418068 0.11630763113498688
000460 00 00 00 c0 34 c1 bd 3f 00 00 00 80 b7 c3 bd 3f
       0.1162293404340744 0.11626765131950378
000470 00 00 00 20 1c ce bd 3f 00 00 00 00 26 df bd 3f
       0.11642623692750931 0.11668622493743896
000480 00 00 00 c0 eb f6 bd 3f 00 00 00 00 52 11 be 3f
       0.1170489639043808 0.11745178699493408
000490 00 00 00 00 18 2a be 3f 00 00 00 00 76 3f be 3f
       0.11782979965209961 0.118155837059021
0004a0 00 00 00 e0 48 53 be 3f 00 00 00 40 8c 65 be 3f
       0.1184583231806755 0.11873699724674225
0004b0 00 00 00 a0 97 72 be 3f 00 00 00 80 61 77 be 3f
       0.11893603950738907 0.1190091073513031
0004c0 00 00 00 e0 ad 74 be 3f 00 00 00 a0 fc 6d be 3f
       0.11896788328886032 0.11886576563119888
0004d0 00 00 00 60 92 62 be 3f 00 00 00 e0 e9 50 be 3f
       0.118691585958004 0.11842214316129684
0004e0 00 00 00 a0 7c 39 be 3f 00 00 00 00 db 20 be 3f
       0.11806467920541763 0.11768883466720581
0004f0 00 00 00 a0 1a 0a be 3f 00 00 00 00 ef f5 bd 3f
       0.11734167486429214 0.11703389883041382
000500 00 00 00 a0 d8 e5 bd 3f 00 00 00 80 0b d7 bd 3f
       0.11678842455148697 0.11656257510185242
000510 00 00 00 e0 28 c4 bd 3f 00 00 00 80 f6 a8 bd 3f
       0.1162744089961052 0.11585941910743713
000520 00 00 00 80 5f 86 bd 3f 00 00 00 a0 f2 5d bd 3f
       0.11533161997795105 0.11471477895975113
000530 00 00 00 e0 be 31 bd 3f 00 00 00 20 1d fd bc 3f
       0.114040307700634 0.11323720961809158
000540 00 00 00 20 40 ba bc 3f 00 00 00 c0 e5 64 bc 3f
       0.11221695691347122 0.11091457307338715
000550 00 00 00 c0 3d 00 bc 3f 00 00 00 60 f1 8f bb 3f
       0.10937868058681488 0.10766514390707016
000560 00 00 00 80 c5 16 bb 3f 00 00 00 80 f9 8c ba 3f
       0.10581621527671814 0.10371360182762146
000570 00 00 00 40 78 eb b9 3f 00 00 00 a0 33 2c b9 3f
       0.10124923288822174 0.09833071380853653
000580 00 00 00 a0 15 46 b8 3f 00 00 00 a0 4c 3a b7 3f
       0.09481940418481827 0.09073332697153091
000590 00 00 00 20 d3 0b b6 3f 00 00 00 00 44 c0 b4 3f
       0.0861179307103157 0.08105874061584473
0005a0 00 00 00 00 f6 57 b3 3f 00 00 00 20 88 dc b1 3f
       0.07556092739105225 0.06977129727602005
0005b0 00 00 00 80 4c 53 b0 3f 00 00 00 00 58 83 ad 3f
       0.06377103924751282 0.05764269828796387
0005c0 00 00 00 80 f7 4e aa 3f 00 00 00 20 2f 0d a7 3f
       0.051383718848228455 0.04502246156334877
0005d0 00 00 00 20 bb cd a3 3f 00 00 00 40 f6 54 9f 3f
       0.03867897763848305 0.030597541481256485
0005e0 00 00 00 80 72 d7 96 3f 00 00 00 a0 68 e3 8c 3f
       0.02230624109506607 0.01410562265664339
0005f0 00 00 00 80 f7 75 78 3f 00 00 00 40 51 13 5e bf
       0.005971876904368401 -0.0018356603104621172
000600 00 00 00 40 fc dd 82 bf 00 00 00 80 24 83 90 bf
       -0.009212465956807137 -0.01612526923418045
000610 00 00 00 60 b7 20 97 bf 00 00 00 40 b5 19 9d bf
       -0.022585740312933922 -0.02841838076710701
000620 00 00 00 60 70 48 a1 bf 00 00 00 20 0f bb a3 bf
       -0.03375579044222832 -0.038536522537469864
000630 00 00 00 00 13 cd a5 bf 00 00 00 c0 50 75 a7 bf
       -0.042580217123031616 -0.045816920697689056
000640 00 00 00 c0 04 cb a8 bf 00 00 00 80 09 ca a9 bf
       -0.04842390865087509 -0.05036954581737518
000650 00 00 00 c0 63 5f aa bf 00 00 00 e0 b5 84 aa bf
       -0.05150901526212692 -0.05179375037550926
000660 00 00 00 60 b1 46 aa bf 00 00 00 00 04 b9 a9 bf
       -0.05132059380412102 -0.0502396821975708
000670 00 00 00 20 c5 db a8 bf 00 00 00 20 41 bd a7 bf
       -0.048551712185144424 -0.04636577144265175
000680 00 00 00 80 7a 66 a6 bf 00 00 00 40 b9 e5 a4 bf
       -0.04375059902667999 -0.04081515222787857
000690 00 00 00 00 52 40 a3 bf 00 00 00 60 c5 84 a1 bf
       -0.03760010004043579 -0.03421608731150627
0006a0 00 00 00 40 f2 78 9f bf 00 00 00 40 42 e4 9b bf
       -0.03073481097817421 -0.027237925678491592
0006b0 00 00 00 80 fc 6a 98 bf 00 00 00 a0 14 29 95 bf
       -0.023845620453357697 -0.020664522424340248
0006c0 00 00 00 40 1a 29 92 bf 00 00 00 e0 f0 d3 8e bf
       -0.017734918743371964 -0.015052682720124722
0006d0 00 00 00 c0 85 d7 89 bf 00 00 00 60 f2 51 85 bf
       -0.012618107721209526 -0.010410207323729992
0006e0 00 00 00 c0 0b 3a 81 bf 00 00 00 00 c0 23 7b bf
       -0.008411495015025139 -0.0066258907318115234
0006f0 00 00 00 40 21 b2 74 bf 00 00 00 80 9a 36 6e bf
       -0.005052690394222736 -0.003688146360218525
000700 00 00 00 60 ad c3 64 bf 00 00 00 c0 e5 1e 5a bf
       -0.0025347124319523573 -0.0015942805912345648
000710 00 00 00 40 81 91 4d bf 00 00 00 40 78 c4 3c bf
       -0.0009023552993312478 -0.00043895660201087594
000720 00 00 00 a0 4f ef a2 3f 00 00 00 a0 4f ef a2 3f
       0.03698204830288887 0.03698204830288887
000730 00 00 00 a0 91 c5 a2 3f 00 00 00 60 5f be a2 3f
       0.03666358068585396 0.036608677357435226
000740 00 00 00 20 a0 dc a2 3f 00 00 00 e0 ac 0b a3 3f
       0.03683948889374733 0.03719845041632652
000750 00 00 00 80 74 42 a3 3f 00 00 00 c0 67 85 a3 3f
       0.037616387009620667 0.03812717646360397
000760 00 00 00 20 f3 ec a3 3f 00 00 00 e0 10 98 a4 3f
       0.03891715779900551 0.04022267088294029
000770 00 00 00 00 56 63 a5 3f 00 00 00 e0 96 3c a6 3f
       0.04177349805831909 0.043431010097265244
000780 00 00 00 80 ee 15 a7 3f 00 00 00 c0 84 eb a7 3f
       0.045089200139045715 0.04671873897314072
000790 00 00 00 20 bb bb a8 3f 00 00 00 60 e0 82 a9 3f
       0.04830727353692055 0.04982663318514824
0007a0 00 00 00 20 cf 3a aa 3f 00 00 00 a0 4a de aa 3f
       0.05122992768883705 0.05247719958424568
0007b0 00 00 00 40 8d 65 ab 3f 00 00 00 40 f5 e5 ab 3f
       0.05350915342569351 0.05448881536722183
0007c0 00 00 00 40 04 7e ac 3f 00 00 00 a0 fe 27 ad 3f
       0.05564893037080765 0.05694575980305672
0007d0 00 00 00 20 6a cd ad 3f 00 00 00 80 76 58 ae 3f
       0.058207813650369644 0.05926866829395294
0007e0 00 00 00 00 24 c8 ae 3f 00 00 00 60 72 1c af 3f
       0.06012070178985596 0.06076390668749809
0007f0 00 00 00 c0 75 4f af 3f 00 00 00 a0 87 61 af 3f
       0.0611531063914299 0.06129096820950508
