data/mixamo/36_800_24/train/KAYA/Weight_Shift/Weight_Shift.npy (npy, 82208 bytes, 1 tensors)

array f8 [15, 3, 228]
00000000: 0000 0020 3d98 51bf 0000 0020 3d98 51bf
00000010: 0000 0080 ca16 60bf 0000 00a0 e416 6abf
00000020: 0000 0040 bef3 71bf 0000 0060 d6a1 77bf
00000030: 0000 0060 f774 7ebf 0000 0020 5314 83bf
00000040: 0000 00a0 893e 87bf 0000 0000 5634 8bbf
00000050: 0000 0020 437e 8ebf 0000 00e0 a5be 90bf
00000060: 0000 0060 8938 92bf 0000 00e0 dda9 93bf
00000070: 0000 00a0 01f6 94bf 0000 00e0 202d 96bf
00000080: 0000 0020 3469 97bf 0000 0080 eabb 98bf
00000090: 0000 00a0 2a6b 9abf 0000 0060 91c0 9cbf
000000a0: 0000 0040 4408 a0bf 0000 0020 6f24 a2bf
000000b0: 0000 00e0 bcaa a4bf 0000 0040 5063 a7bf
000000c0: 0000 0080 7216 aabf 0000 0080 b6a2 acbf
000000d0: 0000 0040 81fa aebf 0000 00c0 9e8d b0bf
000000e0: 0000 0040 3b7f b1bf 0000 0040 2f54 b2bf
000000f0: 0000 00e0 0008 b3bf 0000 0080 079c b3bf
00000100: 0000 00e0 c410 b4bf 0000 0000 8a6a b4bf
00000110: 0000 0040 d0a7 b4bf 0000 00e0 cac7 b4bf
00000120: 0000 0000 48cb b4bf 0000 0020 d0bd b4bf
00000130: 0000 00e0 109c b4bf 0000 0000 9566 b4bf
00000140: 0000 0040 3425 b4bf 0000 0060 0dde b3bf
00000150: 0000 0060 8992 b3bf 0000 0060 f946 b3bf
00000160: 0000 00e0 0802 b3bf 0000 00a0 0dc8 b2bf
00000170: 0000 0000 579c b2bf 0000 00e0 c27e b2bf
00000180: 0000 00c0 ac71 b2bf 0000 0000 7a73 b2bf
00000190: 0000 0080 c882 b2bf 0000 0040 bf9b b2bf
000001a0: 0000 0060 cbbb b2bf 0000 0080 ebde b2bf
000001b0: 0000 0040 2e03 b3bf 0000 0080 d225 b3bf
000001c0: 0000 0080 7e43 b3bf 0000 00a0 9359 b3bf
000001d0: 0000 00e0 7c67 b3bf 0000 0060 7a70 b3bf
000001e0: 0000 0040 4276 b3bf 0000 0040 0e7c b3bf
000001f0: 0000 0040 2e83 b3bf 0000 00a0 db88 b3bf
00000200: 0000 00c0 d48a b3bf 0000 0000 3087 b3bf
00000210: 0000 0000 947c b3bf 0000 0060 b46d b3bf
00000220: 0000 00e0 8f59 b3bf 0000 00e0 653e b3bf
00000230: 0000 00e0 a91d b3bf 0000 0020 b2f9 b2bf
00000240: 0000 00a0 05d5 b2bf 0000 00a0 0fb2 b2bf
00000250: 0000 00c0 0b92 b2bf 0000 0040 1674 b2bf
00000260: 0000 00a0 c25b b2bf 0000 0040 bf4b b2bf
00000270: 0000 0040 2c43 b2bf 0000 0060 4b3e b2bf
00000280: 0000 00a0 d33a b2bf 0000 0060 a830 b2bf
00000290: 0000 0080 9016 b2bf 0000 0060 68eb b1bf
000002a0: 0000 0040 00ad b1bf 0000 0020 a157 b1bf
000002b0: 0000 0060 8de8 b0bf 0000 0060 bd64 b0bf
000002c0: 0000 0020 8f8e afbf 0000 0020 2329 aebf
000002d0: 0000 00c0 4bae acbf 0000 00a0 2f15 abbf
000002e0: 0000 00a0 364f a9bf 0000 00c0 9357 a7bf
000002f0: 0000 0080 4448 a5bf 0000 0060 6b3b a3bf
00000300: 0000 00a0 b52d a1bf 0000 0060 6eaa 9dbf
00000310: 0000 0000 2fa9 98bf 0000 0080 4c84 93bf
00000320: 0000 00a0 5f59 8cbf 0000 0060 49e5 81bf
00000330: 0000 00c0 f1e6 6bbf 0000 00c0 7b3b 5d3f
00000340: 0000 0000 2eb1 7e3f 0000 00e0 b61b 8b3f
00000350: 0000 0080 3763 933f 0000 00e0 c8fe 983f
00000360: 0000 00e0 1635 9e3f 0000 00c0 d686 a13f
00000370: 0000 0080 41c5 a33f 0000 0040 04db a53f
00000380: 0000 0000 98ef a73f 0000 0060 154b aa3f
00000390: 0000 00e0 3e2a ad3f 0000 00e0 ef2a b03f
000003a0: 0000 0040 86c1 b13f 0000 00a0 b241 b33f
000003b0: 0000 0000 76a2 b43f 0000 00e0 e5de b53f
000003c0: 0000 0060 1aed b63f 0000 0000 cace b73f
000003d0: 0000 0060 1589 b83f 0000 00c0 6923 b93f
000003e0: 0000 0080 c897 b93f 0000 0000 ebe0 b93f
000003f0: 0000 00c0 05fa b93f 0000 0080 ccef b93f
00000400: 0000 0000 33cd b93f 0000 0080 ed9a b93f
00000410: 0000 0000 965f b93f 0000 0000 3a26 b93f
00000420: 0000 0060 feef b83f 0000 0020 fcb7 b83f
00000430: 0000 00c0 5080 b83f 0000 0080 8f4c b83f
00000440: 0000 00a0 c91e b83f 0000 0080 c8f7 b73f
00000450: 0000 00c0 37d7 b73f 0000 0020 0dbb b73f
00000460: 0000 00e0 c2a5 b73f 0000 0060 fb98 b73f
00000470: 0000 00a0 d796 b73f 0000 00c0 1f9e b73f
00000480: 0000 0040 66ae b73f 0000 0080 fbc2 b73f
00000490: 0000 0060 72d6 b73f 0000 0020 31e6 b73f
000004a0: 0000 0020 33f5 b73f 0000 0060 8e05 b83f
000004b0: 0000 0020 4814 b83f 0000 0000 2e1c b83f
000004c0: 0000 0080 cb1b b83f 0000 0080 8816 b83f
000004d0: 0000 0080 ae0c b83f 0000 00e0 cefc b73f
000004e0: 0000 00c0 67e6 b73f 0000 00a0 41cd b73f
000004f0: 0000 0000 bfb4 b73f 0000 00c0 1b9f b73f
00000500: 0000 0000 538f b73f 0000 0020 6b83 b73f
00000510: 0000 0020 7076 b73f 0000 0020 dd63 b73f
00000520: 0000 0060 2f4c b73f 0000 00e0 7932 b73f
00000530: 0000 0000 341b b73f 0000 0060 4f02 b73f
00000540: 0000 00c0 b4e0 b63f 0000 0060 0eb1 b63f
00000550: 0000 0040 7576 b63f 0000 00a0 a536 b63f
00000560: 0000 0000 54f6 b53f 0000 0000 43ae b53f
00000570: 0000 0040 b055 b53f 0000 0040 25e6 b43f
00000580: 0000 0080 3555 b43f 0000 0020 29a2 b33f
00000590: 0000 0060 4bcc b23f 0000 0040 eed4 b13f
000005a0: 0000 0040 10ba b03f 0000 0040 510d af3f
000005b0: 0000 0080 7089 ac3f 0000 0060 92f2 a93f
000005c0: 0000 00c0 5c49 a73f 0000 0080 4c93 a43f
000005d0: 0000 0000 bedb a13f 0000 00e0 50f8 9c3f
000005e0: 0000 00c0 111d 963f 0000 0000 bea4 8e3f
000005f0: 0000 0060 d916 813f 0000 0080 2f58 603f
00000600: 0000 00e0 0146 70bf 0000 0040 a0bb 83bf
00000610: 0000 00c0 88c3 8ebf 0000 0060 1f7d 94bf
00000620: 0000 0080 4827 99bf 0000 00a0 eb61 9dbf
00000630: 0000 0000 3885 a0bf 0000 00c0 c807 a2bf
00000640: 0000 00e0 cd55 a3bf 0000 0060 de64 a4bf
00000650: 0000 00a0 681c a5bf 0000 0060 8f71 a5bf
00000660: 0000 0000 f46d a5bf 0000 0000 9624 a5bf
00000670: 0000 0080 b795 a4bf 0000 00e0 c1cb a3bf
00000680: 0000 0080 00cc a2bf 0000 0060 43a4 a1bf
00000690: 0000 00e0 b958 a0bf 0000 0040 b8e9 9dbf
000006a0: 0000 0040 ad04 9bbf 0000 0000 881b 98bf
000006b0: 0000 0080 1b4c 95bf 0000 00c0 6cad 92bf
000006c0: 0000 0040 2145 90bf 0000 00a0 f71a 8cbf
000006d0: 0000 0080 5c0c 88bf 0000 0040 4a59 84bf
000006e0: 0000 00e0 48f9 80bf 0000 0080 14d2 7bbf
000006f0: 0000 0020 dc42 76bf 0000 0020 693d 71bf
00000700: 0000 0060 a695 69bf 0000 00c0 ee18 62bf
00000710: 0000 00e0 6613 59bf 0000 00c0 2e98 51bf
00000720: 0000 00e0 94ce 8bbf 0000 00e0 94ce 8bbf
00000730: 0000 00c0 c076 8cbf 0000 0060 9673 8cbf
00000740: 0000 00e0 8cc1 8bbf 0000 0020 36c6 8abf
00000750: 0000 00a0 84aa 89bf 0000 0060 0954 88bf
00000760: 0000 00a0 1355 86bf 0000 0000 d72f 83bf
00000770: 0000 0000 b313 7fbf 0000 00a0 7272 77bf
00000780: 0000 0040 b7e5 6fbf 0000 00c0 9c93 61bf
00000790: 0000 00c0 6c08 41bf 0000 0080 3df2 4c3f
000007a0: 0000 0000 3f3b 603f 0000 0080 f692 663f
000007b0: 0000 00c0 374b 6a3f 0000 00a0 1ba3 6d3f
000007c0: 0000 0000 a114 723f 0000 0080 6406 773f
000007d0: 0000 00c0 76d7 7c3f 0000 0040 8e36 813f
000007e0: 0000 0080 79a3 833f 0000 0080 0d74 853f
000007f0: 0000 0020 c274 863f 0000 00a0 e9c3 863f
-0.0010738942073658109 -0.0010738942073658109 -0.001963992603123188 -0.0031847443897277117 -0.004382842220366001 -0.005769574549049139 -0.007435766514390707 -0.00931611005216837
-0.011349749751389027 -0.013283416628837585 -0.014889263547956944 -0.01635226421058178 -0.017793795093894005 -0.01920267753303051 -0.02046968974173069 -0.021656526252627373
-0.022862257435917854 -0.024154342710971832 -0.025799432769417763 -0.028078338131308556 -0.03131306916475296 -0.03543421998620033 -0.040365125983953476 -0.04567957669496536
-0.05095250904560089 -0.055928900837898254 -0.06050495058298111 -0.0646609514951706 -0.06834764778614044 -0.07159705460071564 -0.07434087246656418 -0.07659956812858582
-0.07838087528944016 -0.079750657081604 -0.08068563044071198 -0.08117359131574631 -0.08122682571411133 -0.08102131634950638 -0.08050637692213058 -0.07969027757644653
-0.07869268953800201 -0.07760699838399887 -0.07645472139120102 -0.07530172914266586 -0.07424979656934738 -0.07336506992578506 -0.07269805669784546 -0.0722467228770256
-0.07204703986644745 -0.0720745325088501 -0.07230809330940247 -0.0726890116930008 -0.0731780156493187 -0.0737139880657196 -0.07426728308200836 -0.07479587197303772
-0.07524862885475159 -0.07558558136224747 -0.07579784840345383 -0.07593502849340439 -0.07602323591709137 -0.07611168920993805 -0.07622040808200836 -0.0763070359826088
-0.07633714377880096 -0.07628154754638672 -0.07611966133117676 -0.07589270919561386 -0.07558535784482956 -0.07517086714506149 -0.07467138022184372 -0.07412255555391312
-0.07356295734643936 -0.07302949577569962 -0.07254098355770111 -0.07208384573459625 -0.07171265035867691 -0.0714683085680008 -0.07133747637271881 -0.07126303762197495
-0.07121012359857559 -0.07105495780706406 -0.07065680623054504 -0.06999828666448593 -0.0690460354089737 -0.06774336844682693 -0.06604846566915512 -0.06403716653585434
-0.06163451448082924 -0.05890760198235512 -0.05601727217435837 -0.052896011620759964 -0.04943247511982918 -0.04559003561735153 -0.04156698286533356 -0.03756270930171013
-0.033551860600709915 -0.02897045575082302 -0.024082884192466736 -0.01905936747789383 -0.013842341490089893 -0.008738110773265362 -0.0034060212783515453 0.0017842014785856009
0.0074931904673576355 0.0132364546880126 0.018933169543743134 0.024409426376223564 0.029499394819140434 0.03423186391592026 0.038614317774772644 0.0426865890622139
0.04674983024597168 0.05135409161448479 0.056962933391332626 0.0631551668047905 0.0693591982126236 0.0752212181687355 0.0806039571762085 0.08543240278959274
0.08955540508031845 0.09299910068511963 0.09584172815084457 0.0981966108083725 0.09997227787971497 0.10108822584152222 0.10147128999233246 0.10131528973579407
0.10078734159469604 0.10002025961875916 0.09911477565765381 0.09823954105377197 0.09741201251745224 0.0965573862195015 0.09570793807506561 0.09491822123527527
0.09421978145837784 0.09362462162971497 0.09312771260738373 0.09269792586565018 0.0923730656504631 0.09217806905508041 0.0921454206109047 0.09225653111934662
0.09250487387180328 0.09281894564628601 0.09311594814062119 0.09335619956254959 0.09358520060777664 0.0938347801566124 0.09405947476625443 0.09417998790740967
0.09417411684989929 0.09409382939338684 0.0939435064792633 0.09370129555463791 0.09335945546627045 0.09297571331262589 0.0926017165184021 0.09227155148983002
0.09203070402145386 0.09184903651475906 0.09165097028017044 0.09136755019426346 0.09100624173879623 0.090613953769207 0.09025883674621582 0.08987899869680405
0.08936624228954315 0.08863916248083115 0.08774502575397491 0.08677134662866592 0.08578991889953613 0.08469027280807495 0.08333875238895416 0.08163674175739288
0.07942518591880798 0.07669312506914139 0.07342978566884995 0.06965531408786774 0.0653391033411026 0.06064847856760025 0.055736079812049866 0.050678800791502
0.04548158496618271 0.04018630087375641 0.03487962484359741 0.028291000053286552 0.021595265716314316 0.014962658286094666 0.008344362489879131 0.0019951751455664635
-0.003973014187067747 -0.009635211899876595 -0.015021389350295067 -0.020008554682135582 -0.02456391602754593 -0.028693849220871925 -0.03226637840270996 -0.03521563857793808
-0.03776400908827782 -0.039832066744565964 -0.04123236611485481 -0.041882019490003586 -0.04185450077056885 -0.041294753551483154 -0.04020474851131439 -0.038663920015096664
-0.036712661385536194 -0.03445635363459587 -0.03192692622542381 -0.02921188250184059 -0.026385027915239334 -0.02354252338409424 -0.02079813927412033 -0.018239688128232956
-0.01588870957493782 -0.013723311014473438 -0.011742327362298965 -0.009935932233929634 -0.008287972770631313 -0.006792144849896431 -0.005434856284409761 -0.004208956379443407
-0.003123116446658969 -0.002209154423326254 -0.0015305046690627933 -0.0010738808196038008 -0.013577616773545742 -0.013577616773545742 -0.013898378238081932 -0.0138923404738307
-0.013552761636674404 -0.013073370791971684 -0.012532268650829792 -0.011879037134349346 -0.010904458351433277 -0.009368591010570526 -0.007587146013975143 -0.005724380258470774
-0.003893716726452112 -0.0021455823443830013 -0.000519803143106401 0.0008833694737404585 0.001981375738978386 0.0027556242421269417 0.003209694754332304 0.003617814974859357
0.004414204508066177 0.005621330812573433 0.007041419856250286 0.008404837921261787 0.009589146822690964 0.010475259274244308 0.010964886285364628 0.011115861125290394
