data/mixamo/36_800_24/train/MALCOM/Weight_Shift/Weight_Shift.npy (npy, 82208 bytes, 1 tensors)

array f8 [15, 3, 228]
00000000: 0000 0060 9b6c 85bf 0000 0060 9b6c 85bf
00000010: 0000 00a0 ac7d 8abf 0000 0060 74a8 90bf
00000020: 0000 00a0 62dd 93bf 0000 00a0 377d 97bf
00000030: 0000 0080 98ea 9bbf 0000 0020 fe87 a0bf
00000040: 0000 0000 925e a3bf 0000 0060 5f0d a6bf
00000050: 0000 0040 8043 a8bf 0000 00a0 fe48 aabf
00000060: 0000 0060 ad53 acbf 0000 0080 2d6f aebf
00000070: 0000 0080 ca40 b0bf 0000 0080 364f b1bf
00000080: 0000 00c0 7371 b2bf 0000 0040 e2aa b3bf
00000090: 0000 0060 c211 b5bf 0000 00c0 50bd b6bf
000000a0: 0000 00a0 0fca b8bf 0000 00a0 db2e bbbf
000000b0: 0000 0000 aaeb bdbf 0000 0020 f16a c0bf
000000c0: 0000 0000 d0dd c1bf 0000 00c0 353d c3bf
000000d0: 0000 0080 d680 c4bf 0000 0080 a8a5 c5bf
000000e0: 0000 0040 b5a5 c6bf 0000 0040 e881 c7bf
000000f0: 0000 00e0 f237 c8bf 0000 0000 28cd c8bf
00000100: 0000 00a0 0744 c9bf 0000 00a0 97a0 c9bf
00000110: 0000 00a0 97e0 c9bf 0000 00a0 7802 cabf
00000120: 0000 0040 b807 cabf 0000 00a0 dbfc c9bf
00000130: 0000 0040 64df c9bf 0000 0060 c1ae c9bf
00000140: 0000 00e0 3d71 c9bf 0000 0000 062d c9bf
00000150: 0000 0000 9ce4 c8bf 0000 0060 899c c8bf
00000160: 0000 00a0 9759 c8bf 0000 0040 821f c8bf
00000170: 0000 00a0 19f3 c7bf 0000 0040 e9d4 c7bf
00000180: 0000 00e0 49c6 c7bf 0000 00c0 7dc5 c7bf
00000190: 0000 00a0 25d2 c7bf 0000 00e0 0ae9 c7bf
000001a0: 0000 00a0 8007 c8bf 0000 0000 eb28 c8bf
000001b0: 0000 00c0 434b c8bf 0000 00c0 786c c8bf
000001c0: 0000 00c0 8c89 c8bf 0000 00a0 779f c8bf
000001d0: 0000 00c0 ccac c8bf 0000 0040 15b4 c8bf
000001e0: 0000 00c0 04b7 c8bf 0000 0040 22b9 c8bf
000001f0: 0000 0080 07bc c8bf 0000 00c0 88bd c8bf
00000200: 0000 0080 80bb c8bf 0000 00e0 feb3 c8bf
00000210: 0000 00a0 09a6 c8bf 0000 0000 f793 c8bf
00000220: 0000 0040 857c c8bf 0000 0040 805e c8bf
00000230: 0000 0000 363b c8bf 0000 0000 d313 c8bf
00000240: 0000 0000 4eea c7bf 0000 00c0 e1c0 c7bf
00000250: 0000 0000 4098 c7bf 0000 00e0 866f c7bf
00000260: 0000 00e0 9249 c7bf 0000 00c0 1129 c7bf
00000270: 0000 0040 fe0d c7bf 0000 0080 abf4 c6bf
00000280: 0000 00c0 c0da c6bf 0000 00e0 40b9 c6bf
00000290: 0000 0080 dc87 c6bf 0000 0080 d643 c6bf
000002a0: 0000 00c0 85e9 c5bf 0000 00a0 a575 c5bf
000002b0: 0000 0040 b4e7 c4bf 0000 0040 7544 c4bf
000002c0: 0000 00e0 ba85 c3bf 0000 00c0 4aab c2bf
000002d0: 0000 0020 dfba c1bf 0000 00e0 61b3 c0bf
000002e0: 0000 0060 ad1f bfbf 0000 0000 78a7 bcbf
000002f0: 0000 0020 4819 babf 0000 0060 ca82 b7bf
00000300: 0000 0040 04dd b4bf 0000 0020 e7d1 b1bf
00000310: 0000 0040 a221 adbf 0000 00a0 c65f a6bf
00000320: 0000 0040 42a8 9ebf 0000 00c0 6e85 90bf
00000330: 0000 00c0 8c44 5fbf 0000 00e0 a8ec 883f
00000340: 0000 00e0 9073 9c3f 0000 0020 5543 a63f
00000350: 0000 00a0 723b ae3f 0000 0080 3801 b33f
00000360: 0000 0060 ceba b63f 0000 0020 d04e ba3f
00000370: 0000 0080 95b9 bd3f 0000 0040 7d77 c03f
00000380: 0000 0000 86fc c13f 0000 0000 9d84 c33f
00000390: 0000 0080 6e2e c53f 0000 0040 c9ec c63f
000003a0: 0000 0080 f4a6 c83f 0000 0020 fb4a ca3f
000003b0: 0000 00c0 14d0 cb3f 0000 00e0 ae2f cd3f
000003c0: 0000 0000 f05c ce3f 0000 00c0 e554 cf3f
000003d0: 0000 0040 680d d03f 0000 0080 515e d03f
000003e0: 0000 0020 ef9d d03f 0000 0020 3fca d03f
000003f0: 0000 0020 e2de d03f 0000 0020 77e0 d03f
00000400: 0000 00a0 f5d3 d03f 0000 0020 11bf d03f
00000410: 0000 0020 d7a6 d03f 0000 0000 9a90 d03f
00000420: 0000 00e0 217c d03f 0000 00a0 8366 d03f
00000430: 0000 0020 b850 d03f 0000 0000 943c d03f
00000440: 0000 00e0 342b d03f 0000 0080 051d d03f
00000450: 0000 0040 1a12 d03f 0000 0040 8d09 d03f
00000460: 0000 0000 f303 d03f 0000 0040 5601 d03f
00000470: 0000 0000 a402 d03f 0000 0040 bc07 d03f
00000480: 0000 0000 c010 d03f 0000 0040 441b d03f
00000490: 0000 0040 7324 d03f 0000 00e0 022b d03f
000004a0: 0000 0000 df30 d03f 0000 00a0 ba37 d03f
000004b0: 0000 00a0 1d3e d03f 0000 0000 e240 d03f
000004c0: 0000 0040 f03e d03f 0000 0000 423a d03f
000004d0: 0000 0020 7d33 d03f 0000 00c0 2d2a d03f
000004e0: 0000 0020 fb1d d03f 0000 00e0 3510 d03f
000004f0: 0000 0040 ed01 d03f 0000 00a0 63e8 cf3f
00000500: 0000 0060 71d1 cf3f 0000 00a0 bbbc cf3f
00000510: 0000 00c0 eda4 cf3f 0000 00a0 8a84 cf3f
00000520: 0000 00c0 fc59 cf3f 0000 0020 a726 cf3f
00000530: 0000 00a0 b0ed ce3f 0000 0060 99ab ce3f
00000540: 0000 00a0 b65a ce3f 0000 00e0 82f5 cd3f
00000550: 0000 00c0 5b7c cd3f 0000 0040 e6f2 cc3f
00000560: 0000 00c0 a45e cc3f 0000 00c0 ddb9 cb3f
00000570: 0000 0020 43fb ca3f 0000 0020 4c1e ca3f
00000580: 0000 0040 c41b c93f 0000 0020 58f4 c73f
00000590: 0000 0060 75a6 c63f 0000 0020 db32 c53f
000005a0: 0000 00a0 e99a c33f 0000 0000 2eed c13f
000005b0: 0000 00e0 5d34 c03f 0000 0080 01eb bc3f
000005c0: 0000 00e0 4662 b93f 0000 0020 abd2 b53f
000005d0: 0000 0040 b347 b23f 0000 0020 d586 ab3f
000005e0: 0000 0060 6158 a23f 0000 0060 4bac 923f
000005f0: 0000 0080 5632 4e3f 0000 00a0 c894 8fbf
00000600: 0000 0040 953c 9fbf 0000 0000 ded1 a6bf
00000610: 0000 00c0 918e adbf 0000 00a0 ffd8 b1bf
00000620: 0000 0040 8e97 b4bf 0000 00a0 bd04 b7bf
00000630: 0000 0020 610f b9bf 0000 0040 c1b3 babf
00000640: 0000 0020 14fb bbbf 0000 0040 42e6 bcbf
00000650: 0000 0060 9f67 bdbf 0000 00a0 7f7d bdbf
00000660: 0000 00c0 5033 bdbf 0000 0080 ea9b bcbf
00000670: 0000 0020 9bb7 bbbf 0000 0020 cd90 babf
00000680: 0000 0060 232e b9bf 0000 0020 95a1 b7bf
00000690: 0000 0040 46f4 b5bf 0000 0000 d433 b4bf
000006a0: 0000 0060 b169 b2bf 0000 00c0 5da1 b0bf
000006b0: 0000 0040 18cf adbf 0000 0040 c48c aabf
000006c0: 0000 00c0 5583 a7bf 0000 00c0 e4b2 a4bf
000006d0: 0000 0060 a622 a2bf 0000 0060 3ead 9fbf
000006e0: 0000 0020 3397 9bbf 0000 0080 cff0 97bf
000006f0: 0000 0040 d5b0 94bf 0000 0020 abda 91bf
00000700: 0000 0080 bdca 8ebf 0000 0000 d09f 8abf
00000710: 0000 0020 6b7f 87bf 0000 0040 996c 85bf
00000720: 0000 0040 51da 833f 0000 0040 51da 833f
00000730: 0000 00a0 316f 823f 0000 00a0 b908 823f
00000740: 0000 0060 15c3 823f 0000 00c0 0c13 843f
00000750: 0000 00a0 b1c1 853f 0000 0000 f8ec 873f
00000760: 0000 0060 a749 8b3f 0000 0080 bc61 903f
00000770: 0000 0000 a6a7 933f 0000 0000 762f 973f
00000780: 0000 00c0 2ac4 9a3f 0000 0020 fe50 9e3f
00000790: 0000 00c0 69e4 a03f 0000 0060 d655 a23f
000007a0: 0000 00a0 e36d a33f 0000 0060 ac25 a43f
000007b0: 0000 0020 8d6a a43f 0000 0040 aa7d a43f
000007c0: 0000 0060 abdc a43f 0000 00c0 71b2 a53f
000007d0: 0000 0020 87f3 a63f 0000 00c0 6151 a83f
000007e0: 0000 00c0 e18f a93f 0000 00e0 8d77 aa3f
000007f0: 0000 0060 23f3 aa3f 0000 00c0 991c ab3f
-0.010461057536303997 -0.010461057536303997 -0.012935017235577106 -0.016267603263258934 -0.019399205222725868 -0.022938603535294533 -0.027262099087238312 -0.03228754177689552
-0.037830889225006104 -0.043070774525403976 -0.04738999158143997 -0.05133815482258797 -0.05532590672373772 -0.05944196879863739 -0.06348863244056702 -0.06761494278907776
-0.07204364240169525 -0.07682622969150543 -0.08230223506689072 -0.08882622420787811 -0.09683320671319962 -0.1061837449669838 -0.11687719821929932 -0.12826360762119293
-0.13958168029785156 -0.15030547976493835 -0.16018182039260864 -0.1691179871559143 -0.17693200707435608 -0.18365195393562317 -0.18920741975307465 -0.19376087188720703
-0.19738860428333282 -0.20021338760852814 -0.20216651260852814 -0.20320041477680206 -0.20336058735847473 -0.2030291110277176 -0.20212987065315247 -0.20064561069011688
-0.19876836240291595 -0.1966865062713623 -0.19447660446166992 -0.19227711856365204 -0.19023413956165314 -0.188461571931839 -0.18710632622241974 -0.18618503212928772
-0.18573878705501556 -0.185714453458786 -0.18610067665576935 -0.18679939210414886 -0.18772895634174347 -0.18874871730804443 -0.18979689478874207 -0.19081029295921326
-0.19169768691062927 -0.1923665553331375 -0.19277343153953552 -0.19299569725990295 -0.19308528304100037 -0.19314983487129211 -0.19323819875717163 -0.19328412413597107
-0.19322210550308228 -0.19299302995204926 -0.19256706535816193 -0.19201552867889404 -0.19130006432533264 -0.1903839409351349 -0.18930697441101074 -0.18810498714447021
-0.18683791160583496 -0.1855737864971161 -0.18433380126953125 -0.18309102952480316 -0.18193279206752777 -0.18094083666801453 -0.1801145374774933 -0.17934173345565796
-0.1785508096218109 -0.1775284856557846 -0.17602115869522095 -0.17394524812698364 -0.17118903994560242 -0.16765280067920685 -0.16332104802131653 -0.15833917260169983
-0.1525186151266098 -0.14585241675376892 -0.13851536810398102 -0.13047431409358978 -0.12157710641622543 -0.11193037033081055 -0.10194826871156693 -0.09183945506811142
-0.0814974457025528 -0.06960911303758621 -0.056897230446338654 -0.043699461966753006 -0.029938731342554092 -0.016134005039930344 -0.0019084333907812834 0.012170142494142056
0.027784598991274834 0.043482456356287 0.05904730036854744 0.07423737645149231 0.08878793567419052 0.10276509076356888 0.11611303687095642 0.12864652276039124
0.1405189037322998 0.15248453617095947 0.16547948122024536 0.1791011393070221 0.19259506464004517 0.20541323721408844 0.21728762984275818 0.2280176728963852
0.2372112274169922 0.2447783648967743 0.25081831216812134 0.2557567358016968 0.25963953137397766 0.2623441517353058 0.26360371708869934 0.2637002766132355
0.2629369795322418 0.2616617977619171 0.2601831257343292 0.25882577896118164 0.25757643580436707 0.25625696778297424 0.2549267113208771 0.25369739532470703
0.25263711810112 0.25177133083343506 0.2511048913002014 0.2505829930305481 0.2502410411834717 0.2500815987586975 0.25016117095947266 0.25047212839126587
0.2510223388671875 0.2516642212867737 0.25222474336624146 0.2526251971721649 0.25298285484313965 0.25340142846107483 0.2537912428379059 0.25396013259887695
0.25384145975112915 0.2535557746887207 0.2531426250934601 0.2525743842124939 0.2518298923969269 0.2509894073009491 0.25011759996414185 0.2492794543504715
0.24857918918132782 0.24794717133045197 0.2472207248210907 0.24623234570026398 0.24493369460105896 0.24336709082126617 0.2416287213563919 0.23961178958415985
0.2371433526277542 0.23405490815639496 0.23035761713981628 0.22616270184516907 0.2216382920742035 0.21660968661308289 0.2107929140329361 0.20404960215091705
0.19615986943244934 0.18714429438114166 0.17695491015911102 0.16561450064182281 0.1531650573015213 0.14005064964294434 0.12659810483455658 0.11296090483665466
0.09915583580732346 0.08524579554796219 0.07140655815601349 0.05376306548714638 0.0358305387198925 0.018235376104712486 0.0009215280879288912 -0.015420501120388508
-0.030504543334245682 -0.04456990957260132 -0.05772834271192551 -0.06971738487482071 -0.0804375559091568 -0.08991608768701553 -0.09789092093706131 -0.10430534183979034
-0.1092999055981636 -0.11288847029209137 -0.11486240476369858 -0.11519620567560196 -0.11406426131725311 -0.11175408959388733 -0.10827035456895828 -0.10377199202775955
-0.09836026281118393 -0.09230930358171463 -0.08575858175754547 -0.07891583442687988 -0.07192524522542953 -0.06496225297451019 -0.05822063237428665 -0.051855213940143585
-0.045923881232738495 -0.040427349507808685 -0.03542060777544975 -0.03093430958688259 -0.02694396860897541 -0.023379556834697723 -0.020205814391374588 -0.017435716465115547
-0.015035133808851242 -0.013000130653381348 -0.011473500169813633 -0.010461041703820229 0.009693751111626625 0.009693751111626625 0.00900114793330431 0.008805704303085804
0.009161154739558697 0.009801959618926048 0.010623347945511341 0.011682450771331787 0.013324077241122723 0.015997834503650665 0.019194215536117554 0.02264198660850525
0.026138942688703537 0.029605837538838387 0.0329926535487175 0.03581113740801811 0.03794776275753975 0.03934992477297783 0.039875421673059464 0.040021248161792755
0.04074607416987419 0.0423770472407341 0.04482671990990639 0.04749589413404465 0.04992585629224777 0.051693376153707504 0.052636247128248215 0.05295258015394211
