data/mixamo/36_800_24/train/PEASANT_GIRL/Weight_Shift/Weight_Shift.npy (npy, 82208 bytes, 1 tensors)

array f8 [15, 3, 228]
00000000: 0000 0080 a801 68bf 0000 0080 a801 68bf
00000010: 0000 0060 ea68 71bf 0000 00e0 06af 78bf
00000020: 0000 0080 2386 7fbf 0000 0000 54a7 83bf
00000030: 0000 0000 8c67 88bf 0000 0060 37df 8dbf
00000040: 0000 00e0 dadf 91bf 0000 0020 995f 94bf
00000050: 0000 0020 c452 96bf 0000 0000 5e04 98bf
00000060: 0000 00a0 38aa 99bf 0000 0080 8a55 9bbf
00000070: 0000 0000 7bf7 9cbf 0000 0060 6e9a 9ebf
00000080: 0000 0040 d931 a0bf 0000 0060 492f a1bf
00000090: 0000 0080 2469 a2bf 0000 0020 7101 a4bf
000000a0: 0000 0040 3012 a6bf 0000 00e0 9a8e a8bf
000000b0: 0000 0040 9a71 abbf 0000 00c0 4184 aebf
000000c0: 0000 0000 bac3 b0bf 0000 0000 642e b2bf
000000d0: 0000 00a0 a97b b3bf 0000 00e0 a6a9 b4bf
000000e0: 0000 00e0 e8b4 b5bf 0000 0080 8e9e b6bf
000000f0: 0000 0040 d860 b7bf 0000 00c0 3ffd b7bf
00000100: 0000 0000 3676 b8bf 0000 00c0 98d2 b8bf
00000110: 0000 00a0 4312 b9bf 0000 0080 6634 b9bf
00000120: 0000 00e0 b439 b9bf 0000 00c0 fd2d b9bf
00000130: 0000 0060 090e b9bf 0000 0000 f3d9 b8bf
00000140: 0000 0020 1999 b8bf 0000 00e0 7c51 b8bf
00000150: 0000 0020 1105 b8bf 0000 00c0 3bb9 b7bf
00000160: 0000 00a0 3574 b7bf 0000 00c0 9c39 b7bf
00000170: 0000 0060 fb0c b7bf 0000 0000 68ee b6bf
00000180: 0000 0080 fcdf b6bf 0000 0080 20e0 b6bf
00000190: 0000 00a0 c2ed b6bf 0000 0080 5c05 b7bf
000001a0: 0000 00a0 8a24 b7bf 0000 00a0 fa46 b7bf
000001b0: 0000 0000 c76a b7bf 0000 0060 458d b7bf
000001c0: 0000 00c0 b9aa b7bf 0000 00e0 58c0 b7bf
000001d0: 0000 00c0 67cd b7bf 0000 0040 acd4 b7bf
000001e0: 0000 0040 b9d7 b7bf 0000 00e0 10da b7bf
000001f0: 0000 0080 14dd b7bf 0000 0040 79de b7bf
00000200: 0000 0000 86dc b7bf 0000 0020 47d5 b7bf
00000210: 0000 0040 3ec7 b7bf 0000 0020 c5b4 b7bf
00000220: 0000 0020 819c b7bf 0000 0060 fa7c b7bf
00000230: 0000 00c0 e057 b7bf 0000 0040 cd2e b7bf
00000240: 0000 0040 cc03 b7bf 0000 00e0 55d9 b6bf
00000250: 0000 0020 2bb0 b6bf 0000 0000 eb86 b6bf
00000260: 0000 00c0 c160 b6bf 0000 0000 7040 b6bf
00000270: 0000 0080 b025 b6bf 0000 0040 8c0c b6bf
00000280: 0000 00c0 80f2 b5bf 0000 0080 dccf b5bf
00000290: 0000 0060 be9b b5bf 0000 00a0 3f54 b5bf
000002a0: 0000 0000 c0f6 b4bf 0000 0080 4b7f b4bf
000002b0: 0000 00c0 a8f0 b3bf 0000 0020 9f52 b3bf
000002c0: 0000 0000 369e b2bf 0000 00c0 d0d1 b1bf
000002d0: 0000 00e0 a8f3 b0bf 0000 00e0 5e01 b0bf
000002e0: 0000 0060 25e7 adbf 0000 00e0 b091 abbf
000002f0: 0000 0080 bb1c a9bf 0000 00a0 2ca1 a6bf
00000300: 0000 0000 3c1c a4bf 0000 00c0 d627 a1bf
00000310: 0000 0000 26e1 9bbf 0000 0080 3a1c 95bf
00000320: 0000 00c0 4be1 8bbf 0000 0020 37ad 7abf
00000330: 0000 0040 6a03 463f 0000 0080 fd48 7f3f
00000340: 0000 0000 8b71 8f3f 0000 0020 19a6 973f
00000350: 0000 0000 8070 9f3f 0000 0020 9d79 a33f
00000360: 0000 0040 5004 a73f 0000 0020 2c62 aa3f
00000370: 0000 0060 b294 ad3f 0000 0060 d34d b03f
00000380: 0000 00e0 dfc2 b13f 0000 0040 0d40 b33f
00000390: 0000 0040 a1e4 b43f 0000 00a0 83a3 b63f
000003a0: 0000 00a0 7c65 b83f 0000 00c0 8b15 ba3f
000003b0: 0000 00a0 2ba0 bb3f 0000 00e0 5502 bd3f
000003c0: 0000 0020 b933 be3f 0000 0080 2631 bf3f
000003d0: 0000 00e0 f0fc bf3f 0000 0020 7a51 c03f
000003e0: 0000 0060 cb90 c03f 0000 00e0 c1ba c03f
000003f0: 0000 00a0 13cd c03f 0000 0000 e8cc c03f
00000400: 0000 00a0 d3be c03f 0000 00e0 f8a7 c03f
00000410: 0000 0080 e58c c03f 0000 0000 9273 c03f
00000420: 0000 00c0 795c c03f 0000 00a0 c844 c03f
00000430: 0000 00e0 5b2d c03f 0000 0060 ea17 c03f
00000440: 0000 00c0 de05 c03f 0000 0060 86ef bf3f
00000450: 0000 0060 c4da bf3f 0000 00c0 f0ca bf3f
00000460: 0000 0000 ecc1 bf3f 0000 00e0 edbf bf3f
00000470: 0000 00c0 03c6 bf3f 0000 0020 55d3 bf3f
00000480: 0000 0060 2be8 bf3f 0000 0040 7cff bf3f
00000490: 0000 00e0 eb09 c03f 0000 00c0 bc11 c03f
000004a0: 0000 0080 2619 c03f 0000 00a0 1721 c03f
000004b0: 0000 0060 f927 c03f 0000 00a0 572b c03f
000004c0: 0000 0080 9a2a c03f 0000 0040 7127 c03f
000004d0: 0000 0040 1822 c03f 0000 0040 fe19 c03f
000004e0: 0000 0000 c70e c03f 0000 0080 1002 c03f
000004f0: 0000 00a0 92ea bf3f 0000 0080 b1d2 bf3f
00000500: 0000 0060 3cbf bf3f 0000 0020 d8ad bf3f
00000510: 0000 0060 6399 bf3f 0000 0020 f77b bf3f
00000520: 0000 00a0 f053 bf3f 0000 0000 8422 bf3f
00000530: 0000 0080 fdea be3f 0000 00e0 92a9 be3f
00000540: 0000 0060 3558 be3f 0000 00c0 c1f0 bd3f
00000550: 0000 0040 0274 bd3f 0000 0060 dde4 bc3f
00000560: 0000 0000 0848 bc3f 0000 0080 5297 bb3f
00000570: 0000 0080 9acd ba3f 0000 0040 0eee b93f
00000580: 0000 0080 e6ef b83f 0000 0080 cad1 b73f
00000590: 0000 00a0 7493 b63f 0000 0020 8b35 b53f
000005a0: 0000 00c0 ddb7 b33f 0000 00a0 0f26 b23f
000005b0: 0000 00e0 8488 b03f 0000 0020 e7c7 ad3f
000005c0: 0000 0040 1e6f aa3f 0000 0060 4e08 a73f
000005d0: 0000 0040 cea0 a33f 0000 0080 ba4b 9e3f
000005e0: 0000 0060 b605 953f 0000 00a0 3195 873f
000005f0: 0000 0000 1f7d 643f 0000 0040 66f8 78bf
00000600: 0000 0000 7bdb 8cbf 0000 0000 c60a 96bf
00000610: 0000 00c0 9b23 9dbf 0000 0020 d1cc a1bf
00000620: 0000 0020 19aa a4bf 0000 0020 ff30 a7bf
00000630: 0000 0040 ba50 a9bf 0000 0080 af05 abbf
00000640: 0000 00c0 635c acbf 0000 0000 1e4c adbf
00000650: 0000 00e0 c4ca adbf 0000 0000 6ed8 adbf
00000660: 0000 00a0 0683 adbf 0000 0020 75dd acbf
00000670: 0000 0040 06e8 abbf 0000 00e0 12af aabf
00000680: 0000 00a0 403a a9bf 0000 00a0 f199 a7bf
00000690: 0000 00c0 fad5 a5bf 0000 0040 b2fd a3bf
000006a0: 0000 0080 ff1a a2bf 0000 00e0 8c38 a0bf
000006b0: 0000 0000 44c7 9cbf 0000 0080 ea51 99bf
000006c0: 0000 00c0 e61b 96bf 0000 00a0 8127 93bf
000006d0: 0000 0040 f07a 90bf 0000 0000 7b29 8cbf
000006e0: 0000 0040 b1dc 87bf 0000 0060 d603 84bf
000006f0: 0000 00e0 4898 80bf 0000 0020 1332 7bbf
00000700: 0000 0060 d6fb 75bf 0000 00a0 c096 71bf
00000710: 0000 0020 3589 6cbf 0000 00c0 a501 68bf
00000720: 0000 00c0 f60a 50bf 0000 00c0 f60a 50bf
00000730: 0000 0080 b5fe 55bf 0000 0040 0271 57bf
00000740: 0000 00e0 fb00 54bf 0000 00c0 7c72 4cbf
00000750: 0000 00a0 d01c 3dbf 0000 00c0 23d9 153f
00000760: 0000 0060 7bb1 4d3f 0000 00e0 a57f 623f
00000770: 0000 0020 10cb 6f3f 0000 0000 880f 773f
00000780: 0000 0040 6349 7e3f 0000 0000 eeb2 823f
00000790: 0000 0080 2528 863f 0000 00a0 1121 893f
000007a0: 0000 0000 4d85 8b3f 0000 0060 7334 8d3f
000007b0: 0000 0000 3b02 8e3f 0000 00a0 be78 8e3f
000007c0: 0000 0000 be7f 8f3f 0000 00e0 28ac 903f
000007d0: 0000 0080 3df4 913f 0000 00c0 5255 933f
000007e0: 0000 00e0 7ea2 943f 0000 0060 cba6 953f
000007f0: 0000 0080 6141 963f 0000 0020 eb7b 963f
-0.0029304781928658485 -0.0029304781928658485 -0.004250445868819952 -0.006026293616741896 -0.007696283981204033 -0.009596496820449829 -0.011916249990463257 -0.014585907571017742
-0.01745550148189068 -0.019895927980542183 -0.021800102666020393 -0.02345415949821472 -0.02506340481340885 -0.026693500578403473 -0.028287813067436218 -0.02988598309457302
-0.03163031488656998 -0.03356389328837395 -0.0359584242105484 -0.03907350078225136 -0.043107517063617706 -0.047962989658117294 -0.05360109359025955 -0.05960278958082199
-0.06548655033111572 -0.07102036476135254 -0.07610569149255753 -0.0807136818766594 -0.08479171246290207 -0.0883568823337555 -0.09132148325443268 -0.09370802342891693
-0.09555375576019287 -0.09696345031261444 -0.09793493896722794 -0.09845581650733948 -0.09853678196668625 -0.09835802018642426 -0.09787043184041977 -0.09707564115524292
-0.09608609229326248 -0.09499340504407883 -0.09382731467485428 -0.09267018735408783 -0.09161696583032608 -0.09072284400463104 -0.09004183858633041 -0.08957529067993164
-0.08935526013374329 -0.0893574059009552 -0.08956543356180191 -0.08992555737495422 -0.09040132910013199 -0.09092680364847183 -0.0914730429649353 -0.09199937433004379
-0.09244881570339203 -0.09277873486280441 -0.09297798573970795 -0.09308888018131256 -0.09313543140888214 -0.09317117184400558 -0.0932171642780304 -0.09323842823505402
-0.0932086706161499 -0.09309811145067215 -0.09288395941257477 -0.09260208159685135 -0.09223181754350662 -0.09175076335668564 -0.09118466079235077 -0.09055788815021515
-0.08990170061588287 -0.08925377577543259 -0.08862561732530594 -0.08799618482589722 -0.08741389214992523 -0.08692073822021484 -0.08651259541511536 -0.08612896502017975
-0.08573155105113983 -0.08520296216011047 -0.08440770953893661 -0.08331678062677383 -0.08189010620117188 -0.08006736636161804 -0.07789091765880585 -0.07547945529222488
-0.07272660732269287 -0.06960777938365936 -0.06621795147657394 -0.06252091377973557 -0.05840412899851799 -0.053845908492803574 -0.04904733598232269 -0.0441984124481678
-0.03927791118621826 -0.03350707143545151 -0.02722606062889099 -0.02061549574136734 -0.01361331157386303 -0.006512847263365984 0.0006717938231304288 0.00763796828687191
0.015353284776210785 0.023094551637768745 0.030702590942382812 0.03803721442818642 0.04495478421449661 0.05153024569153786 0.057775091379880905 0.0636875256896019
0.06937979906797409 0.07519610226154327 0.08161361515522003 0.08843252807855606 0.09529856592416763 0.10189126431941986 0.10791275650262833 0.11331688612699509
0.11797673255205154 0.12184372544288635 0.12495332211256027 0.1274864822626114 0.1294187754392624 0.13069938123226166 0.13125844299793243 0.13125324249267578
0.13082356750965118 0.13012610375881195 0.1292998194694519 0.12852692604064941 0.1278221309185028 0.12709911167621613 0.12638424336910248 0.12572984397411346
0.12517914175987244 0.1247486099600792 0.12443187087774277 0.12419037520885468 0.12405276298522949 0.12402235716581345 0.12411521375179291 0.124318428337574
0.12463637441396713 0.12499214708805084 0.1253027766942978 0.1255412995815277 0.1257675290107727 0.12600989639759064 0.12621991336345673 0.1263227015733719
0.1263001561164856 0.12620368599891663 0.1260404884815216 0.1257932484149933 0.1254509687423706 0.1250630021095276 0.12467304617166519 0.12430867552757263
0.12401177734136581 0.12374640256166458 0.12343426793813705 0.12298531085252762 0.12237457185983658 0.12162041664123535 0.12077316641807556 0.11977498978376389
0.11853345483541489 0.11695490777492523 0.11505140364170074 0.11286719888448715 0.1104741096496582 0.10777774453163147 0.1046997606754303 0.10128869116306305
0.09741058945655823 0.09304490685462952 0.08818749338388443 0.08284825831651688 0.07702432572841644 0.07089326530694962 0.06458311527967453 0.058165762573480606
0.05162901431322098 0.044985245913267136 0.03833622485399246 0.029585756361484528 0.020529603585600853 0.011515033431351185 0.002501068636775017 -0.006096267141401768
-0.014090500771999359 -0.021525472402572632 -0.028456147760152817 -0.03476575389504433 -0.04036024585366249 -0.04529568925499916 -0.04944402724504471 -0.05277775228023529
-0.05539237707853317 -0.05722135305404663 -0.05818763002753258 -0.058291852474212646 -0.05764027312397957 -0.05637708678841591 -0.05450458079576492 -0.05211695656180382
-0.049272555857896805 -0.04609637334942818 -0.042648158967494965 -0.03904492408037186 -0.035362228751182556 -0.03168144449591637 -0.028103888034820557 -0.024726547300815582
-0.021590810269117355 -0.018705392256379128 -0.016093973070383072 -0.013750992715358734 -0.011651406064629555 -0.009772944264113903 -0.0081029599532485 -0.006639551836997271
-0.0053671239875257015 -0.004294159356504679 -0.003483394393697381 -0.002930473070591688 -0.000979176489636302 -0.000979176489636302 -0.0013424656353890896 -0.0014307519886642694
-0.0012209377018734813 -0.0008681401377543807 -0.0004442223871592432 8.33442754810676e-05 0.0009061672608368099 0.0022581329103559256 0.0038810076657682657 0.005630046129226685
0.007394206710159779 0.009130343794822693 0.010818760842084885 0.012270105071365833 0.013437844812870026 0.01426019798964262 0.014652691781520844 0.014878739602863789
0.015380367636680603 0.0162817370146513 0.01753326505422592 0.018880169838666916 0.02015112154185772 0.02114408276975155 0.021733783185482025 0.02195708639919758
