data/mixamo/36_800_24/train/ZOMBIEGIRL_W/Weight_Shift/Weight_Shift.npy (npy, 82208 bytes, 1 tensors)

array f8 [15, 3, 228]
0	0xbf85034080000000	-0.010260108858346939
1	0xbf85034080000000	-0.010260108858346939
2	0xbf87cadc40000000	-0.011617394164204597
3	0xbf8b812b20000000	-0.013429963029921055
4	0xbf8efdca40000000	-0.01513250358402729
5	0xbf917b5240000000	-0.01707199588418007
6	0xbf93e9eb60000000	-0.019447019323706627
7	0xbf96b6ab80000000	-0.022181205451488495
8	0xbf99bcf160000000	-0.025134822353720665
9	0xbf9c6dc0a0000000	-0.02776242233812809
10	0xbf9e8dd120000000	-0.02983786351978779
11	0xbfa036eb80000000	-0.0316690057516098
12	0xbfa1244bc0000000	-0.03348004072904587
13	0xbfa2156fc0000000	-0.035319797694683075
14	0xbfa2fc2fc0000000	-0.03708028048276901
15	0xbfa3e1afc0000000	-0.03883122652769089
16	0xbfa4d7fee0000000	-0.040710415691137314
17	0xbfa5e85ac0000000	-0.04278834909200668
18	0xbfa73c6e00000000	-0.045382916927337646
19	0xbfa8fb41e0000000	-0.04879194125533104
20	0xbfab40bfc0000000	-0.05322837084531784
21	0xbfadfdadc0000000	-0.05857603996992111
22	0xbfb0982b60000000	-0.06482192128896713
23	0xbfb24f9f60000000	-0.07152744382619858
24	0xbfb4043c20000000	-0.07818961888551712
25	0xbfb5a3b660000000	-0.08452930301427841
26	0xbfb7252fc0000000	-0.09041117131710052
27	0xbfb88369a0000000	-0.0957551971077919
28	0xbfb9b72380000000	-0.10045072436332703
29	0xbfbac220c0000000	-0.1045246571302414
30	0xbfbb9ffcc0000000	-0.10790996253490448
31	0xbfbc538cc0000000	-0.11064986884593964
32	0xbfbcdf46e0000000	-0.11278193444013596
33	0xbfbd4a8360000000	-0.11441823095083237
34	0xbfbd94d160000000	-0.11555203050374985
35	0xbfbdbd90a0000000	-0.11617378145456314
36	0xbfbdc4e520000000	-0.11628562957048416
37	0xbfbdb7b180000000	-0.11608418822288513
38	0xbfbd9208e0000000	-0.11550956219434738
39	0xbfbd5449e0000000	-0.11456739157438278
40	0xbfbd06c040000000	-0.11338426172733307
41	0xbfbcb058c0000000	-0.11206583678722382
42	0xbfbc538bc0000000	-0.11064980924129486
43	0xbfbbf70dc0000000	-0.10923849046230316
44	0xbfbba26760000000	-0.10794683545827866
45	0xbfbb5a4c20000000	-0.10684657841920853
46	0xbfbb239b00000000	-0.10601204633712769
47	0xbfbafe5fa0000000	-0.10544393211603165
48	0xbfbaecba40000000	-0.10517467558383942
49	0xbfbaecb600000000	-0.10517442226409912
50	0xbfbafd2260000000	-0.10542502254247665
51	0xbfbb19dc80000000	-0.10586336255073547
52	0xbfbb400760000000	-0.10644575208425522
53	0xbfbb69f4e0000000	-0.10708551853895187
54	0xbfbb951660000000	-0.10774364322423935
55	0xbfbbbeafc0000000	-0.10837839543819427
56	0xbfbbe28f20000000	-0.10892576724290848
57	0xbfbbfd4600000000	-0.10933339595794678
58	0xbfbc0ddb80000000	-0.1095864474773407
59	0xbfbc177760000000	-0.10973306745290756
60	0xbfbc1c2d60000000	-0.10980495065450668
61	0xbfbc205a80000000	-0.10986867547035217
62	0xbfbc25a2a0000000	-0.1099492684006691
63	0xbfbc297ba0000000	-0.11000797897577286
64	0xbfbc29d640000000	-0.11001338064670563
65	0xbfbc2400e0000000	-0.10992436856031418
66	0xbfbc160480000000	-0.10971096158027649
67	0xbfbc02a240000000	-0.10941518843173981
68	0xbfbbe84260000000	-0.10901274532079697
69	0xbfbbc56580000000	-0.1084807813167572
70	0xbfbb9c39c0000000	-0.10785256326198578
71	0xbfbb6e8200000000	-0.1071549654006958
72	0xbfbb3e9d40000000	-0.10642416775226593
73	0xbfbb0facc0000000	-0.10570792853832245
74	0xbfbae30820000000	-0.1050267294049263
75	0xbfbab741e0000000	-0.10435878485441208
76	0xbfba8fe480000000	-0.10375812649726868
77	0xbfba707ea0000000	-0.10327903181314468
78	0xbfba596540000000	-0.10292656719684601
79	0xbfba4683c0000000	-0.10263846814632416
80	0xbfba355d80000000	-0.102376788854599
81	0xbfba1ce300000000	-0.10200327634811401
82	0xbfb9f218e0000000	-0.10135035961866379
83	0xbfb9b1e520000000	-0.10037071257829666
84	0xbfb9595140000000	-0.0990191251039505
85	0xbfb8e440c0000000	-0.0972328633069992
86	0xbfb85316a0000000	-0.09501782804727554
87	0xbfb7ac9a40000000	-0.0924774557352066
88	0xbfb6e86040000000	-0.08948327600955963
89	0xbfb6062e60000000	-0.08603181689977646
90	0xbfb50df5c0000000	-0.08224426209926605
91	0xbfb3fc56e0000000	-0.07806914299726486
92	0xbfb2c987c0000000	-0.07338760793209076
93	0xbfb1762200000000	-0.06820881366729736
94	0xbfb011ee60000000	-0.06277360767126083
95	0xbfad54ea80000000	-0.057288482785224915
96	0xbfaa7b43c0000000	-0.051721684634685516
97	0xbfa72e7aa0000000	-0.04527648165822029
98	0xbfa39e21a0000000	-0.038315821439027786
99	0xbf9fd14860000000	-0.03107178770005703
100	0xbf98136c20000000	-0.02351159043610096
101	0xbf9057fbe0000000	-0.015960631892085075
102	0xbf80ec9740000000	-0.008263761177659035
103	0xbf49ce5480000000	-0.0007875359151512384
104	0x3f7e847780000000	0.007450548931956291
105	0x3f901891c0000000	0.015718724578619003
106	0x3f98774480000000	0.023892469704151154
107	0x3fa047a780000000	0.03179667890071869
108	0x3fa4154ac0000000	0.03922494500875473
109	0x3fa7ade680000000	0.046248629689216614
110	0x3fab1f1420000000	0.0529714860022068
111	0x3fae69bf00000000	0.0594005286693573
112	0x3fb0cb89e0000000	0.06560575217008591
113	0x3fb2695d60000000	0.0719202384352684
114	0x3fb433d040000000	0.07891561090946198
115	0x3fb61ef8a0000000	0.08641008287668228
116	0x3fb80cc8c0000000	0.09394507110118866
117	0x3fb9e55fa0000000	0.10115621238946915
118	0x3fbb9cd4a0000000	0.10786179453134537
119	0x3fbd2cfb80000000	0.11396762728691101
120	0x3fbe8676e0000000	0.11923926323652267
121	0x3fbfa46060000000	0.12360193580389023
122	0x3fc044b640000000	0.12709692120552063
123	0x3fc0a1eec0000000	0.12994179129600525
124	0x3fc0e98ee0000000	0.13212762773036957
125	0x3fc1193080000000	0.1335812211036682
126	0x3fc12c97e0000000	0.13417337834835052
127	0x3fc129e420000000	0.13409091532230377
128	0x3fc116f1c0000000	0.1335127055644989
129	0x3fc0f9eb80000000	0.1326269507408142
130	0x3fc0d848e0000000	0.131600484251976
131	0x3fc0b8cb60000000	0.1306394785642624
132	0x3fc09bb000000000	0.12975120544433594
133	0x3fc07d8b00000000	0.12883126735687256
134	0x3fc05f3b80000000	0.12790626287460327
135	0x3fc042c3a0000000	0.12703748047351837
136	0x3fc029f4c0000000	0.12628039717674255
137	0x3fc015c280000000	0.12566405534744263
138	0x3fc005ede0000000	0.1251809448003769
139	0x3fbff1d760000000	0.124783955514431
140	0x3fbfe008c0000000	0.12451224029064178
141	0x3fbfd79120000000	0.12438303977251053
142	0x3fbfd9dde0000000	0.12441813200712204
143	0x3fbfe57120000000	0.12459475547075272
144	0x3fbffa7e00000000	0.1249159574508667
145	0x3fc009d200000000	0.12529969215393066
146	0x3fc0153da0000000	0.12564821541309357
147	0x3fc01e2400000000	0.12591981887817383
148	0x3fc0269fe0000000	0.12617872655391693
149	0x3fc02ff240000000	0.12646320462226868
150	0x3fc0387d20000000	0.12672390043735504
151	0x3fc03d5c00000000	0.12687253952026367
152	0x3fc03d8080000000	0.12687689065933228
153	0x3fc03a9420000000	0.1267876774072647
154	0x3fc034f3a0000000	0.1266159564256668
155	0x3fc02c1360000000	0.12634508311748505
156	0x3fc01f58a0000000	0.12595660984516144
157	0x3fc0107ae0000000	0.12550292909145355
158	0x3fc0015360000000	0.1250404566526413
159	0x3fbfe6e860000000	0.12461712211370468
160	0x3fbfd1f700000000	0.12429755926132202
161	0x3fbfc1bb60000000	0.12404986470937729
162	0x3fbfb096e0000000	0.12378828972578049
163	0x3fbf9779e0000000	0.1234050914645195
164	0x3fbf73edc0000000	0.12286268174648285
165	0x3fbf471c60000000	0.122178815305233
166	0x3fbf151f60000000	0.12141605466604233
167	0x3fbeda9960000000	0.12052305787801743
168	0x3fbe90f360000000	0.11939927190542221
169	0x3fbe3121e0000000	0.11793719977140427
170	0x3fbdbc82e0000000	0.11615770310163498
171	0x3fbd37fb80000000	0.11413547396659851
172	0x3fbcaa2d40000000	0.11197169125080109
173	0x3fbc0cc640000000	0.10956992208957672
174	0x3fbb574c20000000	0.10680080205202103
175	0x3fba86ba80000000	0.10361829400062561
176	0x3fb99086a0000000	0.09986153990030289
177	0x3fb8731da0000000	0.09550652652978897
178	0x3fb72c2ba0000000	0.09051773697137833
179	0x3fb5bc79e0000000	0.084907166659832
180	0x3fb4242900000000	0.07867676019668579
181	0x3fb2708fa0000000	0.07203004509210587
182	0x3fb0ad05a0000000	0.06514010578393936
183	0x3fadc0b860000000	0.05811096355319023
184	0x3faa16a8c0000000	0.050954125821590424
185	0x3fa661ada0000000	0.043713975697755814
186	0x3fa2b1a7a0000000	0.03651164844632149
187	0x3f9bee5040000000	0.027276281267404556
188	0x3f923d8380000000	0.017812781035900116
189	0x3f814e91a0000000	0.008450639434158802
190	0xbf4bb74c80000000	-0.000845825532451272
191	0xbf83df7540000000	-0.009703556075692177
192	0xbf92665c20000000	-0.017968596890568733
193	0xbf9a519fa0000000	-0.025701994076371193
194	0xbfa0de4f20000000	-0.032946083694696426
195	0xbfa4446e60000000	-0.03958458825945854
196	0xbfa7541f80000000	-0.04556368291378021
197	0xbfaa123ce0000000	-0.05092039331793785
198	0xbfac6bd7a0000000	-0.0555102713406086
199	0xbfae590b20000000	-0.05927309766411781
200	0xbfafebbb20000000	-0.06234535947442055
201	0xbfb08d8be0000000	-0.06465982645750046
202	0xbfb0ea8820000000	-0.06607867032289505
203	0xbfb10b87c0000000	-0.06658218801021576
204	0xbfb0f6efe0000000	-0.0662679597735405
205	0xbfb0b5a240000000	-0.06527151167392731
206	0xbfb046b720000000	-0.0635790303349495
207	0xbfaf62bea0000000	-0.061300236731767654
208	0xbfadf33960000000	-0.058496277779340744
209	0xbfac50a560000000	-0.055302780121564865
210	0xbfaa844820000000	-0.05179047957062721
211	0xbfa8a01dc0000000	-0.048096589744091034
212	0xbfa6ae7fa0000000	-0.04430006816983223
213	0xbfa4bac000000000	-0.04048728942871094
214	0xbfa2d39720000000	-0.03677055612206459
215	0xbfa1079640000000	-0.0332610085606575
216	0xbf9eba9560000000	-0.03000863455235958
217	0xbf9bab4040000000	-0.02702045813202858
218	0xbf98e6f2e0000000	-0.024318499490618706
219	0xbf966a5e40000000	-0.02189013734459877
220	0xbf942c8ec0000000	-0.019701223820447922
221	0xbf9225ee00000000	-0.01772281527519226
222	0xbf90522940000000	-0.015938419848680496
223	0xbf8d660040000000	-0.014354707673192024
224	0xbf8a8c64c0000000	-0.01296309195458889
225	0xbf881deaa0000000	-0.011775811202824116
226	0xbf86441120000000	-0.010872014798223972
227	0xbf850341c0000000	-0.010260118171572685
228	0xbf8ce09760000000	-0.01410024892538786
229	0xbf8ce09760000000	-0.01410024892538786
230	0xbf8dc81c80000000	-0.014541838318109512
231	0xbf8e007420000000	-0.014649302698671818
232	0xbf8d7b4740000000	-0.014395290985703468
233	0xbf8c9d2ac0000000	-0.013971647247672081
234	0xbf8b95b360000000	-0.013469125144183636
235	0xbf8a4fc800000000	-0.012847483158111572
236	0xbf884f90e0000000	-0.011870509944856167
237	0xbf84fcf3c0000000	-0.01024809293448925
238	0xbf81053480000000	-0.008310709148645401
239	0xbf7989ad20000000	-0.0062348139472305775
240	0xbf7104fe60000000	-0.004155152942985296
241	0xbf61853f60000000	-0.002138732699677348
242	0xbf2e425be0000000	-0.00023085948487278074
243	0x3f555882a0000000	0.0013028407702222466
244	0x3f63a230c0000000	0.0023966743610799313
245	0x3f684dd680000000	0.0029668034985661507
246	0x3f6810f740000000	0.0029377774335443974
247	0x3f66090600000000	0.0026898495852947235
248	0x3f672c4580000000	0.002828727476298809
249	0x3f6d6b41a0000000	0.0035911828745156527
250	0x3f7467a740000000	0.0049816640093922615
251	0x3f7b3a9880000000	0.006647678092122078
252	0x3f80fbfd60000000	0.008293132297694683
253	0x3f83ac2c80000000	0.009605739265680313
254	0x3f8552eee0000000	0.010412088595330715
255	0x3f85fcd920000000	0.010736175812780857
