data/mixamo/36_800_24/train/ZOMBIE/Weight_Shift/Weight_Shift.npy (npy, 82208 bytes, 1 tensors)

array f8 [15, 3, 228]
-0.004114410374313593 -0.004114410374313593 -0.005308543331921101 -0.0069303447380661964 -0.008465200662612915 -0.010209796018898487 -0.012323928065598011 -0.014753601513803005
-0.017472516745328903 -0.020288662984967232 -0.022742068395018578 -0.02507498674094677 -0.027442065998911858 -0.029854783788323402 -0.03222203627228737 -0.03460996225476265
-0.0371069572865963 -0.0397719107568264 -0.04282434284687042 -0.04644979536533356 -0.05083303153514862 -0.05582086741924286 -0.06124631687998772 -0.06672530621290207
-0.07196035981178284 -0.07682725787162781 -0.08129341155290604 -0.08537248522043228 -0.08903184533119202 -0.09226706624031067 -0.0949668288230896 -0.09712319076061249
-0.09875857084989548 -0.09998057037591934 -0.10080476850271225 -0.10123713314533234 -0.10129393637180328 -0.10113044828176498 -0.10070165991783142 -0.10000982135534286
-0.0991598516702652 -0.09823531657457352 -0.0972566306591034 -0.09628669172525406 -0.09541045874357224 -0.09467581659555435 -0.09411866962909698 -0.09373608976602554
-0.09356073290109634 -0.09357398748397827 -0.09375940263271332 -0.0940706878900528 -0.09447870403528214 -0.09493263065814972 -0.09540701657533646 -0.0958593338727951
-0.09623810648918152 -0.09650854766368866 -0.0966639369726181 -0.09674572944641113 -0.09676890075206757 -0.09677431732416153 -0.09678260236978531 -0.09676534682512283
-0.09670209884643555 -0.09657248109579086 -0.09635845571756363 -0.09609097987413406 -0.09575258195400238 -0.09531710296869278 -0.09480245411396027 -0.09423679113388062
-0.09365056455135345 -0.09307018667459488 -0.09250041842460632 -0.09192180633544922 -0.09137555211782455 -0.09089396148920059 -0.09046725928783417 -0.09004268795251846
-0.08957920223474503 -0.08896862715482712 -0.08809690177440643 -0.08695733547210693 -0.08551689982414246 -0.0837114155292511 -0.08146047592163086 -0.07880360633134842
-0.07567372918128967 -0.07211612910032272 -0.06825511157512665 -0.06407298892736435 -0.059473007917404175 -0.05442441999912262 -0.04914949834346771 -0.04390935227274895
-0.0387343093752861 -0.03290165960788727 -0.02675647847354412 -0.020479734987020493 -0.014029722660779953 -0.00767004257068038 -0.0009287063730880618 0.005876322742551565
0.013533800840377808 0.021273117512464523 0.029069313779473305 0.03677685931324959 0.04424595087766647 0.051433075219392776 0.05825522914528847 0.0646507665514946
0.07082077860832214 0.07713647931814194 0.083938367664814 0.09089082479476929 0.09755154699087143 0.10367529839277267 0.10921452194452286 0.11418268084526062
0.11846426874399185 0.12205464392900467 0.12497197836637497 0.12731511890888214 0.12903887033462524 0.1301431804895401 0.13059817254543304 0.13056938350200653
0.13017815351486206 0.12954366207122803 0.1287764608860016 0.12803392112255096 0.1273355782032013 0.1266220062971115 0.1259356141090393 0.12532955408096313
0.12483032792806625 0.12443956732749939 0.12415434420108795 0.12394294142723083 0.12382619827985764 0.12380359321832657 0.12389486283063889 0.12409105896949768
0.12439188361167908 0.12472748756408691 0.12502755224704742 0.12526626884937286 0.1254846453666687 0.12570074200630188 0.1258629709482193 0.12590982019901276
0.1258377879858017 0.1257019191980362 0.12550203502178192 0.12521807849407196 0.124849334359169 0.12445151060819626 0.12406335771083832 0.1236995980143547
0.12338725477457047 0.12308673560619354 0.12272296845912933 0.12223037332296371 0.12160809338092804 0.1208786740899086 0.12007781863212585 0.11913850158452988
0.11797067523002625 0.11650099605321884 0.11475811898708344 0.11280067265033722 0.11067936569452286 0.1082792803645134 0.10545975714921951 0.10209619253873825
0.0980643704533577 0.09339574724435806 0.08812158554792404 0.08232901990413666 0.07604335993528366 0.06945516169071198 0.06266208738088608 0.05575405806303024
0.04875669255852699 0.04171447083353996 0.03474900498986244 0.025987355038523674 0.01710912398993969 0.008454602211713791 2.9767639716737904e-05 -0.007948125712573528
-0.015379025600850582 -0.02229335904121399 -0.02872123010456562 -0.034574609249830246 -0.039815280586481094 -0.04443463310599327 -0.048303231596946716 -0.05137738585472107
-0.053777389228343964 -0.05548994988203049 -0.05638115853071213 -0.05642743036150932 -0.055746033787727356 -0.05449492856860161 -0.05266859754920006 -0.05035918205976486
-0.04763628542423248 -0.04461571201682091 -0.0413404256105423 -0.03791190683841705 -0.034407444298267365 -0.03091314435005188 -0.027531228959560394 -0.024348074570298195
-0.021400298923254013 -0.018688540905714035 -0.01622607372701168 -0.014011302031576633 -0.012031775899231434 -0.010273289866745472 -0.008723481558263302 -0.007378078065812588
-0.006234399043023586 -0.0052927350625395775 -0.004590807482600212 -0.004114413168281317 0.016163071617484093 0.016163071617484093 0.015854936093091965 0.015799494460225105
0.016013624146580696 0.016352901235222816 0.01675686612725258 0.017257682979106903 0.018035590648651123 0.01932431198656559 0.020853769034147263 0.022488290444016457
0.02412441372871399 0.02572956681251526 0.027289535850286484 0.028800098225474358 0.03017919883131981 0.03139584884047508 0.032381270080804825 0.03327148035168648
0.03433610498905182 0.03553907945752144 0.03673258796334267 0.037766046822071075 0.0386221744120121 0.03927479684352875 0.03966560214757919 0.03980579599738121
00000000: 0000 00a0 45da 70bf 0000 00a0 45da 70bf
00000010: 0000 0040 69be 75bf 0000 0040 fe62 7cbf
00000020: 0000 0000 3456 81bf 0000 00a0 dfe8 84bf
00000030: 0000 00a0 493d 89bf 0000 00e0 2237 8ebf
00000040: 0000 00c0 50e4 91bf 0000 0020 8dc6 94bf
00000050: 0000 0060 b249 97bf 0000 00e0 41ad 99bf
00000060: 0000 00e0 c519 9cbf 0000 00a0 4092 9ebf
00000070: 0000 0020 687f a0bf 0000 00a0 65b8 a1bf
00000080: 0000 00e0 aeff a2bf 0000 00e0 fb5c a4bf
00000090: 0000 0080 12ed a5bf 0000 0080 44c8 a7bf
000000a0: 0000 0080 c906 aabf 0000 0080 8d94 acbf
000000b0: 0000 0060 ad5b afbf 0000 00e0 e814 b1bf
000000c0: 0000 0080 fe6b b2bf 0000 0080 f3aa b3bf
000000d0: 0000 0020 a5cf b4bf 0000 00a0 f8da b5bf
000000e0: 0000 0080 caca b6bf 0000 0080 d09e b7bf
000000f0: 0000 0000 bf4f b8bf 0000 00c0 10dd b8bf
00000100: 0000 00e0 3d48 b9bf 0000 00a0 5398 b9bf
00000110: 0000 0060 57ce b9bf 0000 0040 adea b9bf
00000120: 0000 0040 66ee b9bf 0000 0060 afe3 b9bf
00000130: 0000 0080 95c7 b9bf 0000 0060 3e9a b9bf
00000140: 0000 0040 8a62 b9bf 0000 0020 f325 b9bf
00000150: 0000 0080 cfe5 b8bf 0000 00a0 3ea6 b8bf
00000160: 0000 00e0 d16c b8bf 0000 00a0 ac3c b8bf
00000170: 0000 0040 2918 b8bf 0000 00a0 16ff b7bf
00000180: 0000 00a0 98f3 b7bf 0000 0000 77f4 b7bf
00000190: 0000 00c0 9d00 b8bf 0000 0040 0415 b8bf
000001a0: 0000 00a0 c12f b8bf 0000 0040 814d b8bf
000001b0: 0000 0020 986c b8bf 0000 00c0 3c8a b8bf
000001c0: 0000 0080 0fa3 b8bf 0000 00c0 c8b4 b8bf
000001d0: 0000 00c0 f7be b8bf 0000 0000 54c4 b8bf
000001e0: 0000 00c0 d8c5 b8bf 0000 00a0 33c6 b8bf
000001f0: 0000 00a0 bec6 b8bf 0000 0020 9dc5 b8bf
00000200: 0000 0000 78c1 b8bf 0000 0060 f9b8 b8bf
00000210: 0000 00a0 f2aa b8bf 0000 0020 6b99 b8bf
00000220: 0000 00c0 3d83 b8bf 0000 00a0 b366 b8bf
00000230: 0000 0040 f944 b8bf 0000 0000 e71f b8bf
00000240: 0000 00c0 7bf9 b7bf 0000 00a0 72d3 b7bf
00000250: 0000 0080 1bae b7bf 0000 0000 3088 b7bf
00000260: 0000 0060 6364 b7bf 0000 00a0 d344 b7bf
00000270: 0000 00c0 dc28 b7bf 0000 00a0 090d b7bf
00000280: 0000 00a0 a9ee b6bf 0000 00e0 a5c6 b6bf
00000290: 0000 00c0 848d b6bf 0000 0000 d642 b6bf
000002a0: 0000 0080 6fe4 b5bf 0000 0080 1c6e b5bf
000002b0: 0000 0000 98da b4bf 0000 0020 792c b4bf
000002c0: 0000 0080 5a5f b3bf 0000 00e0 3376 b2bf
000002d0: 0000 00c0 2a79 b1bf 0000 0060 1667 b0bf
000002e0: 0000 0000 3f73 aebf 0000 0080 84dd abbf
000002f0: 0000 0080 1f2a a9bf 0000 0060 497b a6bf
00000300: 0000 00c0 fbd4 a3bf 0000 0080 7cd8 a0bf
00000310: 0000 00e0 0c66 9bbf 0000 00c0 a3f8 94bf
00000320: 0000 0080 9dbb 8cbf 0000 0060 9f6a 7fbf
00000330: 0000 00c0 8d6e 4ebf 0000 0060 c511 783f
00000340: 0000 0000 9cb7 8b3f 0000 00c0 9ec8 953f
00000350: 0000 00a0 58c4 9d3f 0000 00a0 6ad4 a23f
00000360: 0000 00c0 67a7 a63f 0000 00a0 6f55 aa3f
00000370: 0000 0020 a1d3 ad3f 0000 00e0 f38c b03f
00000380: 0000 0080 4f21 b23f 0000 0060 37bf b33f
00000390: 0000 0020 fc7c b53f 0000 0000 9f44 b73f
000003a0: 0000 0060 23f9 b83f 0000 00e0 768a ba3f
000003b0: 0000 00a0 7bf5 bb3f 0000 0080 133b bd3f
000003c0: 0000 00a0 ac53 be3f 0000 0020 f93e bf3f
000003d0: 0000 00e0 29fe bf3f 0000 00a0 dc4b c03f
000003e0: 0000 0080 5884 c03f 0000 0020 88a8 c03f
000003f0: 0000 00e0 70b7 c03f 0000 0060 7fb6 c03f
00000400: 0000 0080 ada9 c03f 0000 0000 e394 c03f
00000410: 0000 0040 bf7b c03f 0000 0060 6a63 c03f
00000420: 0000 0040 884c c03f 0000 0060 2635 c03f
00000430: 0000 0080 a81e c03f 0000 0080 cc0a c03f
00000440: 0000 0060 e1f4 bf3f 0000 0080 45db bf3f
00000450: 0000 0040 94c8 bf3f 0000 0080 b9ba bf3f
00000460: 0000 00e0 12b3 bf3f 0000 00a0 97b1 bf3f
00000470: 0000 00e0 92b7 bf3f 0000 0080 6ec4 bf3f
00000480: 0000 0080 25d8 bf3f 0000 0000 24ee bf3f
00000490: 0000 0020 e700 c03f 0000 00a0 b908 c03f
000004a0: 0000 0080 e10f c03f 0000 0040 f616 c03f
000004b0: 0000 0020 471c c03f 0000 0020 d01d c03f
000004c0: 0000 00e0 731b c03f 0000 0020 0017 c03f
000004d0: 0000 0060 7310 c03f 0000 0060 2507 c03f
000004e0: 0000 0040 20f6 bf3f 0000 00e0 0ddc bf3f
000004f0: 0000 00c0 9dc2 bf3f 0000 00e0 c6aa bf3f
00000500: 0000 00a0 4e96 bf3f 0000 00c0 9c82 bf3f
00000510: 0000 00c0 c56a bf3f 0000 0060 7d4a bf3f
00000520: 0000 0040 b521 bf3f 0000 00a0 e7f1 be3f
00000530: 0000 0080 6bbd be3f 0000 0060 dc7f be3f
00000540: 0000 0080 5333 be3f 0000 0060 02d3 bd3f
00000550: 0000 00c0 c960 bd3f 0000 0040 81e0 bc3f
00000560: 0000 00a0 7b55 bc3f 0000 00e0 30b8 bb3f
00000570: 0000 0020 69ff ba3f 0000 00e0 f922 ba3f
00000580: 0000 0020 bf1a b93f 0000 00a0 c8e8 b73f
00000590: 0000 00e0 228f b63f 0000 00c0 8313 b53f
000005a0: 0000 00e0 9377 b33f 0000 0040 d0c7 b13f
000005b0: 0000 0060 9f0a b03f 0000 00c0 cb8b ac3f
000005c0: 0000 0020 a3f6 a83f 0000 0060 995b a53f
000005d0: 0000 0020 9fca a13f 0000 00e0 6d9c 9a3f
000005e0: 0000 00e0 0d85 913f 0000 0080 a550 813f
000005f0: 0000 00a0 b036 ff3e 0000 0060 1b47 80bf
00000600: 0000 00e0 097f 8fbf 0000 0000 12d4 96bf
00000610: 0000 0020 1969 9dbf 0000 0060 c3b3 a1bf
00000620: 0000 0020 ab62 a4bf 0000 00e0 22c0 a6bf
00000630: 0000 0080 33bb a8bf 0000 0000 234e aabf
00000640: 0000 00c0 b588 abbf 0000 00c0 2d69 acbf
00000650: 0000 00c0 fddd acbf 0000 0060 0ee4 acbf
00000660: 0000 0080 be8a acbf 0000 0060 c2e6 abbf
00000670: 0000 00e0 60f7 aabf 0000 00c0 adc8 a9bf
00000680: 0000 0080 c863 a8bf 0000 00e0 ded7 a6bf
00000690: 0000 0080 922a a5bf 0000 0080 3069 a3bf
000006a0: 0000 0040 da9d a1bf 0000 0000 b2a7 9fbf
000006b0: 0000 0080 2531 9cbf 0000 00a0 b3ee 98bf
000006c0: 0000 00c0 f5e9 95bf 0000 00c0 1623 93bf
000006d0: 0000 0060 919d 90bf 0000 0020 f5b1 8cbf
000006e0: 0000 00a0 1da4 88bf 0000 00a0 290a 85bf
000006f0: 0000 00e0 9ddd 81bf 0000 00c0 7938 7ebf
00000700: 0000 00c0 3d89 79bf 0000 00c0 d5ad 75bf
00000710: 0000 0080 cfcd 72bf 0000 0060 46da 70bf
00000720: 0000 0060 0d8d 903f 0000 0060 0d8d 903f
00000730: 0000 00c0 463c 903f 0000 0020 be2d 903f
00000740: 0000 0020 e065 903f 0000 00a0 d0be 903f
00000750: 0000 0040 b628 913f 0000 0080 ffab 913f
00000760: 0000 0000 ec77 923f 0000 00a0 c0c9 933f
00000770: 0000 00c0 b05a 953f 0000 00a0 2b07 973f
00000780: 0000 0000 12b4 983f 0000 0000 da58 9a3f
00000790: 0000 00c0 c9f1 9b3f 0000 00e0 c57d 9d3f
000007a0: 0000 00c0 4be7 9e3f 0000 00e0 1d13 a03f
000007b0: 0000 0020 4794 a03f 0000 00a0 f508 a13f
000007c0: 0000 0080 8094 a13f 0000 00a0 2d32 a23f
000007d0: 0000 0020 9dce a23f 0000 0040 1256 a33f
000007e0: 0000 0020 49c6 a33f 0000 0080 d31b a43f
000007f0: 0000 00c0 0c4f a43f 0000 00e0 6c61 a43f
