data/mixamo/36_800_24/train/PIRATE_BY_P/Weight_Shift/Weight_Shift.npy (npy, 82208 bytes, 1 tensors)

array f8 [15, 3, 228]
0	0xbf6bebad60000000	-0.0034082781057804823
1	0xbf6bebad60000000	-0.0034082781057804823
2	0xbf6fe14cc0000000	-0.0038916110061109066
3	0xbf72958b20000000	-0.004537147004157305
4	0xbf750902e0000000	-0.005135546904057264
5	0xbf77cab1a0000000	-0.005808538291603327
6	0xbf7b284e00000000	-0.00663023442029953
7	0xbf7f11bee0000000	-0.007585282903164625
8	0xbf81b72820000000	-0.008650125004351139
9	0xbf83dff320000000	-0.009704493917524815
10	0xbf85b1f420000000	-0.010593325830996037
11	0xbf8762ff60000000	-0.011419291608035564
12	0xbf891b9b00000000	-0.01225968450307846
13	0xbf8ae62bc0000000	-0.01313432864844799
14	0xbf8cb38d60000000	-0.014014343731105328
15	0xbf8e8bcb00000000	-0.014915071427822113
16	0xbf903fc9e0000000	-0.015868334099650383
17	0xbf91477000000000	-0.016874074935913086
18	0xbf926c0c00000000	-0.017990291118621826
19	0xbf93bc5c80000000	-0.01927322894334793
20	0xbf9548f040000000	-0.020786050707101822
21	0xbf97026280000000	-0.022470034658908844
22	0xbf98e63880000000	-0.024315722286701202
23	0xbf9adf5fc0000000	-0.026242729276418686
24	0xbf9cd61540000000	-0.02816041186451912
25	0xbf9eb4af80000000	-0.02998613566160202
26	0xbfa036b660000000	-0.031667422503232956
27	0xbfa0fe2540000000	-0.03318897634744644
28	0xbfa1ad4200000000	-0.03452497720718384
29	0xbfa24466c0000000	-0.035678111016750336
30	0xbfa2c11de0000000	-0.03662961348891258
31	0xbfa325d480000000	-0.037397995591163635
32	0xbfa374b360000000	-0.03799973055720329
33	0xbfa3b1daa0000000	-0.03846629336476326
34	0xbfa3dc9020000000	-0.03879213705658913
35	0xbfa3f40e40000000	-0.038971371948719025
36	0xbfa3f8e9e0000000	-0.03900843486189842
37	0xbfa3f2e6e0000000	-0.03896256908774376
38	0xbfa3e03fa0000000	-0.03882025554776192
39	0xbfa3c0b4e0000000	-0.038579609245061874
40	0xbfa39862c0000000	-0.038271985948085785
41	0xbfa36b5840000000	-0.037928350269794464
42	0xbfa33b5c20000000	-0.037562254816293716
43	0xbfa30bde40000000	-0.037199921905994415
44	0xbfa2e031c0000000	-0.03686671704053879
45	0xbfa2baa000000000	-0.03658008575439453
46	0xbfa29df8e0000000	-0.03636148199439049
47	0xbfa28a7240000000	-0.036212511360645294
48	0xbfa2810d20000000	-0.03614083305001259
49	0xbfa280a720000000	-0.036137793213129044
50	0xbfa288d960000000	-0.036200325936079025
51	0xbfa29798c0000000	-0.03631284087896347
52	0xbfa2ab4c00000000	-0.036463141441345215
53	0xbfa2c0de20000000	-0.03662771359086037
54	0xbfa2d6f4e0000000	-0.03679623827338219
55	0xbfa2ec2660000000	-0.03695793077349663
56	0xbfa2fe7fa0000000	-0.03709791973233223
57	0xbfa30c2cc0000000	-0.03720226138830185
58	0xbfa31444e0000000	-0.03726401552557945
59	0xbfa3183940000000	-0.037294186651706696
60	0xbfa3193020000000	-0.03730154410004616
61	0xbfa319a960000000	-0.037305157631635666
62	0xbfa31ab160000000	-0.03731302544474602
63	0xbfa31ae840000000	-0.03731466084718704
64	0xbfa3190280000000	-0.03730018436908722
65	0xbfa3138160000000	-0.03725818917155266
66	0xbfa3099520000000	-0.037182483822107315
67	0xbfa2fd02e0000000	-0.037086572498083115
68	0xbfa2ece780000000	-0.03696368634700775
69	0xbfa2d82940000000	-0.03680542856454849
70	0xbfa2bfb300000000	-0.03661879897117615
71	0xbfa2a46400000000	-0.03641045093536377
72	0xbfa2877040000000	-0.03618956357240677
73	0xbfa26a6200000000	-0.035967886447906494
74	0xbfa24d8da0000000	-0.03574793413281441
75	0xbfa22fd160000000	-0.035521071404218674
76	0xbfa212c1a0000000	-0.03529934957623482
77	0xbfa1f84b20000000	-0.035097453743219376
78	0xbfa1e0b520000000	-0.03491750732064247
79	0xbfa1c9e400000000	-0.034743428230285645
80	0xbfa1b28ca0000000	-0.03456534817814827
81	0xbfa195d620000000	-0.034346286207437515
82	0xbfa16dd620000000	-0.034041110426187515
83	0xbfa138f5a0000000	-0.03363769128918648
84	0xbfa0f55660000000	-0.03312177583575249
85	0xbfa0a061e0000000	-0.032473620027303696
86	0xbfa037e260000000	-0.031676363199949265
87	0xbf9f7c9ba0000000	-0.030748778954148293
88	0xbf9e5ec420000000	-0.029658379033207893
89	0xbf9d14bfa0000000	-0.02839946188032627
90	0xbf9ba546a0000000	-0.02699766494333744
91	0xbf9a10c080000000	-0.025454528629779816
92	0xbf9851fdc0000000	-0.023750271648168564
93	0xbf966d6320000000	-0.021901654079556465
94	0xbf9474b9a0000000	-0.019976520910859108
95	0xbf92758ee0000000	-0.018026573583483696
96	0xbf906fb720000000	-0.016051160171628
97	0xbf8c411520000000	-0.013796010054647923
98	0xbf87543f60000000	-0.01139115821570158
99	0xbf823f75e0000000	-0.00891010370105505
100	0xbf7a0113a0000000	-0.0063486830331385136
101	0xbf6f126840000000	-0.0037929569371044636
102	0xbf528663a0000000	-0.0011306736851111054
103	0x3f592ac2a0000000	0.0015360737452283502
104	0x3f7280a4e0000000	0.004517215769737959
105	0x3f7ec6b060000000	0.007513703312724829
106	0x3f8586e5a0000000	0.010511201806366444
107	0x3f8b9486e0000000	0.01346688624471426
108	0x3f90b6d160000000	0.016322394832968712
109	0x3f938a4540000000	0.019082147628068924
110	0x3f964201e0000000	0.02173617295920849
111	0x3f98d91240000000	0.024265561252832413
112	0x3f9b498ca0000000	0.02664775587618351
113	0x3f9da54660000000	0.028950786218047142
114	0x3fa00877e0000000	0.031314607709646225
115	0x3fa14291a0000000	0.03371100500226021
116	0x3fa273c160000000	0.03603939339518547
117	0x3fa3918640000000	0.0382196381688118
118	0x3fa4995e00000000	0.04023259878158569
119	0x3fa5888e40000000	0.04205746203660965
120	0x3fa65832e0000000	0.043641652911901474
121	0x3fa7041ee0000000	0.04495331272482872
122	0x3fa78d2dc0000000	0.04599898308515549
123	0x3fa7fdae80000000	0.0468573123216629
124	0x3fa8573660000000	0.04754037782549858
125	0x3fa896eb80000000	0.0480264276266098
126	0x3fa8b7d000000000	0.04827737808227539
127	0x3fa8bfa420000000	0.04833710566163063
128	0x3fa8b41680000000	0.04824896156787872
129	0x3fa89c8f20000000	0.04806945100426674
130	0x3fa87ff700000000	0.04785129427909851
131	0x3fa865fa40000000	0.04765302687883377
132	0x3fa84ea020000000	0.04747486487030983
133	0x3fa835d6e0000000	0.047285761684179306
134	0x3fa81c86a0000000	0.047092635184526443
135	0x3fa804f380000000	0.046912774443626404
136	0x3fa7f0d540000000	0.046759285032749176
137	0x3fa7e120c0000000	0.04663946479558945
138	0x3fa7d60880000000	0.046554818749427795
139	0x3fa7cde4a0000000	0.04649271443486214
140	0x3fa7c92300000000	0.04645642638206482
141	0x3fa7c7cc00000000	0.04644620418548584
142	0x3fa7cb0640000000	0.04647082835435867
143	0x3fa7d2ac40000000	0.04652918130159378
144	0x3fa7dee240000000	0.046622343361377716
145	0x3fa7ec4e40000000	0.04672474414110184
146	0x3fa7f74440000000	0.04680836945772171
147	0x3fa7feac80000000	0.04686488211154938
148	0x3fa8057000000000	0.04691648483276367
149	0x3fa80d73a0000000	0.04697762802243233
150	0x3fa8149800000000	0.04703211784362793
151	0x3fa81714a0000000	0.047051090747117996
152	0x3fa813c400000000	0.04702579975128174
153	0x3fa80d29c0000000	0.046975426375865936
154	0x3fa80408e0000000	0.04690578207373619
155	0x3fa7f7b660000000	0.046811770647764206
156	0x3fa7e780e0000000	0.046688105911016464
157	0x3fa7d506e0000000	0.046547140926122665
158	0x3fa7c19dc0000000	0.04639904946088791
159	0x3fa7ae8480000000	0.04625333845615387
160	0x3fa79db3c0000000	0.04612504690885544
161	0x3fa78db540000000	0.04600302129983902
162	0x3fa77b3de0000000	0.04586213454604149
163	0x3fa7627520000000	0.04567304626107216
164	0x3fa7418280000000	0.045421674847602844
165	0x3fa718a420000000	0.04510987177491188
166	0x3fa6e970e0000000	0.04474976286292076
167	0x3fa6b1b320000000	0.044324491173028946
168	0x3fa66dcbc0000000	0.04380642622709274
169	0x3fa619b9c0000000	0.043165020644664764
170	0x3fa5b50bc0000000	0.042396895587444305
171	0x3fa541ac00000000	0.041516661643981934
172	0x3fa4c2d540000000	0.040548957884311676
173	0x3fa43550e0000000	0.039469268172979355
174	0x3fa39335a0000000	0.03823249414563179
175	0x3fa2d85c80000000	0.03680695593357086
176	0x3fa1ffd8c0000000	0.03515508025884628
177	0x3fa10ad200000000	0.033285677433013916
178	0x3f9ff224a0000000	0.031197139993309975
179	0x3f9d99b2a0000000	0.028906622901558876
180	0x3f9b1113c0000000	0.026432331651449203
181	0x3f986c7020000000	0.02385115809738636
182	0x3f95b90800000000	0.021213650703430176
183	0x3f92ff3a00000000	0.018551737070083618
184	0x3f90411160000000	0.015873214229941368
185	0x3f8b039c20000000	0.013190479017794132
186	0x3f859bb5e0000000	0.010550900362432003
187	0x3f7d7f6420000000	0.007201567757874727
188	0x3f6f3e9520000000	0.003814021358266473
189	0x3f4133cba0000000	0.0005249733221717179
190	0xbf65c40260000000	-0.002656941069290042
191	0xbf771827c0000000	-0.005638270638883114
192	0xbf812aa060000000	-0.008382084779441357
193	0xbf8659f9c0000000	-0.010913802310824394
194	0xbf8b23a680000000	-0.013251591473817825
195	0xbf8f766d40000000	-0.015362599864602089
196	0xbf91a2a6e0000000	-0.017222030088305473
197	0xbf934b88c0000000	-0.018842827528715134
198	0xbf94ab0080000000	-0.020183570683002472
199	0xbf95c0c4a0000000	-0.02124316431581974
200	0xbf969214e0000000	-0.02204163186252117
201	0xbf971cf280000000	-0.022571362555027008
202	0xbf975ad720000000	-0.022807465866208076
203	0xbf974dd0c0000000	-0.02275777980685234
204	0xbf970043a0000000	-0.022461945191025734
205	0xbf967e1d20000000	-0.02196546085178852
206	0xbf95c63e40000000	-0.021264050155878067
207	0xbf94e13120000000	-0.020390288904309273
208	0xbf93d55b20000000	-0.019368575885891914
209	0xbf92ae3920000000	-0.01824273355305195
210	0xbf91718880000000	-0.017034657299518585
211	0xbf90291a60000000	-0.015781795606017113
212	0xbf8db66420000000	-0.014508039690554142
213	0xbf8b1dccc0000000	-0.013240432366728783
214	0xbf88984020000000	-0.012009144760668278
215	0xbf8633dfa0000000	-0.010841128416359425
216	0xbf83f81a00000000	-0.00975055992603302
217	0xbf81e87200000000	-0.00874413549900055
218	0xbf800bd2e0000000	-0.007835051976144314
219	0xbf7cc76a40000000	-0.007026114501059055
220	0xbf79d93cc0000000	-0.006310689263045788
221	0xbf773fb660000000	-0.005675995256751776
222	0xbf74f457a0000000	-0.005115835461765528
223	0xbf72f89800000000	-0.004631608724594116
224	0xbf71441520000000	-0.00421531917527318
225	0xbf6fa3bbc0000000	-0.0038622538559138775
226	0xbf6d6d5ea0000000	-0.0035921905655413866
227	0xbf6beba760000000	-0.003408266929909587
228	0x3f2e7394a0000000	0.0002323264052392915
229	0x3f2e7394a0000000	0.0002323264052392915
230	0x3f1cffbde0000000	0.0001106223717215471
231	0x3f11aa7b40000000	6.739022501278669e-05
232	0x3f1d69a960000000	0.00011220070155104622
233	0x3f2a9054c0000000	0.00020266565843485296
234	0x3f34d3d4a0000000	0.0003178018669132143
235	0x3f3e57dd80000000	0.0004630008479580283
236	0x3f46e770c0000000	0.0006989765679463744
237	0x3f52256940000000	0.001107552321627736
238	0x3f5a67ce60000000	0.0016116633778437972
239	0x3f61b6edc0000000	0.0021624225191771984
240	0x3f664ed540000000	0.0027231373824179173
241	0x3f6ade1520000000	0.0032797253224998713
242	0x3f6f5eb860000000	0.003829345805570483
243	0x3f71a03740000000	0.00430318433791399
244	0x3f732f86e0000000	0.004683997016400099
245	0x3f74441d80000000	0.00494777224957943
246	0x3f74b5e680000000	0.005056286230683327
247	0x3f74d4f1a0000000	0.005085891578346491
248	0x3f754982a0000000	0.005197057966142893
249	0x3f764a8fa0000000	0.005442200694233179
250	0x3f77d58160000000	0.005818848963826895
251	0x3f798b9340000000	0.006236624903976917
252	0x3f7b23a340000000	0.006625783629715443
253	0x3f7c5c92e0000000	0.006924222689121962
254	0x3f7d16df20000000	0.007101890165358782
255	0x3f7d5cb4e0000000	0.007168489973992109
