data/mixamo/36_800_24/train/PARASITE_L_STARKIE/Weight_Shift/Weight_Shift.npy (npy, 82208 bytes, 1 tensors)

array f8 [15, 3, 228]
-0.003000842873007059 -0.003000842873007059 -0.004382987506687641 -0.006243973970413208 -0.008012182079255581 -0.010022141970694065 -0.012460065074265003 -0.015250105410814285
-0.018261587247252464 -0.02092782035470009 -0.02303854003548622 -0.024891367182135582 -0.02671152539551258 -0.028555935248732567 -0.03032911755144596 -0.03206462040543556
-0.033899273723363876 -0.03587029501795769 -0.0382661297917366 -0.04139350727200508 -0.045485034584999084 -0.050522588193416595 -0.05651063472032547 -0.06296533346176147
-0.06935303658246994 -0.07542965561151505 -0.08109758794307709 -0.0862659439444542 -0.09079200774431229 -0.09470020234584808 -0.09797435253858566 -0.10069303214550018
-0.10287797451019287 -0.10459301620721817 -0.10580036044120789 -0.10646664351224899 -0.10659739375114441 -0.1064130887389183 -0.10586583614349365 -0.10495192557573318
-0.1037924662232399 -0.10250476002693176 -0.10113426297903061 -0.09976862370967865 -0.09850962460041046 -0.09743347764015198 -0.09662331640720367 -0.0960804894566536
-0.09583096206188202 -0.09584131836891174 -0.09609920531511307 -0.09653964638710022 -0.09711061418056488 -0.09772823005914688 -0.09835591167211533 -0.0989549309015274
-0.09947453439235687 -0.09986885637044907 -0.10011905431747437 -0.10027109086513519 -0.10035732388496399 -0.10044574737548828 -0.10056548565626144 -0.10066472738981247
-0.10069313645362854 -0.10061057657003403 -0.10040067136287689 -0.10011417418718338 -0.09972582757472992 -0.09920436888933182 -0.09857873618602753 -0.09788278490304947
-0.09715807437896729 -0.09645254164934158 -0.09578221291303635 -0.09511801600456238 -0.09451938420534134 -0.09404714405536652 -0.09370245039463043 -0.09341731667518616
-0.09315914660692215 -0.09278798848390579 -0.09213493019342422 -0.09115861356258392 -0.089814193546772 -0.08803509175777435 -0.08584009110927582 -0.08334562927484512
-0.08042393624782562 -0.07707566767930984 -0.07343807816505432 -0.06944382190704346 -0.0649821013212204 -0.060072626918554306 -0.05493604391813278 -0.0496952086687088
-0.04428461566567421 -0.03795524686574936 -0.031122934073209763 -0.0239704679697752 -0.0164580550044775 -0.008960098028182983 -0.00132981117349118 0.00603221682831645
0.014093207195401192 0.022122222930192947 0.03001062013208866 0.03759651258587837 0.0446610189974308 0.05124850198626518 0.05742105841636658 0.06319568306207657
0.06876332312822342 0.07458382099866867 0.08128922432661057 0.08860765397548676 0.09601257741451263 0.10305461287498474 0.10957624018192291 0.11548982560634613
0.12055133283138275 0.12473037093877792 0.12814566493034363 0.13104897737503052 0.13340792059898376 0.1350691169500351 0.13586129248142242 0.13596782088279724
0.1355804055929184 0.13489222526550293 0.13407514989376068 0.1333361715078354 0.13266801834106445 0.13194765150547028 0.1311975121498108 0.130483940243721
0.12984821200370789 0.1293090283870697 0.12887145578861237 0.1285068839788437 0.12824290990829468 0.12809248268604279 0.1280943900346756 0.1282394975423813
0.12852735817432404 0.12886549532413483 0.1291448324918747 0.12932796776294708 0.12951087951660156 0.12976059317588806 0.13001924753189087 0.13016155362129211
0.130147784948349 0.13005276024341583 0.12989915907382965 0.12965607643127441 0.12930123507976532 0.12888894975185394 0.12846550345420837 0.12806905806064606
0.12776143848896027 0.12750232219696045 0.1271923929452896 0.1267346888780594 0.12611517310142517 0.1253708451986313 0.12457671761512756 0.1236671581864357
0.122527576982975 0.12103933840990067 0.11921168863773346 0.11710429936647415 0.1148214340209961 0.11227653175592422 0.10936956107616425 0.10608650743961334
0.10228308290243149 0.09792061895132065 0.0929480716586113 0.08736573159694672 0.081178680062294 0.0746302530169487 0.06786879152059555 0.06096775829792023
0.05392594262957573 0.04677100107073784 0.03963395580649376 0.030454041436314583 0.0210878886282444 0.011833222582936287 0.0026356338057667017 -0.006057816557586193
-0.014084432274103165 -0.021539121866226196 -0.028501085937023163 -0.03480391576886177 -0.0404202938079834 -0.04538442939519882 -0.04955489933490753 -0.05290285125374794
-0.055628761649131775 -0.057645685970783234 -0.05880642682313919 -0.05907224491238594 -0.05854529142379761 -0.05737188830971718 -0.05556119233369827 -0.05321446433663368
-0.0503886342048645 -0.04721491411328316 -0.04374917224049568 -0.04009697958827019 -0.036334216594696045 -0.0325670950114727 -0.028921497985720634 -0.025498012080788612
-0.022316982969641685 -0.01937854290008545 -0.016711493954062462 -0.014320297166705132 -0.012180590070784092 -0.010261042974889278 -0.00853912252932787 -0.007011646404862404
-0.0056545911356806755 -0.00448619807139039 -0.0035994581412523985 -0.0030008512549102306 -0.03141423687338829 -0.03141423687338829 -0.03182001784443855 -0.03188002109527588
-0.03157550469040871 -0.031112201511859894 -0.03058709017932415 -0.02995307929813862 -0.028970159590244293 -0.02735358290374279 -0.025436535477638245 -0.0233955979347229
-0.021363230422139168 -0.0193937961012125 -0.01751808449625969 -0.015883533284068108 -0.014551868662238121 -0.013607468456029892 -0.013126160949468613 -0.012784577906131744
-0.012101683765649796 -0.010983461514115334 -0.009532789699733257 -0.008018597029149532 -0.0065887197852134705 -0.005436538252979517 -0.004727385006844997 -0.004463356453925371
00000000: 0000 0040 3995 68bf 0000 0040 3995 68bf
00000010: 0000 0040 e5f3 71bf 0000 0000 4893 79bf
00000020: 0000 00e0 b068 80bf 0000 0020 7d86 84bf
00000030: 0000 00a0 a984 89bf 0000 0080 723b 8fbf
00000040: 0000 0060 2ab3 92bf 0000 0040 1a6e 95bf
00000050: 0000 0040 6a97 97bf 0000 0060 1f7d 99bf
00000060: 0000 0020 445a 9bbf 0000 0060 c43d 9dbf
00000070: 0000 00a0 980e 9fbf 0000 0020 c66a a0bf
00000080: 0000 00e0 3e5b a1bf 0000 0060 975d a2bf
00000090: 0000 0040 9e97 a3bf 0000 00a0 8731 a5bf
000000a0: 0000 0080 d049 a7bf 0000 00c0 18de a9bf
000000b0: 0000 0040 f6ee acbf 0000 0000 7f1e b0bf
000000c0: 0000 00e0 1ec1 b1bf 0000 00a0 5b4f b3bf
000000d0: 0000 00c0 cfc2 b4bf 0000 0060 8615 b6bf
000000e0: 0000 0020 253e b7bf 0000 00c0 453e b8bf
000000f0: 0000 00e0 d814 b9bf 0000 00c0 04c7 b9bf
00000100: 0000 0000 3656 babf 0000 00a0 9bc6 babf
00000110: 0000 0080 bb15 bbbf 0000 00e0 6541 bbbf
00000120: 0000 0080 f749 bbbf 0000 0060 e33d bbbf
00000130: 0000 0000 061a bbbf 0000 0020 21de babf
00000140: 0000 00a0 2492 babf 0000 0080 c03d babf
00000150: 0000 0060 efe3 b9bf 0000 00c0 6f8a b9bf
00000160: 0000 0040 ed37 b9bf 0000 0080 66f1 b8bf
00000170: 0000 0040 4ebc b8bf 0000 0020 bb98 b8bf
00000180: 0000 00c0 6088 b8bf 0000 0080 0e89 b8bf
00000190: 0000 0020 f599 b8bf 0000 0080 d2b6 b8bf
000001a0: 0000 00c0 3ddc b8bf 0000 00a0 b704 b9bf
000001b0: 0000 0060 da2d b9bf 0000 0040 1c55 b9bf
000001c0: 0000 00c0 2977 b9bf 0000 0060 0191 b9bf
000001d0: 0000 0000 67a1 b9bf 0000 00c0 5dab b9bf
000001e0: 0000 0080 04b1 b9bf 0000 0000 d0b6 b9bf
000001f0: 0000 00e0 a8be b9bf 0000 00e0 29c5 b9bf
00000200: 0000 0080 06c7 b9bf 0000 0060 9dc1 b9bf
00000210: 0000 00c0 dbb3 b9bf 0000 0020 15a1 b9bf
00000220: 0000 00c0 a187 b9bf 0000 0020 7565 b9bf
00000230: 0000 00c0 743c b9bf 0000 00a0 d80e b9bf
00000240: 0000 0000 5adf b8bf 0000 0020 1db1 b8bf
00000250: 0000 00e0 2e85 b8bf 0000 0080 a759 b8bf
00000260: 0000 0020 6c32 b8bf 0000 0040 7913 b8bf
00000270: 0000 0040 e2fc b7bf 0000 0080 32ea b7bf
00000280: 0000 0020 47d9 b7bf 0000 0020 f4c0 b7bf
00000290: 0000 00a0 2796 b7bf 0000 00c0 2b56 b7bf
000002a0: 0000 0020 10fe b6bf 0000 00c0 7789 b6bf
000002b0: 0000 00c0 9df9 b5bf 0000 00a0 2356 b5bf
000002c0: 0000 00c0 a996 b4bf 0000 0020 3bbb b3bf
000002d0: 0000 0080 d6cc b2bf 0000 0000 12c7 b1bf
000002e0: 0000 00c0 aaa2 b0bf 0000 00e0 d6c1 aebf
000002f0: 0000 00c0 9320 acbf 0000 0080 a671 a9bf
00000300: 0000 0020 79ac a6bf 0000 00c0 de6e a3bf
00000310: 0000 00c0 b0de 9fbf 0000 00e0 b68b 98bf
00000320: 0000 0060 61da 90bf 0000 0000 ac59 82bf
00000330: 0000 00e0 a1c9 55bf 0000 00e0 3cb5 783f
00000340: 0000 0040 e6dc 8c3f 0000 0040 35a7 963f
00000350: 0000 00a0 1abb 9e3f 0000 00a0 d93f a33f
00000360: 0000 0020 cfdd a63f 0000 0060 3e3d aa3f
00000370: 0000 0000 4b66 ad3f 0000 00a0 972d b03f
00000380: 0000 0020 799a b13f 0000 00e0 ec17 b33f
00000390: 0000 00e0 5ecf b43f 0000 00c0 fdae b63f
000003a0: 0000 00c0 4794 b83f 0000 0080 c961 ba3f
000003b0: 0000 0040 300d bc3f 0000 00c0 bd90 bd3f
000003c0: 0000 00c0 73dc be3f 0000 0060 54ee bf3f
000003d0: 0000 00c0 1367 c03f 0000 0080 36c6 c03f
000003e0: 0000 00c0 8213 c13f 0000 00e0 f149 c13f
000003f0: 0000 0020 e763 c13f 0000 00c0 6467 c13f
00000400: 0000 00e0 b25a c13f 0000 0000 2644 c13f
00000410: 0000 00e0 5f29 c13f 0000 00e0 2811 c13f
00000420: 0000 0000 44fb c03f 0000 0020 a9e3 c03f
00000430: 0000 0080 14cb c03f 0000 00a0 b2b3 c03f
00000440: 0000 00c0 dd9e c03f 0000 00c0 328d c03f
00000450: 0000 0020 dc7e c03f 0000 00e0 e972 c03f
00000460: 0000 0080 436a c03f 0000 00a0 5565 c03f
00000470: 0000 00a0 6565 c03f 0000 00e0 266a c03f
00000480: 0000 00a0 9573 c03f 0000 0020 aa7e c03f
00000490: 0000 0060 d187 c03f 0000 00a0 d18d c03f
000004a0: 0000 0000 d093 c03f 0000 00c0 fe9b c03f
000004b0: 0000 0080 78a4 c03f 0000 0040 22a9 c03f
000004c0: 0000 00c0 aea8 c03f 0000 00a0 91a5 c03f
000004d0: 0000 0020 89a0 c03f 0000 0000 9298 c03f
000004e0: 0000 0060 f18c c03f 0000 00e0 6e7f c03f
000004f0: 0000 00c0 8e71 c03f 0000 0020 9164 c03f
00000500: 0000 00a0 7c5a c03f 0000 0000 ff51 c03f
00000510: 0000 0020 d747 c03f 0000 00a0 d738 c03f
00000520: 0000 00c0 8a24 c03f 0000 00e0 260c c03f
00000530: 0000 0080 42e4 bf3f 0000 00a0 a6a8 bf3f
00000540: 0000 00a0 f75d bf3f 0000 0020 6ffc be3f
00000550: 0000 0040 a884 be3f 0000 0020 8cfa bd3f
00000560: 0000 0000 f064 bd3f 0000 00a0 27be bc3f
00000570: 0000 00c0 a4ff bb3f 0000 0040 7c28 bb3f
00000580: 0000 0060 392f ba3f 0000 0060 5311 b93f
00000590: 0000 00e0 71cb b73f 0000 00c0 995d b63f
000005a0: 0000 0040 20c8 b43f 0000 00e0 f71a b33f
000005b0: 0000 0060 d95f b13f 0000 0080 2a37 af3f
000005c0: 0000 0060 2e9c ab3f 0000 0060 5ef2 a73f
000005d0: 0000 00e0 e64a a43f 0000 0020 582f 9f3f
000005e0: 0000 0040 1098 953f 0000 0040 043c 883f
000005f0: 0000 0020 5397 653f 0000 00c0 14d0 78bf
00000600: 0000 0080 4cd8 8cbf 0000 0000 5a0e 96bf
00000610: 0000 0080 632f 9dbf 0000 00a0 d1d1 a1bf
00000620: 0000 0000 f8b1 a4bf 0000 00c0 a03c a7bf
00000630: 0000 0080 425f a9bf 0000 0020 1516 abbf
00000640: 0000 0080 5f7b acbf 0000 0040 bc83 adbf
00000650: 0000 0040 e01b aebf 0000 00a0 b73e aebf
00000660: 0000 0000 a6f9 adbf 0000 0020 d95f adbf
00000670: 0000 0040 8472 acbf 0000 0020 ed3e abbf
00000680: 0000 0000 8acc a9bf 0000 00a0 8d2c a8bf
00000690: 0000 00a0 4a66 a6bf 0000 0060 9787 a4bf
000006a0: 0000 0000 669a a2bf 0000 0060 a2ac a0bf
000006b0: 0000 00e0 989d 9dbf 0000 00a0 261c 9abf
000006c0: 0000 0060 43da 96bf 0000 0000 f8d7 93bf
000006d0: 0000 0060 d11c 91bf 0000 00c0 f553 8dbf
000006e0: 0000 0020 23f2 88bf 0000 00e0 bd03 85bf
000006f0: 0000 00a0 f57c 81bf 0000 0080 3eb8 7cbf
00000700: 0000 00c0 4429 77bf 0000 00a0 1e60 72bf
00000710: 0000 0060 9c7c 6dbf 0000 00c0 3d95 68bf
00000720: 0000 00e0 8615 a0bf 0000 00e0 8615 a0bf
00000730: 0000 00a0 b64a a0bf 0000 0000 9452 a0bf
00000740: 0000 0020 aa2a a0bf 0000 0080 e0db 9fbf
00000750: 0000 00e0 3852 9fbf 0000 0020 05ac 9ebf
00000760: 0000 0080 5aaa 9dbf 0000 00e0 9302 9cbf
00000770: 0000 0000 090c 9abf 0000 0000 04f5 97bf
00000780: 0000 0020 3ee0 95bf 0000 00a0 f7db 93bf
00000790: 0000 00c0 42f0 91bf 0000 00e0 c543 90bf
000007a0: 0000 00c0 5ecd 8dbf 0000 0080 3bde 8bbf
000007b0: 0000 0080 e3e1 8abf 0000 0000 cd2e 8abf
000007c0: 0000 0080 c4c8 88bf 0000 0040 7f7e 86bf
000007d0: 0000 0060 ed85 83bf 0000 00e0 0d6c 80bf
000007e0: 0000 0000 c6fc 7abf 0000 00a0 9f44 76bf
000007f0: 0000 00c0 055d 73bf 0000 0020 2b48 72bf
