data/mixamo/36_800_24/train/DOUGLAS/Weight_Shift/Weight_Shift.npy (npy, 82208 bytes, 1 tensors)

array f8 [15, 3, 228]
0	0xbf3b7c1d60000000	-0.00041938512003980577
1	0xbf3b7c1d60000000	-0.00041938512003980577
2	0xbf5c73cf00000000	-0.001736595295369625
3	0xbf6cb52240000000	-0.003504340071231127
4	0xbf7521de00000000	-0.005159251391887665
5	0xbf7cbcb360000000	-0.007015896495431662
6	0xbf82faaa80000000	-0.0092671699821949
7	0xbf885143c0000000	-0.011873750016093254
8	0xbf8e2bc320000000	-0.014731907285749912
9	0xbf91c3d8c0000000	-0.01734865829348564
10	0xbf93edea40000000	-0.019462261348962784
11	0xbf95dcd680000000	-0.02135024219751358
12	0xbf97c9d600000000	-0.02323088049888611
13	0xbf99c7fe40000000	-0.02517697587609291
14	0xbf9bc27aa0000000	-0.027109066024422646
15	0xbf9dbc4fa0000000	-0.02903866209089756
16	0xbf9fccb8c0000000	-0.031054388731718063
17	0xbfa0f80420000000	-0.03314221277832985
18	0xbfa226b880000000	-0.03545166552066803
19	0xbfa38bd7a0000000	-0.0381762869656086
20	0xbfa5475ca0000000	-0.04156007245182991
21	0xbfa75af680000000	-0.04561586678028107
22	0xbfa9d28ca0000000	-0.05043448880314827
23	0xbfac86ac80000000	-0.05571497976779938
24	0xbfaf42eee0000000	-0.06105753406882286
25	0xbfb0f121e0000000	-0.06617938727140427
26	0xbfb228d380000000	-0.07093545794487
27	0xbfb341a500000000	-0.07522040605545044
28	0xbfb433b120000000	-0.07891375571489334
29	0xbfb501e9e0000000	-0.08206044882535934
30	0xbfb5adade0000000	-0.08468138426542282
31	0xbfb63ea920000000	-0.08689362555742264
32	0xbfb6b75300000000	-0.08873480558395386
33	0xbfb7189840000000	-0.09021903574466705
34	0xbfb75db540000000	-0.09127362072467804
35	0xbfb7838360000000	-0.09185048192739487
36	0xbfb78b4080000000	-0.09196856617927551
37	0xbfb7823ba0000000	-0.09183094650506973
38	0xbfb7665280000000	-0.09140506386756897
39	0xbfb736a840000000	-0.09067775309085846
40	0xbfb6f986a0000000	-0.08974496275186539
41	0xbfb6b5a080000000	-0.08870890736579895
42	0xbfb66d6840000000	-0.08760692179203033
43	0xbfb6252200000000	-0.08650410175323486
44	0xbfb5e18840000000	-0.08547259867191315
45	0xbfb5a6d0e0000000	-0.08457665890455246
46	0xbfb57a5840000000	-0.08389808237552643
47	0xbfb55cb4c0000000	-0.08344583213329315
48	0xbfb54eb1e0000000	-0.08323203772306442
49	0xbfb54e11e0000000	-0.08322250097990036
50	0xbfb55a8c40000000	-0.08341290056705475
51	0xbfb5711dc0000000	-0.08375726640224457
52	0xbfb58efda0000000	-0.08421311527490616
53	0xbfb5af55c0000000	-0.08470664918422699
54	0xbfb5cfdac0000000	-0.08520285785198212
55	0xbfb5eee020000000	-0.08567620068788528
56	0xbfb60a4e40000000	-0.08609475195407867
57	0xbfb61fc960000000	-0.08642252534627914
58	0xbfb62e12e0000000	-0.08664052933454514
59	0xbfb63760a0000000	-0.08678249269723892
60	0xbfb63d5ba0000000	-0.08687374740839005
61	0xbfb6434160000000	-0.08696373552083969
62	0xbfb64a5b20000000	-0.08707208186388016
63	0xbfb64ff200000000	-0.08715736865997314
64	0xbfb65149a0000000	-0.08717785030603409
65	0xbfb64c5520000000	-0.0871022418141365
66	0xbfb6403680000000	-0.08691731095314026
67	0xbfb62f7600000000	-0.086661696434021
68	0xbfb618f760000000	-0.08631845563650131
69	0xbfb5fbbf00000000	-0.0858725905418396
70	0xbfb5d92360000000	-0.08534451574087143
71	0xbfb5b24c00000000	-0.08475184440612793
72	0xbfb5893540000000	-0.08412487804889679
73	0xbfb5604200000000	-0.08350002765655518
74	0xbfb5385b80000000	-0.08289119601249695
75	0xbfb510aa40000000	-0.08228553831577301
76	0xbfb4ebeda0000000	-0.08172497898340225
77	0xbfb4cc7a00000000	-0.0812450647354126
78	0xbfb4b280a0000000	-0.08084873110055923
79	0xbfb49acde0000000	-0.08048712462186813
80	0xbfb483b360000000	-0.08013459295034409
81	0xbfb46677a0000000	-0.07968852669000626
82	0xbfb43b1560000000	-0.07902654260396957
83	0xbfb3fddf40000000	-0.0780925303697586
84	0xbfb3aa8fc0000000	-0.07682131230831146
85	0xbfb33e7d20000000	-0.07517225295305252
86	0xbfb2bb9700000000	-0.07317489385604858
87	0xbfb2273040000000	-0.07091046869754791
88	0xbfb17a5b20000000	-0.06827325373888016
89	0xbfb0b32840000000	-0.06523372232913971
90	0xbfafab7d60000000	-0.06185523793101311
91	0xbfadc2ca80000000	-0.05812676250934601
92	0xbfaba46d60000000	-0.053988855332136154
93	0xbfa958b120000000	-0.04950479045510292
94	0xbfa6f1f4a0000000	-0.04481472447514534
95	0xbfa471eee0000000	-0.03993174061179161
96	0xbfa1d153e0000000	-0.03480016812682152
97	0xbf9d806ea0000000	-0.02881024219095707
98	0xbf96e6a1e0000000	-0.022364167496562004
99	0xbf8fffe140000000	-0.015624770894646645
100	0xbf8185d1e0000000	-0.008556022308766842
101	0xbf5781ec80000000	-0.0014347848482429981
102	0x3f77ac8040000000	0.005779744125902653
103	0x3f8a3b2080000000	0.012808088213205338
104	0x3f9502a300000000	0.020517870783805847
105	0x3f9cd9ace0000000	0.02817411534488201
106	0x3fa2446760000000	0.03567812964320183
107	0x3fa5fa4ce0000000	0.042925264686346054
108	0x3fa97ad260000000	0.04976518079638481
109	0x3facc9dc00000000	0.05622756481170654
110	0x3fafdfeee0000000	0.06225534901022911
111	0x3fb15c1fc0000000	0.06781195104122162
112	0x3fb2b31760000000	0.07304521650075912
113	0x3fb40fd920000000	0.07836682349443436
114	0x3fb5928c20000000	0.08426738530397415
115	0x3fb7303140000000	0.09057910740375519
116	0x3fb8d3c660000000	0.09698142856359482
117	0x3fba661880000000	0.103120356798172
118	0x3fbbd79540000000	0.10875828564167023
119	0x3fbd221c20000000	0.11380172520875931
120	0x3fbe3d6160000000	0.1181240901350975
121	0x3fbf2a5780000000	0.12173983454704285
122	0x3fbfef8280000000	0.12474837899208069
123	0x3fc04d5880000000	0.12736040353775024
124	0x3fc095abe0000000	0.12956760823726654
125	0x3fc0cc6dc0000000	0.1312386691570282
126	0x3fc0ec7c80000000	0.13221698999404907
127	0x3fc0f9ce40000000	0.13262346386909485
128	0x3fc0f8ee20000000	0.13259674608707428
129	0x3fc0ef65c0000000	0.1323058307170868
130	0x3fc0e247a0000000	0.13190551102161407
131	0x3fc0d709e0000000	0.13156245648860931
132	0x3fc0cd2b60000000	0.13126127421855927
133	0x3fc0c13620000000	0.13089634478092194
134	0x3fc0b37dc0000000	0.130477637052536
135	0x3fc0a5b400000000	0.13005685806274414
136	0x3fc098db80000000	0.1296648383140564
137	0x3fc08db1c0000000	0.12932416796684265
138	0x3fc0848ac0000000	0.12904486060142517
139	0x3fc07cbae0000000	0.1288064569234848
140	0x3fc0769320000000	0.12861861288547516
141	0x3fc07250a0000000	0.12848861515522003
142	0x3fc0715520000000	0.128458634018898
143	0x3fc073d1c0000000	0.12853452563285828
144	0x3fc079c440000000	0.12871602177619934
145	0x3fc080a460000000	0.1289258450269699
146	0x3fc08598e0000000	0.12907706201076508
147	0x3fc087a2c0000000	0.1291392743587494
148	0x3fc08969e0000000	0.1291935294866562
149	0x3fc08d48c0000000	0.12931165099143982
150	0x3fc091ec40000000	0.12945321202278137
151	0x3fc093ab20000000	0.12950648367404938
152	0x3fc0912640000000	0.12942960858345032
153	0x3fc08c6180000000	0.1292840838432312
154	0x3fc08641c0000000	0.12909719347953796
155	0x3fc07e2620000000	0.12884975969791412
156	0x3fc0735fc0000000	0.1285209357738495
157	0x3fc066ea40000000	0.12814071774482727
158	0x3fc0599a00000000	0.12773442268371582
159	0x3fc04c5b60000000	0.1273302286863327
160	0x3fc0409d20000000	0.12697185575962067
161	0x3fc0352c60000000	0.12662272155284882
162	0x3fc0278da0000000	0.12620706856250763
163	0x3fc01554e0000000	0.12565098702907562
164	0x3fbffbb940000000	0.12493474781513214
165	0x3fbfc38120000000	0.12407691031694412
166	0x3fbf84fa00000000	0.12312281131744385
167	0x3fbf3ca7c0000000	0.12201927602291107
168	0x3fbee511e0000000	0.12068282812833786
169	0x3fbe77b980000000	0.11901435256004333
170	0x3fbdf32600000000	0.11699140071868896
171	0x3fbd599a00000000	0.11464846134185791
172	0x3fbcb060e0000000	0.11206632107496262
173	0x3fbbf34580000000	0.10918077826499939
174	0x3fbb1c6780000000	0.10590216517448425
175	0x3fba2c2820000000	0.10223627835512161
176	0x3fb91c66e0000000	0.09808962792158127
177	0x3fb7ebb0e0000000	0.09344010800123215
178	0x3fb6973a80000000	0.08824506402015686
179	0x3fb51f1dc0000000	0.08250604569911957
180	0x3fb3853640000000	0.07625140249729156
181	0x3fb1d85a00000000	0.06970751285552979
182	0x3fb021dc40000000	0.06301666796207428
183	0x3faccc54a0000000	0.05624641850590706
184	0x3fa94bbd40000000	0.04940596967935562
185	0x3fa5c4bb60000000	0.042516570538282394
186	0x3fa246a0c0000000	0.03569509834051132
187	0x3f9b8732a0000000	0.026882926002144814
188	0x3f925f2d40000000	0.017941195517778397
189	0x3f82e4c8a0000000	0.009225432761013508
190	0x3f47c27cc0000000	0.0007250889902934432
191	0xbf7d83bca0000000	-0.007205712143331766
192	0xbf8d8f3640000000	-0.01443331129848957
193	0xbf95980fa0000000	-0.021087879315018654
194	0xbf9be419e0000000	-0.02723732404410839
195	0xbfa0c44f80000000	-0.03274773061275482
196	0xbfa339adc0000000	-0.03754942864179611
197	0xbfa557b700000000	-0.0416848361492157
198	0xbfa7149a40000000	-0.0450790598988533
199	0xbfa872d9c0000000	-0.04775124043226242
200	0xbfa9790400000000	-0.0497514009475708
201	0xbfaa263f60000000	-0.05107305571436882
202	0xbfaa710640000000	-0.05164355784654617
203	0xbfaa58eba0000000	-0.0514596588909626
204	0xbfa9ea7260000000	-0.05061681196093559
205	0xbfa9384c40000000	-0.04925764352083206
206	0xbfa844a320000000	-0.04739866033196449
207	0xbfa71808c0000000	-0.04510524123907089
208	0xbfa5b880a0000000	-0.04242326691746712
209	0xbfa435f540000000	-0.03947416692972183
210	0xbfa297dda0000000	-0.03631489351391792
211	0xbfa0e95ba0000000	-0.03303037956357002
212	0xbf9e6678a0000000	-0.029687771573662758
213	0xbf9b00d0c0000000	-0.026370298117399216
214	0xbf97b6c0e0000000	-0.023158086463809013
215	0xbf9498e160000000	-0.020114442333579063
216	0xbf91ad52c0000000	-0.017262738198041916
217	0xbf8deee0e0000000	-0.014615780673921108
218	0xbf890519a0000000	-0.012216758914291859
219	0xbf84aba2c0000000	-0.010092994198203087
220	0xbf80db2fa0000000	-0.008230564184486866
221	0xbf7af63b80000000	-0.006582481786608696
222	0xbf74f42d20000000	-0.005115677136927843
223	0xbf6f530d60000000	-0.0038237820845097303
224	0xbf65f07800000000	-0.0026781409978866577
225	0xbf5bb2fcc0000000	-0.0016906231176108122
226	0xbf4ebd9ae0000000	-0.0009381300187669694
227	0xbf3b7b9840000000	-0.00041935412446036935
228	0xbfa434c800000000	-0.03946518898010254
229	0xbfa434c800000000	-0.03946518898010254
230	0xbfa45fe820000000	-0.039794210344552994
231	0xbfa46cfae0000000	-0.03989395126700401
232	0xbfa4586d20000000	-0.03973713889718056
233	0xbfa4320ba0000000	-0.03944431617856026
234	0xbfa4005520000000	-0.03906503692269325
235	0xbfa3c03ce0000000	-0.03857603296637535
236	0xbfa35c9e60000000	-0.03781599923968315
237	0xbfa2b98fc0000000	-0.03657197207212448
238	0xbfa1f49e80000000	-0.03506942093372345
239	0xbfa11ebba0000000	-0.03343759849667549
240	0xbfa044aaa0000000	-0.0317738838493824
241	0xbf9ed53560000000	-0.030110200867056847
242	0xbf9d23c3e0000000	-0.02845674566924572
243	0xbf9badcf40000000	-0.02703021839261055
244	0xbf9a7db420000000	-0.025870146229863167
245	0xbf9999ada0000000	-0.025000298395752907
246	0xbf9915cb60000000	-0.024497201666235924
247	0xbf98bb8660000000	-0.0241528507322073
248	0xbf981d8180000000	-0.02355005592107773
249	0xbf971fae60000000	-0.022581791505217552
250	0xbf95d6ac20000000	-0.02132672257721424
251	0xbf9489c3c0000000	-0.02005678042769432
252	0xbf93679ae0000000	-0.018949909135699272
253	0xbf92986ec0000000	-0.01815960928797722
254	0xbf922b8f40000000	-0.017744291573762894
255	0xbf920725c0000000	-0.017605390399694443
