data/mixamo/36_800_24/train/THE_BOSS/Weight_Shift/Weight_Shift.npy (npy, 82208 bytes, 1 tensors)

array f8 [15, 3, 228]
000000 00 00 00 80 27 9c 72 bf 00 00 00 80 27 9c 72 bf
       -0.004543451592326164 -0.004543451592326164
000010 00 00 00 00 0a 7f 77 bf 00 00 00 60 fe 20 7e bf
       -0.005736388266086578 -0.007355683948844671
000020 00 00 00 a0 4d 32 82 bf 00 00 00 e0 75 bf 85 bf
       -0.008885008282959461 -0.01061908807605505
000030 00 00 00 80 a9 0c 8a bf 00 00 00 00 9a ff 8e bf
       -0.012719463557004929 -0.015135958790779114
000040 00 00 00 60 e2 46 92 bf 00 00 00 00 b0 2e 95 bf
       -0.017848527058959007 -0.020685911178588867
000050 00 00 00 60 67 b6 97 bf 00 00 00 a0 fe 1f 9a bf
       -0.023156752809882164 -0.02551267482340336
000060 00 00 00 a0 72 94 9c bf 00 00 00 60 df 15 9f bf
       -0.027910033240914345 -0.0303568746894598
000070 00 00 00 40 e1 c4 a0 bf 00 00 00 c0 bd 02 a2 bf
       -0.03275207430124283 -0.035177163779735565
000080 00 00 00 00 c5 4e a3 bf 00 00 00 60 5b b2 a4 bf
       -0.037710338830947876 -0.040423255413770676
000090 00 00 00 80 df 49 a6 bf 00 00 00 60 d7 2b a8 bf
       -0.0435323566198349 -0.047209482640028
0000a0 00 00 00 00 6a 6e aa bf 00 00 00 c0 24 fe ac bf
       -0.051623642444610596 -0.05662646144628525
0000b0 00 00 00 a0 1c c5 af bf 00 00 00 80 98 48 b1 bf
       -0.0620507188141346 -0.06751397252082825
0000c0 00 00 00 60 d3 9d b2 bf 00 00 00 a0 b2 da b3 bf
       -0.0727207288146019 -0.077555812895298
0000d0 00 00 00 e0 0e fe b4 bf 00 00 00 40 d0 08 b6 bf
       -0.08200161904096603 -0.08607198297977448
0000e0 00 00 00 60 3d f8 b6 bf 00 00 00 60 d5 cb b7 bf
       -0.08972533792257309 -0.09295400232076645
0000f0 00 00 00 00 7a 7c b8 bf 00 00 00 e0 92 09 b9 bf
       -0.0956493616104126 -0.09780233353376389
000100 00 00 00 a0 83 74 b9 bf 00 00 00 20 4b c4 b9 bf
       -0.09943411499261856 -0.10065145045518875
000110 00 00 00 40 fe f9 b9 bf 00 00 00 c0 41 16 ba bf
       -0.10147084295749664 -0.10190211236476898
000120 00 00 00 a0 1e 1a ba bf 00 00 00 20 93 0f ba bf
       -0.10196105390787125 -0.10180015116930008
000130 00 00 00 a0 bc f3 b9 bf 00 00 00 20 bf c6 b9 bf
       -0.10137537866830826 -0.1006888821721077
000140 00 00 00 e0 69 8f b9 bf 00 00 00 60 29 53 b9 bf
       -0.0998445674777031 -0.09892519563436508
000150 00 00 00 e0 60 13 b9 bf 00 00 00 c0 21 d4 b8 bf
       -0.09795194119215012 -0.09698687493801117
000160 00 00 00 00 ff 9a b8 bf 00 00 00 e0 18 6b b8 bf
       -0.09611505270004272 -0.09538417309522629
000170 00 00 00 60 c7 46 b8 bf 00 00 00 60 d6 2d b8 bf
       -0.0948299989104271 -0.09444942325353622
000180 00 00 00 80 6c 22 b8 bf 00 00 00 40 41 23 b8 bf
       -0.09427526593208313 -0.0942879468202591
000190 00 00 00 c0 53 2f b8 bf 00 00 00 a0 91 43 b8 bf
       -0.09447215497493744 -0.09478101879358292
0001a0 00 00 00 20 31 5e b8 bf 00 00 00 c0 cf 7b b8 bf
       -0.09518725425004959 -0.09563921391963959
0001b0 00 00 00 e0 b1 9a b8 bf 00 00 00 e0 22 b8 b8 bf
       -0.09611045569181442 -0.09655969589948654
0001c0 00 00 00 c0 b8 d0 b8 bf 00 00 00 40 3c e2 b8 bf
       -0.09693484008312225 -0.09720207750797272
0001d0 00 00 00 e0 41 ec b8 bf 00 00 00 00 86 f1 b8 bf
       -0.09735500067472458 -0.0974353551864624
0001e0 00 00 00 c0 eb f2 b8 bf 00 00 00 00 0f f3 b8 bf
       -0.0974566787481308 -0.09745877981185913
0001f0 00 00 00 e0 56 f3 b8 bf 00 00 00 c0 f4 f1 b8 bf
       -0.09746306389570236 -0.09744195640087128
000200 00 00 00 c0 ac ed b8 bf 00 00 00 40 1a e5 b8 bf
       -0.09737662971019745 -0.09724582731723785
000210 00 00 00 20 10 d7 b8 bf 00 00 00 80 8c c5 b8 bf
       -0.0970316007733345 -0.09676435589790344
000220 00 00 00 20 68 af b8 bf 00 00 00 60 f3 92 b8 bf
       -0.09642649441957474 -0.09599228948354721
000230 00 00 00 e0 4e 71 b8 bf 00 00 00 00 54 4c b8 bf
       -0.09547894448041916 -0.09491467475891113
000240 00 00 00 60 ff 25 b8 bf 00 00 00 c0 fd ff b7 bf
       -0.09432979673147202 -0.09374986588954926
000250 00 00 00 80 aa da b7 bf 00 00 00 20 bb b4 b7 bf
       -0.0931803286075592 -0.0926014855504036
000260 00 00 00 20 c3 90 b7 bf 00 00 00 40 e2 70 b7 bf
       -0.0920526459813118 -0.09156621992588043
000270 00 00 00 80 86 54 b7 bf 00 00 00 80 57 38 b7 bf
       -0.09113350510597229 -0.09070345759391785
000280 00 00 00 60 9a 19 b7 bf 00 00 00 40 48 f1 b6 bf
       -0.0902344211935997 -0.08961917459964752
000290 00 00 00 60 01 b8 b6 bf 00 00 00 80 4f 6d b6 bf
       -0.08874519914388657 -0.08760544657707214
0002a0 00 00 00 e0 0a 0f b6 bf 00 00 00 a0 ed 98 b5 bf
       -0.08616703003644943 -0.08436474949121475
0002b0 00 00 00 20 79 05 b5 bf 00 00 00 c0 f0 56 b4 bf
       -0.08211476355791092 -0.07945160567760468
0002c0 00 00 00 40 e8 88 b3 bf 00 00 00 40 79 9e b2 bf
       -0.07630778849124908 -0.07273061573505402
0002d0 00 00 00 00 d0 9f b1 bf 00 00 00 80 cc 8b b0 bf
       -0.06884479522705078 -0.06463316082954407
0002e0 00 00 00 20 1f b8 ae bf 00 00 00 c0 1f 1d ac bf
       -0.05999848619103432 -0.05490969866514206
0002f0 00 00 00 e0 29 64 a9 bf 00 00 00 c0 0c b0 a6 bf
       -0.049592312425374985 -0.04431190341711044
000300 00 00 00 c0 08 05 a4 bf 00 00 00 20 5f 04 a1 bf
       -0.03910090774297714 -0.03323647752404213
000310 00 00 00 00 12 b7 9b bf 00 00 00 60 cb 45 95 bf
       -0.027065545320510864 -0.020774057134985924
000320 00 00 00 40 f8 52 8d bf 00 00 00 e0 3e 4c 80 bf
       -0.014318408444523811 -0.007957926951348782
000330 00 00 00 a0 49 a6 53 bf 00 00 00 e0 88 13 77 3f
       -0.0011993140215054154 0.005633864086121321
000340 00 00 00 20 4d 49 8b 3f 00 00 00 80 be 99 95 3f
       0.01332340482622385 0.021094299852848053
000350 00 00 00 60 b1 9f 9d 3f 00 00 00 20 1f c8 a2 3f
       0.028929492458701134 0.03668305650353432
000360 00 00 00 c0 a0 a1 a6 3f 00 00 00 20 e4 55 aa 3f
       0.04420187324285507 0.05143654718995094
000370 00 00 00 c0 d3 dd ad 3f 00 00 00 80 20 97 b0 3f
       0.058333031833171844 0.0648060142993927
000380 00 00 00 c0 16 30 b2 3f 00 00 00 c0 99 d0 b3 3f
       0.07104627788066864 0.07740174233913422
000390 00 00 00 e0 7c 8e b5 3f 00 00 00 e0 3d 54 b7 3f
       0.08420544117689133 0.09112917631864548
0003a0 00 00 00 c0 ad 04 b9 3f 00 00 00 80 29 90 ba 3f
       0.09772764146327972 0.10376223921775818
0003b0 00 00 00 a0 7b f7 bb 3f 00 00 00 c0 a3 3b bd 3f
       0.10924503952264786 0.11419127881526947
0003c0 00 00 00 e0 f1 52 be 3f 00 00 00 c0 24 3d bf 3f
       0.11845313757658005 0.122026726603508
0003d0 00 00 00 60 5a fb bf 3f 00 00 00 40 c2 49 c0 3f
       0.12492909282445908 0.12725093960762024
0003e0 00 00 00 20 9e 81 c0 3f 00 00 00 c0 8e a5 c0 3f
       0.12895561754703522 0.13005241751670837
0003f0 00 00 00 a0 51 b4 c0 3f 00 00 00 60 69 b3 c0 3f
       0.13050289452075958 0.1304752081632614
000400 00 00 00 c0 d6 a6 c0 3f 00 00 00 80 48 92 c0 3f
       0.13009151816368103 0.12946420907974243
000410 00 00 00 e0 61 79 c0 3f 00 00 00 80 2a 61 c0 3f
       0.12870429456233978 0.1279652714729309
000420 00 00 00 60 45 4a c0 3f 00 00 00 e0 d5 32 c0 3f
       0.12726657092571259 0.12655137479305267
000430 00 00 00 20 5b 1c c0 3f 00 00 00 00 90 08 c0 3f
       0.12586535513401031 0.1252613067626953
000440 00 00 00 80 8f f0 bf 3f 00 00 00 80 16 d7 bf 3f
       0.12476441264152527 0.12437573075294495
000450 00 00 00 00 97 c4 bf 3f 00 00 00 80 01 b7 bf 3f
       0.12409347295761108 0.12388619780540466
000460 00 00 00 80 8f af bf 3f 00 00 00 e0 2a ae bf 3f
       0.12377259135246277 0.12375133484601974
000470 00 00 00 80 26 b4 bf 3f 00 00 00 40 ea c0 bf 3f
       0.12384262681007385 0.12403739988803864
000480 00 00 00 60 70 d4 bf 3f 00 00 00 c0 44 ea bf 3f
       0.12433531135320663 0.12466840445995331
000490 00 00 00 e0 d2 fd bf 3f 00 00 00 80 b4 06 c0 3f
       0.12496679276227951 0.12520462274551392
0004a0 00 00 00 60 cf 0d c0 3f 00 00 00 a0 d5 14 c0 3f
       0.1254214495420456 0.12563581764698029
0004b0 00 00 00 a0 15 1a c0 3f 00 00 00 60 92 1b c0 3f
       0.12579603493213654 0.125841423869133
0004c0 00 00 00 00 30 19 c0 3f 00 00 00 20 bc 14 c0 3f
       0.12576866149902344 0.12563277781009674
0004d0 00 00 00 80 32 0e c0 3f 00 00 00 e0 ea 04 c0 3f
       0.12543326616287231 0.12515006959438324
0004e0 00 00 00 e0 c6 f1 bf 3f 00 00 00 60 de d7 bf 3f
       0.1247829720377922 0.12438764423131943
0004f0 00 00 00 60 9c be bf 3f 00 00 00 a0 f8 a6 bf 3f
       0.12400224059820175 0.12364152818918228
000500 00 00 00 20 c5 92 bf 3f 00 00 00 e0 5c 7f bf 3f
       0.12333328276872635 0.12303715199232101
000510 00 00 00 80 c5 67 bf 3f 00 00 00 60 d7 47 bf 3f
       0.12267717719078064 0.122189961373806
000520 00 00 00 c0 87 1f bf 3f 00 00 00 20 15 f0 be 3f
       0.12157486379146576 0.12085086852312088
000530 00 00 00 40 84 bb be 3f 00 00 00 c0 75 7d be 3f
       0.12004877626895905 0.1191018670797348
000540 00 00 00 60 36 30 be 3f 00 00 00 20 24 cf bd 3f
       0.11792316287755966 0.11644197255373001
000550 00 00 00 e0 51 5c bd 3f 00 00 00 e0 f9 db bc 3f
       0.11468993872404099 0.11273156851530075
000560 00 00 00 e0 7a 51 bc 3f 00 00 00 c0 19 b5 bb 3f
       0.11061828583478928 0.10823212563991547
000570 00 00 00 a0 14 fd ba 3f 00 00 00 40 88 20 ba 3f
       0.10542420297861099 0.10205890238285065
000580 00 00 00 a0 9d 17 b9 3f 00 00 00 80 63 e4 b7 3f
       0.09801659733057022 0.09332868456840515
000590 00 00 00 40 ae 88 b6 3f 00 00 00 60 8a 0a b5 3f
       0.08802308142185211 0.0821920856833458
0005a0 00 00 00 a0 ff 6b b3 3f 00 00 00 e0 64 b9 b1 3f
       0.07586667686700821 0.06923513859510422
0005b0 00 00 00 e0 8e f2 af 3f 00 00 00 00 70 63 ac 3f
       0.06239744648337364 0.05544614791870117
0005c0 00 00 00 e0 42 c9 a8 3f 00 00 00 c0 8e 2a a5 3f
       0.04841050133109093 0.041340313851833344
0005d0 00 00 00 40 a8 96 a1 3f 00 00 00 40 f4 2f 9a 3f
       0.03435254842042923 0.025573555380105972
0005e0 00 00 00 40 2f 16 91 3f 00 00 00 40 a2 73 80 3f
       0.01668618991971016 0.008033053949475288
0005f0 00 00 00 80 a3 7c 38 bf 00 00 00 40 24 0e 81 bf
       -0.00037363998126238585 -0.008327754214406013
000600 00 00 00 40 6e 1c 90 bf 00 00 00 00 1b 29 97 bf
       -0.01573345437645912 -0.02261774241924286
000610 00 00 00 e0 02 b4 9d bf 00 00 00 c0 b6 d4 a1 bf
       -0.029007000848650932 -0.03482600301504135
000620 00 00 00 a0 78 82 a4 bf 00 00 00 60 32 df a6 bf
       -0.040057916194200516 -0.04467160627245903
000630 00 00 00 80 fa d9 a8 bf 00 00 00 60 76 6c aa bf
       -0.04853804409503937 -0.05160875245928764
000640 00 00 00 40 f4 a5 ab bf 00 00 00 40 45 88 ac bf
       -0.054000504314899445 -0.05572716146707535
000650 00 00 00 a0 26 ff ac bf 00 00 00 80 f9 06 ad bf
       -0.056634146720170975 -0.05669383704662323
000660 00 00 00 20 51 af ac bf 00 00 00 80 ae 0c ac bf
       -0.05602506175637245 -0.05478425323963165
000670 00 00 00 60 f9 1d ab bf 00 00 00 20 a7 ef a9 bf
       -0.05296305939555168 -0.050656531006097794
000680 00 00 00 00 4c 8b a8 bf 00 00 00 20 eb ff a6 bf
       -0.047937750816345215 -0.04492125287652016
000690 00 00 00 20 13 53 a5 bf 00 00 00 e0 3e 92 a3 bf
       -0.041649434715509415 -0.038225140422582626
0006a0 00 00 00 00 7c c7 a1 bf 00 00 00 20 1b fc 9f bf
       -0.034725069999694824 -0.031235145404934883
0006b0 00 00 00 a0 dc 86 9c bf 00 00 00 80 9b 45 99 bf
       -0.027858207002282143 -0.02467959374189377
0006c0 00 00 00 40 26 42 96 bf 00 00 00 e0 8a 7c 93 bf
       -0.021736714988946915 -0.019029779359698296
0006d0 00 00 00 c0 2a f8 90 bf 00 00 00 80 0b 6a 8d bf
       -0.016571681946516037 -0.01436242088675499
0006e0 00 00 00 00 aa 60 89 bf 00 00 00 a0 df cb 85 bf
       -0.012391403317451477 -0.010642764158546925
0006f0 00 00 00 a0 ab a3 82 bf 00 00 00 60 31 ce 7f bf
       -0.009101239033043385 -0.007765000220388174
000700 00 00 00 60 3e 2c 7b bf 00 00 00 80 50 5e 77 bf
       -0.0066339909099042416 -0.005705179646611214
000710 00 00 00 c0 f4 87 74 bf 00 00 00 80 32 9c 72 bf
       -0.005012470297515392 -0.004543492570519447
000720 00 00 00 60 a2 b0 90 3f 00 00 00 60 a2 b0 90 3f
       0.01629880629479885 0.01629880629479885
000730 00 00 00 40 76 5f 90 3f 00 00 00 80 40 50 90 3f
       0.015989158302545547 0.015931136906147003
000740 00 00 00 a0 7f 87 90 3f 00 00 00 00 f7 de 90 3f
       0.01614188589155674 0.01647554337978363
000750 00 00 00 00 f0 46 91 3f 00 00 00 60 4d c8 91 3f
       0.016872167587280273 0.017365654930472374
000760 00 00 00 e0 cf 92 92 3f 00 00 00 20 c1 e5 93 3f
       0.01813816837966442 0.019431130960583687
000770 00 00 00 80 36 77 95 3f 00 00 00 60 b9 24 97 3f
       0.02096257358789444 0.02260102890431881
000780 00 00 00 c0 2e d3 98 3f 00 00 00 60 c6 79 9a 3f
       0.024243097752332687 0.025855159386992455
000790 00 00 00 20 a8 13 9c 3f 00 00 00 c0 1c a2 9d 3f
       0.02741873450577259 0.028938721865415573
0007a0 00 00 00 a0 cd 0d 9f 3f 00 00 00 60 fb 27 a0 3f
       0.03032609261572361 0.03155503794550896
0007b0 00 00 00 40 28 ab a0 3f 00 00 00 a0 76 21 a1 3f
       0.032555826008319855 0.03345843032002449
0007c0 00 00 00 e0 ce ad a1 3f 00 00 00 80 14 4c a2 3f
       0.034529175609350204 0.03573669493198395
0007d0 00 00 00 80 ec e8 a2 3f 00 00 00 60 e6 6f a3 3f
       0.03693331778049469 0.037963103502988815
0007e0 00 00 00 a0 68 de a3 3f 00 00 00 40 cb 31 a4 3f
       0.03880621865391731 0.03944239765405655
0007f0 00 00 00 a0 6c 63 a4 3f 00 00 00 00 f6 74 a4 3f
       0.03982104733586311 0.03995484113693237
