data/mixamo/36_800_24/train/JASPER/Weight_Shift/Weight_Shift.npy (npy, 82208 bytes, 1 tensors)

array f8 [15, 3, 228]
00000000: 0000 00a0 5313 69bf 0000 00a0 5313 69bf
00000010: 0000 0000 2afb 70bf 0000 0040 08fa 76bf
00000020: 0000 0040 9096 7cbf 0000 00a0 b974 81bf
00000030: 0000 0040 3a51 85bf 0000 0020 d5d2 89bf
00000040: 0000 00e0 04c8 8ebf 0000 00c0 9aa8 91bf
00000050: 0000 00e0 4b82 93bf 0000 0040 c92e 95bf
00000060: 0000 0020 31dd 96bf 0000 0080 0f9b 98bf
00000070: 0000 0020 7957 9abf 0000 00a0 df1f 9cbf
00000080: 0000 00e0 3010 9ebf 0000 0080 8415 a0bf
00000090: 0000 0040 b245 a1bf 0000 0080 b3a8 a2bf
000000a0: 0000 0040 9e5a a4bf 0000 0060 974f a6bf
000000b0: 0000 0040 a288 a8bf 0000 00e0 16ea aabf
000000c0: 0000 00c0 4f4d adbf 0000 0060 9291 afbf
000000d0: 0000 0040 32d2 b0bf 0000 0040 cac0 b1bf
000000e0: 0000 00e0 2b91 b2bf 0000 0080 2e44 b3bf
000000f0: 0000 0080 1ed7 b3bf 0000 0000 db4e b4bf
00000100: 0000 00a0 79ae b4bf 0000 0060 66f9 b4bf
00000110: 0000 0000 202d b5bf 0000 00e0 d247 b5bf
00000120: 0000 0000 404b b5bf 0000 00c0 2942 b5bf
00000130: 0000 0040 c12a b5bf 0000 0000 5704 b5bf
00000140: 0000 00e0 e1d3 b4bf 0000 00a0 5f9e b4bf
00000150: 0000 00e0 d265 b4bf 0000 0020 af2d b4bf
00000160: 0000 00a0 6cf9 b3bf 0000 0040 c7cb b3bf
00000170: 0000 0020 86a8 b3bf 0000 0060 5f90 b3bf
00000180: 0000 0060 7a84 b3bf 0000 0060 6483 b3bf
00000190: 0000 0000 e48c b3bf 0000 0040 859e b3bf
000001a0: 0000 00c0 40b6 b3bf 0000 0020 75d0 b3bf
000001b0: 0000 0080 8aeb b3bf 0000 0080 ce05 b4bf
000001c0: 0000 00e0 e81c b4bf 0000 0000 632e b4bf
000001d0: 0000 00e0 f838 b4bf 0000 0060 993e b4bf
000001e0: 0000 0000 9c40 b4bf 0000 0020 bd41 b4bf
000001f0: 0000 00c0 2c43 b4bf 0000 0060 3343 b4bf
00000200: 0000 0020 2f40 b4bf 0000 00a0 cb38 b4bf
00000210: 0000 0040 4e2c b4bf 0000 0020 871c b4bf
00000220: 0000 0080 8308 b4bf 0000 0020 6bef b3bf
00000230: 0000 00e0 3bd2 b3bf 0000 00e0 acb1 b3bf
00000240: 0000 0080 218f b3bf 0000 0020 436c b3bf
00000250: 0000 00e0 7449 b3bf 0000 00c0 2d26 b3bf
00000260: 0000 0000 a604 b3bf 0000 0080 b4e6 b2bf
00000270: 0000 0040 10cc b2bf 0000 0020 c0b1 b2bf
00000280: 0000 0000 b495 b2bf 0000 0060 a172 b2bf
00000290: 0000 0000 6842 b2bf 0000 00c0 e202 b2bf
000002a0: 0000 0040 6eb0 b1bf 0000 00a0 6248 b1bf
000002b0: 0000 00e0 20cc b0bf 0000 0000 ab40 b0bf
000002c0: 0000 0080 7f42 afbf 0000 00a0 68d8 adbf
000002d0: 0000 0080 6149 acbf 0000 0020 9795 aabf
000002e0: 0000 0060 a1b5 a8bf 0000 00a0 f8ae a6bf
000002f0: 0000 0060 7e95 a4bf 0000 0020 7972 a2bf
00000300: 0000 00a0 1d40 a0bf 0000 0080 d468 9bbf
00000310: 0000 0000 68ec 95bf 0000 0020 972f 90bf
00000320: 0000 00a0 984b 84bf 0000 0060 7c0d 70bf
00000330: 0000 00c0 4416 623f 0000 00e0 c7eb 803f
00000340: 0000 0060 35b4 8e3f 0000 0080 2247 963f
00000350: 0000 0040 4e1c 9d3f 0000 0040 5ce1 a13f
00000360: 0000 0040 3113 a53f 0000 0040 162a a83f
00000370: 0000 0080 221a ab3f 0000 0060 a2d9 ad3f
00000380: 0000 00c0 6037 b03f 0000 0000 c882 b13f
00000390: 0000 00c0 3be7 b23f 0000 0020 e95a b43f
000003a0: 0000 0020 9ccd b53f 0000 0040 1e31 b73f
000003b0: 0000 0040 7578 b83f 0000 0080 8f9d b93f
000003c0: 0000 00e0 6899 ba3f 0000 0040 4e69 bb3f
000003d0: 0000 0020 af0e bc3f 0000 0000 7495 bc3f
000003e0: 0000 00c0 3fff bc3f 0000 00c0 6d49 bd3f
000003f0: 0000 00c0 016e bd3f 0000 00a0 cc73 bd3f
00000400: 0000 00e0 2262 bd3f 0000 00c0 a042 bd3f
00000410: 0000 00a0 a81d bd3f 0000 0080 00fc bc3f
00000420: 0000 0060 86dd bc3f 0000 00e0 a1bd bc3f
00000430: 0000 0060 ba9d bc3f 0000 00a0 8e80 bc3f
00000440: 0000 00c0 d467 bc3f 0000 0060 3f54 bc3f
00000450: 0000 0060 0546 bc3f 0000 0040 8a3b bc3f
00000460: 0000 0020 5f35 bc3f 0000 00e0 5533 bc3f
00000470: 0000 0000 0037 bc3f 0000 0060 8240 bc3f
00000480: 0000 0000 0b50 bc3f 0000 00c0 8c61 bc3f
00000490: 0000 0080 9470 bc3f 0000 0040 3e7b bc3f
000004a0: 0000 0060 7a84 bc3f 0000 00e0 e58e bc3f
000004b0: 0000 00a0 2c98 bc3f 0000 0020 6f9b bc3f
000004c0: 0000 0040 0197 bc3f 0000 0040 128e bc3f
000004d0: 0000 00a0 b281 bc3f 0000 00e0 6171 bc3f
000004e0: 0000 00a0 c05c bc3f 0000 00e0 b945 bc3f
000004f0: 0000 0080 9d2d bc3f 0000 00e0 de15 bc3f
00000500: 0000 0080 e000 bc3f 0000 00c0 c5ec bb3f
00000510: 0000 0020 47d5 bb3f 0000 00e0 f0b5 bb3f
00000520: 0000 00c0 408d bb3f 0000 00a0 5e5c bb3f
00000530: 0000 0000 9b25 bb3f 0000 0000 e7e5 ba3f
00000540: 0000 0060 8d98 ba3f 0000 0080 2b39 ba3f
00000550: 0000 0060 77c7 b93f 0000 0020 dd45 b93f
00000560: 0000 0020 49b8 b83f 0000 00a0 f819 b83f
00000570: 0000 0060 5264 b73f 0000 00a0 1897 b63f
00000580: 0000 0080 2bac b53f 0000 0040 19a4 b43f
00000590: 0000 00a0 437e b33f 0000 00c0 1a3b b23f
000005a0: 0000 0060 eddb b03f 0000 0000 b8d9 ae3f
000005b0: 0000 0020 a1ec ab3f 0000 00a0 8ff7 a83f
000005c0: 0000 00a0 8df9 a53f 0000 0000 02f4 a23f
000005d0: 0000 0000 33df 9f3f 0000 0080 d80e 983f
000005e0: 0000 00e0 9010 903f 0000 0080 c363 803f
000005f0: 0000 0040 baf1 3a3f 0000 0000 9bae 7bbf
00000600: 0000 00e0 a15a 8bbf 0000 00e0 40f3 93bf
00000610: 0000 0020 78cb 99bf 0000 00e0 011b 9fbf
00000620: 0000 0080 c4e7 a1bf 0000 00c0 18f7 a3bf
00000630: 0000 0080 fbad a5bf 0000 00c0 f50b a7bf
00000640: 0000 00e0 0413 a8bf 0000 0060 afc6 a8bf
00000650: 0000 00a0 571e a9bf 0000 0080 4f1a a9bf
00000660: 0000 0040 3cc5 a8bf 0000 0060 6330 a8bf
00000670: 0000 00a0 555c a7bf 0000 0020 cd50 a6bf
00000680: 0000 0020 6313 a5bf 0000 00e0 f1b3 a3bf
00000690: 0000 00c0 963a a2bf 0000 0080 86b2 a0bf
000006a0: 0000 0060 3b48 9ebf 0000 00e0 b931 9bbf
000006b0: 0000 00c0 ed34 98bf 0000 0080 3461 95bf
000006c0: 0000 0040 1cbd 92bf 0000 00a0 4449 90bf
000006d0: 0000 0000 da19 8cbf 0000 0040 981a 88bf
000006e0: 0000 0000 a791 84bf 0000 0020 e56d 81bf
000006f0: 0000 00e0 304f 7dbf 0000 00a0 aa80 78bf
00000700: 0000 00e0 735e 74bf 0000 00e0 f8e2 70bf
00000710: 0000 00c0 c48f 6cbf 0000 00e0 5213 69bf
00000720: 0000 0040 38aa 883f 0000 0040 38aa 883f
00000730: 0000 00c0 ec1a 883f 0000 0080 ceea 873f
00000740: 0000 00c0 8326 883f 0000 0080 fa9e 883f
00000750: 0000 00c0 f543 893f 0000 0080 191e 8a3f
00000760: 0000 0060 276e 8b3f 0000 00a0 d48a 8d3f
00000770: 0000 0000 e80c 903f 0000 0000 8f71 913f
00000780: 0000 0000 4edf 923f 0000 00c0 974f 943f
00000790: 0000 00c0 d9bf 953f 0000 00c0 63f7 963f
000007a0: 0000 0040 35ec 973f 0000 0040 8d9d 983f
000007b0: 0000 0060 e1f9 983f 0000 0000 bb2b 993f
000007c0: 0000 0040 7497 993f 0000 00c0 575b 9a3f
000007d0: 0000 0020 8769 9b3f 0000 0020 c380 9c3f
000007e0: 0000 0000 9371 9d3f 0000 0000 6f16 9e3f
000007f0: 0000 0020 2867 9e3f 0000 00e0 b480 9e3f
-0.003060973482206464 -0.003060973482206464 -0.004145778715610504 -0.005609543062746525 -0.006979526020586491 -0.008523416705429554 -0.010408835485577583 -0.012609162367880344
-0.01502994354814291 -0.017244737595319748 -0.019051728770136833 -0.020686287432909012 -0.022328155115246773 -0.02402900904417038 -0.02572430856525898 -0.02746533788740635
-0.02935863845050335 -0.03141416609287262 -0.03373486548662186 -0.03644333779811859 -0.03975386172533035 -0.04357598349452019 -0.047917433083057404 -0.05256721004843712
-0.05723046511411667 -0.06165749952197075 -0.06570734083652496 -0.06934799253940582 -0.07252763956785202 -0.07525911927223206 -0.07750120759010315 -0.07932823896408081
-0.0807872787117958 -0.08193054050207138 -0.08271980285644531 -0.08312719315290451 -0.08317947387695312 -0.08304081857204437 -0.08268363773822784 -0.08209747076034546
-0.08135806769132614 -0.08054158836603165 -0.07967870682477951 -0.07882208377122879 -0.07802466303110123 -0.077328160405159 -0.0767902210354805 -0.07642170041799545
-0.07624020427465439 -0.07622363418340683 -0.07636857032775879 -0.07663758099079132 -0.0769997090101242 -0.07739955931901932 -0.07781282067298889 -0.07821360230445862
-0.07856612652540207 -0.07883280515670776 -0.07899432629346848 -0.07908018678426743 -0.07911086082458496 -0.07912809401750565 -0.0791500061750412 -0.07915040105581284
-0.07910437136888504 -0.07899162918329239 -0.07880105078220367 -0.07856030017137527 -0.07825490832328796 -0.07787198573350906 -0.07742666453123093 -0.07692985981702805
-0.07640275359153748 -0.07587070018053055 -0.07533960789442062 -0.07480131089687347 -0.07428967952728271 -0.07383278012275696 -0.0734262615442276 -0.07302475720643997
-0.07259678840637207 -0.07206162065267563 -0.07132577896118164 -0.07035653293132782 -0.06909836828708649 -0.06751076132059097 -0.06561475247144699 -0.06348675489425659
-0.06105421483516693 -0.05829169228672981 -0.05524735152721405 -0.05192253366112709 -0.048260729759931564 -0.04430367425084114 -0.040203046053647995 -0.03602961078286171
-0.031739164143800735 -0.026767082512378693 -0.02140963077545166 -0.015806542709469795 -0.009909813292324543 -0.0039191110990941525 0.0022078840993344784 0.008262216113507748
0.01499215792864561 0.021755732595920563 0.02842829003930092 0.034922488033771515 0.041162051260471344 0.047196097671985626 0.052933767437934875 0.05830104276537895
0.06334500014781952 0.06840181350708008 0.07384084165096283 0.07951218634843826 0.08516860753297806 0.09059323370456696 0.09558804333209991 0.10006043314933777
0.10390334576368332 0.10707558691501617 0.10959906131029129 0.11165547370910645 0.11326979100704193 0.1144016832113266 0.11495982110500336 0.11504820734262466
0.11477869004011154 0.11429791152477264 0.11373380571603775 0.11322024464607239 0.1127552017569542 0.11226855963468552 0.11178173869848251 0.11133662611246109
0.11095933616161346 0.11066051572561264 0.11044343560934067 0.1102835088968277 0.11018938571214676 0.11015831679105759 0.1102142333984375 0.11035933345556259
0.11059635877609253 0.11086349189281464 0.11109283566474915 0.11125554144382477 0.11139645427465439 0.11155544966459274 0.1116969957947731 0.11174673587083817
0.11167915165424347 0.11154283583164215 0.1113540306687355 0.11110507696866989 0.11079028993844986 0.11043893545866013 0.11007103323936462 0.10970871895551682
0.10938838124275208 0.10908161103725433 0.10872311145067215 0.10824494808912277 0.1076240986585617 0.10687819868326187 0.10604256391525269 0.10507053136825562
0.10389026254415512 0.10243484377861023 0.10069986432790756 0.09872228652238846 0.0965619757771492 0.09414628893136978 0.09137453883886337 0.0882430449128151
0.08465835452079773 0.08062894642353058 0.07614538818597794 0.07121436297893524 0.06585582345724106 0.060254812240600586 0.05453971400856972 0.04876374080777168
0.04291956499218941 0.037017881870269775 0.03112487494945526 0.023494131863117218 0.01568819396197796 0.008002784103155136 0.0004111365997232497 -0.006758313626050949
-0.013356461189687252 -0.019482625648379326 -0.025190236046910286 -0.030376462265849113 -0.03497137129306793 -0.038994573056697845 -0.042343005537986755 -0.045013122260570526
-0.04702010378241539 -0.04839084669947624 -0.04905961826443672 -0.04902885854244232 -0.04837978631258011 -0.04724417254328728 -0.045626331120729446 -0.043585214763879776
-0.04116353765130043 -0.038482245057821274 -0.035603247582912445 -0.032612040638923645 -0.029572417959570885 -0.02655687741935253 -0.023639407008886337 -0.020878620445728302
-0.01829952374100685 -0.015904495492577553 -0.013721182942390442 -0.011769475415349007 -0.010043434798717499 -0.008510389365255833 -0.007155600469559431 -0.005982080940157175
-0.004972889553755522 -0.004122707527130842 -0.003486522939056158 -0.003060972085222602 0.012043418362736702 0.012043418362736702 0.011770104989409447 0.01167832687497139
0.01179221086204052 0.012021977454423904 0.012336654588580132 0.012752722948789597 0.013393695466220379 0.014424954541027546 0.015674233436584473 0.017034754157066345
0.018429964780807495 0.01983487233519554 0.021239664405584335 0.02242809161543846 0.023361999541521072 0.024038512259721756 0.02439071796834469 0.024580880999565125
0.02499181404709816 0.025739070028066635 0.026769744232296944 0.02783493883907795 0.02875356376171112 0.029382452368736267 0.029690386727452278 0.029787851497530937
