data/mixamo/36_800_24/train/SKELETON_ZOMBIE_T/Weight_Shift/Weight_Shift.npy (npy, 82208 bytes, 1 tensors)

array f8 [15, 3, 228]
000000 00 00 00 60 eb 6c 88 bf 00 00 00 60 eb 6c 88 bf
       -0.011926497332751751 -0.011926497332751751
000010 00 00 00 c0 4c 73 8b bf 00 00 00 20 79 76 8f bf
       -0.013403510674834251 -0.015362688340246677
000020 00 00 00 60 dd 98 91 bf 00 00 00 c0 68 b6 93 bf
       -0.017184695228934288 -0.019250523298978806
000030 00 00 00 a0 d7 50 96 bf 00 00 00 a0 37 55 99 bf
       -0.021792763844132423 -0.024739140644669533
000040 00 00 00 a0 7f 9e 9c bf 00 00 00 00 2e 9d 9f bf
       -0.027948373928666115 -0.030873030424118042
000050 00 00 00 c0 12 01 a1 bf 00 00 00 c0 d0 11 a2 bf
       -0.03321131318807602 -0.03529217094182968
000060 00 00 00 20 ba 22 a3 bf 00 00 00 c0 af 3c a4 bf
       -0.03737432137131691 -0.03952550143003464
000070 00 00 00 c0 61 50 a5 bf 00 00 00 20 f5 64 a6 bf
       -0.0416288897395134 -0.043738994747400284
000080 00 00 00 00 d0 8c a7 bf 00 00 00 a0 32 cd a8 bf
       -0.04599618911743164 -0.04844053462147713
000090 00 00 00 00 be 4c aa bf 00 00 00 80 37 32 ac bf
       -0.05136674642562866 -0.05507062375545502
0000a0 00 00 00 20 ad 99 ae bf 00 00 00 e0 52 ba b0 bf
       -0.05976620689034462 -0.06534307450056076
0000b0 00 00 00 80 28 64 b2 bf 00 00 00 60 1d 30 b4 bf
       -0.0718407928943634 -0.07885917276144028
0000c0 00 00 00 00 78 fe b5 bf 00 00 00 c0 28 ba b7 bf
       -0.08591413497924805 -0.0926843136548996
0000d0 00 00 00 e0 0c 57 b9 bf 00 00 00 c0 35 cd ba bf
       -0.09898453205823898 -0.10469375550746918
0000e0 00 00 00 a0 2f 13 bc bf 00 00 00 e0 14 2b bd bf
       -0.10966775566339493 -0.11393862217664719
0000f0 00 00 00 80 3a 12 be bf 00 00 00 40 02 ce be bf
       -0.11746564507484436 -0.12033094465732574
000100 00 00 00 40 f1 61 bf bf 00 00 00 a0 14 d5 bf bf
       -0.12258823215961456 -0.12434510141611099
000110 00 00 00 20 f2 12 c0 bf 00 00 00 80 6d 29 c0 bf
       -0.12557817995548248 -0.1262642741203308
000120 00 00 00 e0 fb 2d c0 bf 00 00 00 a0 89 27 c0 bf
       -0.1264033168554306 -0.12620659172534943
000130 00 00 00 40 3a 14 c0 bf 00 00 00 e0 32 e8 bf bf
       -0.12561729550361633 -0.12463682144880295
000140 00 00 00 e0 4a 96 bf bf 00 00 00 00 14 3a bf bf
       -0.12338703125715256 -0.12197995185852051
000150 00 00 00 20 c4 d6 be bf 00 00 00 a0 c3 73 be bf
       -0.12046457082033157 -0.11895392090082169
000160 00 00 00 80 72 18 be bf 00 00 00 a0 cf c9 bd bf
       -0.11756053566932678 -0.11636064201593399
000170 00 00 00 e0 02 8e bd bf 00 00 00 00 66 65 bd bf
       -0.11544816941022873 -0.11482846736907959
000180 00 00 00 c0 ab 51 bd bf 00 00 00 40 86 50 bd bf
       -0.11452744901180267 -0.1145099550485611
000190 00 00 00 20 1d 61 bd bf 00 00 00 40 4a 7f bd bf
       -0.11476308852434158 -0.11522354185581207
0001a0 00 00 00 00 e2 a7 bd bf 00 00 00 60 5e d4 bd bf
       -0.11584293842315674 -0.11652173846960068
0001b0 00 00 00 e0 e0 01 be bf 00 00 00 e0 f0 2d be bf
       -0.11721616238355637 -0.11788850277662277
0001c0 00 00 00 20 6c 54 be bf 00 00 00 e0 90 71 be bf
       -0.11847568303346634 -0.11892037838697433
0001d0 00 00 00 20 04 84 be bf 00 00 00 c0 b3 8e be bf
       -0.1192019060254097 -0.11936496198177338
0001e0 00 00 00 20 f3 93 be bf 00 00 00 e0 aa 98 be bf
       -0.11944503337144852 -0.119517020881176
0001f0 00 00 00 00 bf 9e be bf 00 00 00 20 87 a3 be bf
       -0.1196097731590271 -0.11968273669481277
000200 00 00 00 c0 93 a4 be bf 00 00 00 80 e1 9e be bf
       -0.11969874799251556 -0.11961182951927185
000210 00 00 00 60 77 90 be bf 00 00 00 40 26 7c be bf
       -0.11939188092947006 -0.11908186972141266
000220 00 00 00 00 16 60 be bf 00 00 00 60 36 3b be bf
       -0.11865365505218506 -0.11809100955724716
000230 00 00 00 00 ee 0f be bf 00 00 00 20 9d df bd bf
       -0.11743056774139404 -0.11669332534074783
000240 00 00 00 20 73 ac bd bf 00 00 00 e0 e4 79 bd bf
       -0.11591262370347977 -0.11514120548963547
000250 00 00 00 c0 73 49 bd bf 00 00 00 60 dd 19 bd bf
       -0.11440204083919525 -0.11367591470479965
000260 00 00 00 c0 9f ee bc bf 00 00 00 e0 90 cb bc bf
       -0.11301611363887787 -0.11248116940259933
000270 00 00 00 80 84 b1 bc bf 00 00 00 80 6c 9c bc bf
       -0.11208370327949524 -0.11176183819770813
000280 00 00 00 00 f6 89 bc bf 00 00 00 e0 f1 70 bc bf
       -0.11148011684417725 -0.11109840124845505
000290 00 00 00 80 d1 45 bc bf 00 00 00 20 23 04 bc bf
       -0.11044034361839294 -0.10943812876939774
0002a0 00 00 00 e0 10 a8 bb bf 00 00 00 20 b4 2d bb bf
       -0.10803323239088058 -0.10616613179445267
0002b0 00 00 00 c0 31 95 ba bf 00 00 00 00 96 e4 b9 bf
       -0.10383902490139008 -0.10114419460296631
0002c0 00 00 00 e0 84 12 b9 bf 00 00 00 00 92 1d b8 bf
       -0.09793882817029953 -0.09420120716094971
0002d0 00 00 00 c0 7c 0c b7 bf 00 00 00 e0 b5 dc b5 bf
       -0.09003429114818573 -0.08539902418851852
0002e0 00 00 00 a0 90 87 b4 bf 00 00 00 40 4b 11 b3 bf
       -0.08019355684518814 -0.07448263466358185
0002f0 00 00 00 40 55 8a b1 bf 00 00 00 40 f2 f9 af bf
       -0.0685170441865921 -0.06245381385087967
000300 00 00 00 40 55 cb ac bf 00 00 00 e0 c4 1e a9 bf
       -0.0562388077378273 -0.04906287416815758
000310 00 00 00 40 9a 2a a5 bf 00 00 00 e0 4e 0f a1 bf
       -0.0413406565785408 -0.03331991657614708
000320 00 00 00 40 38 9a 99 bf 00 00 00 e0 a6 1c 91 bf
       -0.025002364069223404 -0.016710860654711723
000330 00 00 00 40 f2 f1 80 bf 00 00 00 00 ae c7 07 bf
       -0.008273975923657417 -4.5356748159974813e-05
000340 00 00 00 c0 b2 74 82 3f 00 00 00 20 d9 85 92 3f
       0.00901164673268795 0.01808871515095234
000350 00 00 00 c0 78 b8 9b 3f 00 00 00 20 8b 53 a2 3f
       0.027070891112089157 0.03579363599419594
000360 00 00 00 e0 7a 8c a6 3f 00 00 00 00 26 90 aa 3f
       0.04404052719473839 0.05188101530075073
000370 00 00 00 e0 e8 69 ae 3f 00 00 00 c0 36 0d b1 3f
       0.059401776641607285 0.06660787761211395
000380 00 00 00 c0 fd cf b2 3f 00 00 00 20 ef 8f b4 3f
       0.07348619401454926 0.08032125979661942
000390 00 00 00 40 74 75 b6 3f 00 00 00 80 1c 7a b8 3f
       0.08772970736026764 0.0956132709980011
0003a0 00 00 00 c0 ab 81 ba 3f 00 00 00 a0 db 73 bc 3f
       0.10354112088680267 0.1111428514122963
0003b0 00 00 00 60 7e 45 be 3f 00 00 00 80 27 f0 bf 3f
       0.11824788898229599 0.12475821375846863
0003c0 00 00 00 e0 e5 b0 c0 3f 00 00 00 80 ac 49 c1 3f
       0.13039849698543549 0.1350608468055725
0003d0 00 00 00 e0 a0 c3 c1 3f 00 00 00 20 c2 27 c2 3f
       0.13878260552883148 0.14183832705020905
0003e0 00 00 00 00 11 77 c2 3f 00 00 00 00 51 ae c2 3f
       0.14425861835479736 0.1459447145462036
0003f0 00 00 00 40 a2 c7 c2 3f 00 00 00 20 94 c8 c2 3f
       0.14671733975410461 0.1467461735010147
000400 00 00 00 e0 4a b7 c2 3f 00 00 00 e0 1a 9b c2 3f
       0.14621864259243011 0.14535842835903168
000410 00 00 00 a0 84 7a c2 3f 00 00 00 20 a5 5c c2 3f
       0.14436395466327667 0.14345230162143707
000420 00 00 00 60 48 41 c2 3f 00 00 00 a0 63 24 c2 3f
       0.14261727035045624 0.1417355090379715
000430 00 00 00 a0 94 06 c2 3f 00 00 00 00 f2 e9 c1 3f
       0.14082582294940948 0.1399519443511963
000440 00 00 00 00 8a d0 c1 3f 00 00 00 60 a7 bb c1 3f
       0.139176607131958 0.13853923976421356
000450 00 00 00 c0 25 ab c1 3f 00 00 00 a0 69 9d c1 3f
       0.13803550601005554 0.1376163512468338
000460 00 00 00 e0 a9 93 c1 3f 00 00 00 40 8a 8e c1 3f
       0.13731883466243744 0.1371624767780304
000470 00 00 00 60 e9 8e c1 3f 00 00 00 20 0d 94 c1 3f
       0.1371738165616989 0.13733066618442535
000480 00 00 00 60 17 9e c1 3f 00 00 00 a0 3d aa c1 3f
       0.13763706386089325 0.13800783455371857
000490 00 00 00 00 1b b5 c1 3f 00 00 00 e0 22 bd c1 3f
       0.13833940029144287 0.13858447968959808
0004a0 00 00 00 80 a8 c4 c1 3f 00 00 00 40 63 cd c1 3f
       0.1388140320777893 0.13908043503761292
0004b0 00 00 00 80 d8 d5 c1 3f 00 00 00 60 b8 da c1 3f
       0.13933855295181274 0.13948731124401093
0004c0 00 00 00 e0 80 da c1 3f 00 00 00 00 dd d6 c1 3f
       0.13948069512844086 0.13936960697174072
0004d0 00 00 00 c0 74 d0 c1 3f 00 00 00 40 d9 c6 c1 3f
       0.13917407393455505 0.1388808786869049
0004e0 00 00 00 80 3d b9 c1 3f 00 00 00 a0 10 a9 c1 3f
       0.13846558332443237 0.13797195255756378
0004f0 00 00 00 e0 0d 98 c1 3f 00 00 00 a0 13 88 c1 3f
       0.13745282590389252 0.13696523010730743
000500 00 00 00 60 a8 7b c1 3f 00 00 00 a0 e7 71 c1 3f
       0.1365862339735031 0.1362885981798172
000510 00 00 00 c0 e9 67 c1 3f 00 00 00 60 b5 59 c1 3f
       0.1359836757183075 0.13555018603801727
000520 00 00 00 a0 81 45 c1 3f 00 00 00 a0 b9 2b c1 3f
       0.13493366539478302 0.13414688408374786
000530 00 00 00 60 75 0e c1 3f 00 00 00 00 38 ec c0 3f
       0.13325373828411102 0.13220882415771484
000540 00 00 00 a0 d0 c1 c0 3f 00 00 00 e0 67 8b c0 3f
       0.13091476261615753 0.1292543262243271
000550 00 00 00 00 18 49 c0 3f 00 00 00 60 26 fa bf 3f
       0.12723064422607422 0.12491073459386826
000560 00 00 00 c0 70 56 bf 3f 00 00 00 60 2d a2 be 3f
       0.12241272628307343 0.11966212838888168
000570 00 00 00 60 08 d4 bd 3f 00 00 00 80 72 e6 bc 3f
       0.11651661247015 0.11289134621620178
000580 00 00 00 c0 f8 ce bb 3f 00 00 00 a0 6c 8c ba 3f
       0.10862688720226288 0.10370520502328873
000590 00 00 00 40 70 1b b9 3f 00 00 00 a0 68 7c b7 3f
       0.09807492792606354 0.09174207597970963
0005a0 00 00 00 a0 7b b0 b5 3f 00 00 00 80 6e c7 b3 3f
       0.08472416549921036 0.07726183533668518
0005b0 00 00 00 40 08 ce b1 3f 00 00 00 80 f7 97 af 3f
       0.0695500522851944 0.061706289649009705
0005c0 00 00 00 e0 52 85 ab 3f 00 00 00 80 2a 6b a7 3f
       0.05375155434012413 0.04573948681354523
0005d0 00 00 00 00 c1 5c a3 3f 00 00 00 a0 83 66 9c 3f
       0.037817031145095825 0.02773481048643589
0005e0 00 00 00 80 fe e4 91 3f 00 00 00 00 04 52 7e 3f
       0.017475105822086334 0.007402434945106506
0005f0 00 00 00 00 6e 8e 64 bf 00 00 00 60 a7 5e 88 bf
       -0.002509322017431259 -0.011899287812411785
000600 00 00 00 00 0f 1f 95 bf 00 00 00 20 ac 75 9d bf
       -0.020626291632652283 -0.028769196942448616
000610 00 00 00 e0 e9 a0 a2 bf 00 00 00 a0 87 2d a6 bf
       -0.03638392314314842 -0.04331611469388008
000620 00 00 00 00 c7 5c a9 bf 00 00 00 00 84 35 ac bf
       -0.04953595995903015 -0.055095791816711426
000630 00 00 00 00 2f a5 ae bf 00 00 00 00 96 52 b0 bf
       -0.05985400080680847 -0.06376016139984131
000640 00 00 00 60 a7 21 b1 bf 00 00 00 20 07 bc b1 bf
       -0.06691976636648178 -0.06927532702684402
000650 00 00 00 a0 49 19 b2 bf 00 00 00 c0 10 39 b2 bf
       -0.07069835811853409 -0.07118324935436249
000660 00 00 00 00 ed 21 b2 bf 00 00 00 60 28 dc b1 bf
       -0.07083016633987427 -0.0697655901312828
000670 00 00 00 80 da 66 b1 bf 00 00 00 a0 2f c9 b0 bf
       -0.06797567009925842 -0.06556985527276993
000680 00 00 00 20 df 06 b0 bf 00 00 00 e0 4c 53 ae bf
       -0.06260485202074051 -0.059229280799627304
000690 00 00 00 e0 b0 6e ac bf 00 00 00 e0 78 73 aa bf
       -0.055532004684209824 -0.05166223272681236
0006a0 00 00 00 20 d1 6b a8 bf 00 00 00 20 55 62 a6 bf
       -0.04769757762551308 -0.04371896758675575
0006b0 00 00 00 80 d7 64 a4 bf 00 00 00 20 db 81 a2 bf
       -0.03983186185359955 -0.036146972328424454
0006c0 00 00 00 00 67 c0 a0 bf 00 00 00 a0 70 45 9e bf
       -0.03271791338920593 -0.029561767354607582
0006d0 00 00 00 80 d1 5a 9b bf 00 00 00 a0 41 bf 98 bf
       -0.02671363204717636 -0.02416708506643772
0006e0 00 00 00 c0 7d 68 96 bf 00 00 00 00 16 4b 94 bf
       -0.021882977336645126 -0.01981768012046814
0006f0 00 00 00 60 68 61 92 bf 00 00 00 e0 a2 ae 90 bf
       -0.017949705943465233 -0.016291184350848198
000700 00 00 00 80 0b 5c 8e bf 00 00 00 80 b9 c3 8b bf
       -0.014823999255895615 -0.013556908816099167
000710 00 00 00 00 1e c6 89 bf 00 00 00 80 e3 6c 88 bf
       -0.012584909796714783 -0.01192643865942955
000720 00 00 00 00 9b b1 97 bf 00 00 00 00 9b b1 97 bf
       -0.02313844859600067 -0.02313844859600067
000730 00 00 00 00 34 2f 98 bf 00 00 00 c0 74 56 98 bf
       -0.023617565631866455 -0.02376730367541313
000740 00 00 00 c0 ae 1d 98 bf 00 00 00 20 c5 b4 97 bf
       -0.02355073019862175 -0.023150520399212837
000750 00 00 00 80 10 33 97 bf 00 00 00 40 d8 8f 96 bf
       -0.022655732929706573 -0.022033099085092545
000760 00 00 00 80 a8 8c 95 bf 00 00 00 a0 93 da 93 bf
       -0.021044380962848663 -0.019388491287827492
000770 00 00 00 c0 e0 ce 91 bf 00 00 00 40 0f 34 8f bf
       -0.017390739172697067 -0.015236014500260353
000780 00 00 00 40 7f c1 8a bf 00 00 00 c0 59 6b 86 bf
       -0.013064378872513771 -0.010946942493319511
000790 00 00 00 40 ce 49 82 bf 00 00 00 60 61 33 7e bf
       -0.008929835632443428 -0.0073732188902795315
0007a0 00 00 00 60 22 ed 79 bf 00 00 00 20 cf 28 78 bf
       -0.006329664494842291 -0.005898293573409319
0007b0 00 00 00 e0 02 46 79 bf 00 00 00 80 d3 86 7b bf
       -0.006170283537358046 -0.006720377132296562
0007c0 00 00 00 c0 8d 15 7c bf 00 00 00 80 2f a3 79 bf
       -0.006856492720544338 -0.006259141489863396
0007d0 00 00 00 40 27 e7 73 bf 00 00 00 e0 af 10 69 bf
       -0.004859116859734058 -0.003059714799746871
0007e0 00 00 00 a0 55 60 54 bf 00 00 00 a0 d7 92 2a 3f
       -0.0012436710530892015 0.00020274049893487245
0007f0 00 00 00 40 ea e6 51 3f 00 00 00 c0 15 fd 57 3f
       0.001092652091756463 0.0014641487505286932
