data/mixamo/36_800_24/train/CASTLE_GUARD/Weight_Shift/Weight_Shift.npy (npy, 82208 bytes, 1 tensors)

array f8 [15, 3, 228]
-0.0045533133670687675 -0.0045533133670687675 -0.005777955055236816 -0.007437100168317556 -0.009033449925482273 -0.010864927433431149 -0.013081640005111694 -0.015604815445840359
-0.018284384161233902 -0.02050008252263069 -0.022214438766241074 -0.023670734837651253 -0.025062667205929756 -0.026447009295225143 -0.02775636687874794 -0.028988584876060486
-0.030320005491375923 -0.031747594475746155 -0.033552203327417374 -0.036074552685022354 -0.039643216878175735 -0.04418472200632095 -0.04968666285276413 -0.05570774897933006
-0.061722282320261 -0.06743044406175613 -0.0727076604962349 -0.07750285416841507 -0.08171297609806061 -0.08536703139543533 -0.08843494206666946 -0.09098537266254425
-0.09303823113441467 -0.09464878588914871 -0.09577502310276031 -0.09638316184282303 -0.09648384153842926 -0.09628927707672119 -0.09575288742780685 -0.09487329423427582
-0.09376984089612961 -0.09255238622426987 -0.0912596583366394 -0.08997052162885666 -0.08878316730260849 -0.08777020126581192 -0.0870056226849556 -0.08649211376905441
-0.0862586498260498 -0.08627307415008545 -0.08652019500732422 -0.08693817257881165 -0.0874786451458931 -0.08806587010622025 -0.08866564184427261 -0.08923901617527008
-0.0897362232208252 -0.0901133120059967 -0.09035435318946838 -0.09050645679235458 -0.09059987217187881 -0.09069564938545227 -0.09081970900297165 -0.09092210233211517
-0.0909552350640297 -0.09088349342346191 -0.09069034457206726 -0.09042362123727798 -0.09006154537200928 -0.08957678824663162 -0.08899577707052231 -0.08835147321224213
-0.08768416941165924 -0.0870375782251358 -0.08642950654029846 -0.0858394205570221 -0.08532554656267166 -0.08493959158658981 -0.08467527478933334 -0.08446704596281052
-0.08428096771240234 -0.08398501574993134 -0.08342361450195312 -0.082562156021595 -0.08135421574115753 -0.07973716408014297 -0.07775607705116272 -0.07554344087839127
-0.07298656553030014 -0.07008694857358932 -0.06697678565979004 -0.06358325481414795 -0.059789493680000305 -0.05559369921684265 -0.05119392275810242 -0.04670664295554161
-0.04205547273159027 -0.036560945212841034 -0.030590102076530457 -0.024292776361107826 -0.017611520364880562 -0.010898596607148647 -0.00413165520876646 0.002313710981979966
0.009345488622784615 0.0163428895175457 0.02315349131822586 0.029624847695231438 0.03558335825800896 0.04109872132539749 0.046146634966135025 0.05082762613892555
0.05540246516466141 0.060415636748075485 0.06646697223186493 0.07322881370782852 0.08015020191669464 0.08683372288942337 0.09300835430622101 0.09854046255350113
0.10327436029911041 0.1072012409567833 0.1104280948638916 0.11317887902259827 0.11538831144571304 0.11690116673707962 0.11759185791015625 0.11763591319322586
0.11721339821815491 0.11651407927274704 0.1156887412071228 0.1149359866976738 0.11425496637821198 0.11353075504302979 0.11278221011161804 0.11207183450460434
0.11143843084573746 0.11089932173490524 0.11045456677675247 0.11007554829120636 0.10979500412940979 0.10963174700737 0.10962371528148651 0.10975988954305649
0.11003628373146057 0.11036502569913864 0.11064428091049194 0.11083904653787613 0.11103086918592453 0.11127778887748718 0.11152771860361099 0.11166729778051376
0.11165968328714371 0.11157301813364029 0.11142595112323761 0.11119149625301361 0.11085130274295807 0.11045872420072556 0.11005927622318268 0.10968831926584244
0.1093999370932579 0.10915914177894592 0.10887504369020462 0.10845690220594406 0.10789864510297775 0.10725096613168716 0.10659364610910416 0.10586007684469223
0.10493021458387375 0.10369274765253067 0.10216077417135239 0.10038778185844421 0.09846226125955582 0.09630197286605835 0.09383481740951538 0.09110377728939056
0.08795507997274399 0.08433986455202103 0.08020909875631332 0.07555361837148666 0.07035341113805771 0.06483077257871628 0.05912131816148758 0.05327440798282623
0.04725262522697449 0.041071295738220215 0.03484948351979256 0.026765409857034683 0.01846000924706459 0.01018256600946188 0.0018582805059850216 -0.006063408683985472
-0.013408120721578598 -0.02028256095945835 -0.026751186698675156 -0.03261770308017731 -0.03784273564815521 -0.042481258511543274 -0.04639127478003502 -0.04955184459686279
-0.05217090994119644 -0.05412816256284714 -0.05530256778001785 -0.05564308166503906 -0.055233340710401535 -0.05422671511769295 -0.0526416040956974 -0.05056425929069519
-0.04803404584527016 -0.04517441242933273 -0.04203462973237038 -0.03870953619480133 -0.03527373820543289 -0.03183059021830559 -0.028501586988568306 -0.025386758148670197
-0.02249627560377121 -0.019814560189843178 -0.017372848466038704 -0.015172023326158524 -0.01318863220512867 -0.011401641182601452 -0.009795261546969414 -0.008357973769307137
-0.007068098057061434 -0.0059580253437161446 -0.0051221055909991264 -0.004553328733891249 -0.0279689934104681 -0.0279689934104681 -0.028337445110082626 -0.028370166197419167
-0.028050845488905907 -0.027574364095926285 -0.027027487754821777 -0.026367468759417534 -0.025376789271831512 -0.023811111226677895 -0.021955380216240883 -0.019991623237729073
-0.018042348325252533 -0.016152525320649147 -0.01434498280286789 -0.01278784777969122 -0.01152337621897459 -0.01061628945171833 -0.010108094662427902 -0.009691398590803146
-0.008895590901374817 -0.007679203525185585 -0.006202499847859144 -0.004738859832286835 -0.0034163116943091154 -0.002387512708082795 -0.0017831191653385758 -0.0015694651519879699
00000000: 0000 00c0 7ea6 72bf 0000 00c0 7ea6 72bf
00000010: 0000 0000 a0aa 77bf 0000 0060 5d76 7ebf
00000020: 0000 0020 2180 82bf 0000 00e0 5940 86bf
00000030: 0000 0000 8cca 8abf 0000 00e0 6af5 8fbf
00000040: 0000 0040 24b9 92bf 0000 0040 f9fd 94bf
00000050: 0000 00c0 61bf 96bf 0000 0020 243d 98bf
00000060: 0000 0020 07aa 99bf 0000 00c0 ec14 9bbf
00000070: 0000 0040 2a6c 9cbf 0000 0000 2faf 9dbf
00000080: 0000 0020 350c 9fbf 0000 0080 3841 a0bf
00000090: 0000 0020 c12d a1bf 0000 0020 5d78 a2bf
000000a0: 0000 00a0 1d4c a4bf 0000 0040 619f a6bf
000000b0: 0000 00c0 8770 a9bf 0000 00e0 b985 acbf
000000c0: 0000 0020 109a afbf 0000 0020 1f43 b1bf
000000d0: 0000 0020 f89c b2bf 0000 0020 3ad7 b3bf
000000e0: 0000 0040 24eb b4bf 0000 0020 9dda b5bf
000000f0: 0000 0020 aca3 b6bf 0000 0040 d14a b7bf
00000100: 0000 0080 5ad1 b7bf 0000 0020 e73a b8bf
00000110: 0000 0040 b684 b8bf 0000 0020 91ac b8bf
00000120: 0000 0040 2ab3 b8bf 0000 0000 6aa6 b8bf
00000130: 0000 00e0 4283 b8bf 0000 00c0 9d49 b8bf
00000140: 0000 00e0 4c01 b8bf 0000 0060 83b1 b7bf
00000150: 0000 0000 cb5c b7bf 0000 00e0 4e08 b7bf
00000160: 0000 0060 7eba b6bf 0000 00a0 1b78 b6bf
00000170: 0000 0020 0046 b6bf 0000 00e0 5824 b6bf
00000180: 0000 0000 0c15 b6bf 0000 0000 fe15 b6bf
00000190: 0000 0000 3026 b6bf 0000 0080 9441 b6bf
000001a0: 0000 0020 0065 b6bf 0000 0020 7c8b b6bf
000001b0: 0000 00a0 cab2 b6bf 0000 0040 5ed8 b6bf
000001c0: 0000 0000 f4f8 b6bf 0000 0080 aa11 b7bf
000001d0: 0000 0080 7621 b7bf 0000 0060 6e2b b7bf
000001e0: 0000 00a0 8d31 b7bf 0000 0080 d437 b7bf
000001f0: 0000 00e0 f53f b7bf 0000 00c0 ab46 b7bf
00000200: 0000 00a0 d748 b7bf 0000 0000 2444 b7bf
00000210: 0000 0080 7b37 b7bf 0000 00a0 0026 b7bf
00000220: 0000 0000 460e b7bf 0000 0020 81ee b6bf
00000230: 0000 0060 6dc8 b6bf 0000 00c0 339e b6bf
00000240: 0000 0040 7872 b6bf 0000 0040 1848 b6bf
00000250: 0000 0080 3e20 b6bf 0000 0080 92f9 b5bf
00000260: 0000 0020 e5d7 b5bf 0000 00e0 99be b5bf
00000270: 0000 0060 47ad b5bf 0000 00e0 a19f b5bf
00000280: 0000 0000 7093 b5bf 0000 00c0 0a80 b5bf
00000290: 0000 0000 405b b5bf 0000 0020 cb22 b5bf
000002a0: 0000 0040 a1d3 b4bf 0000 00a0 a769 b4bf
000002b0: 0000 0080 d2e7 b3bf 0000 00a0 d056 b3bf
000002c0: 0000 0060 3faf b2bf 0000 00e0 37f1 b1bf
000002d0: 0000 0000 6425 b1bf 0000 0000 fe46 b0bf
000002e0: 0000 0080 ba9c aebf 0000 0000 c776 acbf
000002f0: 0000 0000 1736 aabf 0000 00e0 eee9 a7bf
00000300: 0000 0080 4b88 a5bf 0000 00c0 1db8 a2bf
00000310: 0000 0000 0353 9fbf 0000 00a0 34e0 98bf
00000320: 0000 0020 c108 92bf 0000 00e0 0052 86bf
00000330: 0000 00c0 5aec 70bf 0000 0020 34f4 623f
00000340: 0000 0040 ba23 833f 0000 00c0 30bc 903f
00000350: 0000 0080 8cb5 973f 0000 00e0 f955 9e3f
00000360: 0000 0060 fb37 a23f 0000 0040 e40a a53f
00000370: 0000 0020 88a0 a73f 0000 0020 1406 aa3f
00000380: 0000 0040 b65d ac3f 0000 0060 ccee ae3f
00000390: 0000 00c0 fa03 b13f 0000 00a0 1fbf b23f
000003a0: 0000 0040 b984 b43f 0000 0020 bc3a b63f
000003b0: 0000 0040 65cf b73f 0000 00a0 f239 b93f
000003c0: 0000 0040 3070 ba3f 0000 0060 8a71 bb3f
000003d0: 0000 0000 0445 bc3f 0000 0080 4af9 bc3f
000003e0: 0000 00a0 168a bd3f 0000 0020 3ced bd3f
000003f0: 0000 0000 801a be3f 0000 0020 631d be3f
00000400: 0000 0080 b201 be3f 0000 00e0 ddd3 bd3f
00000410: 0000 0000 c79d bd3f 0000 00e0 716c bd3f
00000420: 0000 0040 d03f bd3f 0000 0000 5a10 bd3f
00000430: 0000 0080 4bdf bc3f 0000 0060 bdb0 bc3f
00000440: 0000 00a0 3a87 bc3f 0000 00e0 e563 bc3f
00000450: 0000 0020 c046 bc3f 0000 0040 e92d bc3f
00000460: 0000 0080 861b bc3f 0000 0080 d310 bc3f
00000470: 0000 00c0 4c10 bc3f 0000 0060 3919 bc3f
00000480: 0000 0080 562b bc3f 0000 00e0 e140 bc3f
00000490: 0000 0000 2f53 bc3f 0000 00a0 f25f bc3f
000004a0: 0000 00e0 846c bc3f 0000 0080 b37c bc3f
000004b0: 0000 00a0 148d bc3f 0000 0060 3a96 bc3f
000004c0: 0000 00a0 ba95 bc3f 0000 00a0 0c90 bc3f
000004d0: 0000 0040 6986 bc3f 0000 00c0 0b77 bc3f
000004e0: 0000 0040 c060 bc3f 0000 00e0 0547 bc3f
000004f0: 0000 0040 d82c bc3f 0000 00a0 8814 bc3f
00000500: 0000 0060 a201 bc3f 0000 0080 daf1 bb3f
00000510: 0000 0020 3cdf bb3f 0000 00e0 d4c3 bb3f
00000520: 0000 00e0 3e9f bb3f 0000 00a0 cc74 bb3f
00000530: 0000 00a0 b849 bb3f 0000 0060 a519 bb3f
00000540: 0000 00e0 b4dc ba3f 0000 00a0 9b8b ba3f
00000550: 0000 0060 3527 ba3f 0000 0080 03b3 b93f
00000560: 0000 00a0 d234 b93f 0000 0000 3fa7 b83f
00000570: 0000 0000 8f05 b83f 0000 00c0 9352 b73f
00000580: 0000 0060 3984 b63f 0000 0020 4c97 b53f
00000590: 0000 0060 9588 b43f 0000 0060 7b57 b33f
000005a0: 0000 0060 ae02 b23f 0000 00e0 bf98 b03f
000005b0: 0000 0040 2645 ae3f 0000 0080 c846 ab3f
000005c0: 0000 0000 7f31 a83f 0000 0000 4c07 a53f
000005d0: 0000 00a0 cad7 a13f 0000 0040 6468 9b3f
000005e0: 0000 0040 2ee7 923f 0000 00e0 98da 843f
000005f0: 0000 0080 3172 5e3f 0000 00e0 f1d5 78bf
00000600: 0000 0080 b775 8bbf 0000 00a0 f3c4 94bf
00000610: 0000 00c0 a964 9bbf 0000 0080 44b3 a0bf
00000620: 0000 0080 1f60 a3bf 0000 0080 1ac0 a5bf
00000630: 0000 00e0 98c0 a7bf 0000 0000 dc5e a9bf
00000640: 0000 0040 25b6 aabf 0000 00c0 afb6 abbf
00000650: 0000 0040 9e50 acbf 0000 0000 407d acbf
00000660: 0000 0060 8b47 acbf 0000 00a0 9ac3 abbf
00000670: 0000 0020 d7f3 aabf 0000 0000 8fe3 a9bf
00000680: 0000 0020 eb97 a8bf 0000 00c0 1921 a7bf
00000690: 0000 0020 9085 a5bf 0000 0080 bcd1 a3bf
000006a0: 0000 0040 660f a2bf 0000 0060 194c a0bf
000006b0: 0000 0020 852f 9dbf 0000 0080 fcfe 99bf
000006c0: 0000 0080 4309 97bf 0000 00a0 444a 94bf
000006d0: 0000 0020 30ca 91bf 0000 0080 8212 8fbf
000006e0: 0000 0040 a402 8bbf 0000 0060 be59 87bf
000006f0: 0000 00c0 890f 84bf 0000 0040 fc1d 81bf
00000700: 0000 0020 70f3 7cbf 0000 0040 7167 78bf
00000710: 0000 00c0 eafa 74bf 0000 00e0 82a6 72bf
00000720: 0000 0060 e7a3 9cbf 0000 0060 e7a3 9cbf
00000730: 0000 00c0 7d04 9dbf 0000 00a0 110d 9dbf
00000740: 0000 0060 5cb9 9cbf 0000 0040 743c 9cbf
00000750: 0000 0000 18ad 9bbf 0000 00e0 1200 9bbf
00000760: 0000 0080 5ffc 99bf 0000 00a0 f061 98bf
00000770: 0000 00a0 787b 96bf 0000 0020 af78 94bf
00000780: 0000 0080 b179 92bf 0000 00a0 498a 90bf
00000790: 0000 0000 e760 8dbf 0000 00e0 8330 8abf
000007a0: 0000 0060 9199 87bf 0000 0040 febd 85bf
000007b0: 0000 0080 8db3 84bf 0000 0080 15d9 83bf
000007c0: 0000 0000 da37 82bf 0000 0080 3a74 7fbf
000007d0: 0000 00e0 ca67 79bf 0000 0000 0e69 73bf
000007e0: 0000 0060 86fc 6bbf 0000 0020 fa8e 63bf
000007f0: 0000 00a0 f136 5dbf 0000 0060 d0b6 59bf
