data/mixamo/36_800_24/train/ARISSA/Weight_Shift/Weight_Shift.npy (npy, 82208 bytes, 1 tensors)

array f8 [15, 3, 228]
00000000: 0000 0000 e84a 71bf 0000 0000 e84a 71bf
00000010: 0000 0040 f92e 76bf 0000 00e0 3ed3 7cbf
00000020: 0000 0000 d58d 81bf 0000 0060 621f 85bf
00000030: 0000 0020 4572 89bf 0000 0020 b46a 8ebf
00000040: 0000 0000 d6fd 91bf 0000 00e0 81e1 94bf
00000050: 0000 0000 db65 97bf 0000 0000 f7ca 99bf
00000060: 0000 0080 7939 9cbf 0000 00e0 36b4 9ebf
00000070: 0000 0060 4f91 a0bf 0000 00e0 86cb a1bf
00000080: 0000 00e0 0114 a3bf 0000 00c0 dd72 a4bf
00000090: 0000 00e0 c604 a6bf 0000 0020 a0e1 a7bf
000000a0: 0000 00a0 2421 aabf 0000 00a0 67af acbf
000000b0: 0000 00a0 8276 afbf 0000 00c0 1522 b1bf
000000c0: 0000 0020 c378 b2bf 0000 00e0 3eb7 b3bf
000000d0: 0000 0080 a7db b4bf 0000 00c0 d9e6 b5bf
000000e0: 0000 0040 94d6 b6bf 0000 00a0 83aa b7bf
000000f0: 0000 0020 635b b8bf 0000 0060 a9e8 b8bf
00000100: 0000 00a0 c953 b9bf 0000 00c0 cca3 b9bf
00000110: 0000 0020 c0d9 b9bf 0000 0080 10f6 b9bf
00000120: 0000 0060 d1f9 b9bf 0000 0080 25ef b9bf
00000130: 0000 00e0 1ad3 b9bf 0000 0080 daa5 b9bf
00000140: 0000 0000 3f6e b9bf 0000 00c0 bb31 b9bf
00000150: 0000 0000 abf1 b8bf 0000 0020 2fb2 b8bf
00000160: 0000 0000 d478 b8bf 0000 0020 bd48 b8bf
00000170: 0000 0040 4624 b8bf 0000 00e0 3c0b b8bf
00000180: 0000 00a0 c1ff b7bf 0000 0040 9e00 b8bf
00000190: 0000 00a0 be0c b8bf 0000 00c0 1b21 b8bf
000001a0: 0000 0020 d33b b8bf 0000 0060 8959 b8bf
000001b0: 0000 00e0 9478 b8bf 0000 0020 2c96 b8bf
000001c0: 0000 0040 f2ae b8bf 0000 0020 9dc0 b8bf
000001d0: 0000 0020 c3ca b8bf 0000 00e0 19d0 b8bf
000001e0: 0000 00a0 96d1 b8bf 0000 00c0 e4d1 b8bf
000001f0: 0000 00a0 60d2 b8bf 0000 0060 2ed1 b8bf
00000200: 0000 00a0 01cd b8bf 0000 00e0 7cc4 b8bf
00000210: 0000 00a0 73b6 b8bf 0000 0080 efa4 b8bf
00000220: 0000 0040 c48e b8bf 0000 00e0 3c72 b8bf
00000230: 0000 00a0 8450 b8bf 0000 00c0 772b b8bf
00000240: 0000 0060 1105 b8bf 0000 0080 0adf b7bf
00000250: 0000 0020 b4b9 b7bf 0000 0000 c393 b7bf
00000260: 0000 0060 ed6f b7bf 0000 0080 4750 b7bf
00000270: 0000 0080 3634 b7bf 0000 0000 4a18 b7bf
00000280: 0000 00e0 cef9 b6bf 0000 00a0 b6d1 b6bf
00000290: 0000 0040 8a98 b6bf 0000 0000 d64d b6bf
000002a0: 0000 00c0 72ef b5bf 0000 00e0 2679 b5bf
000002b0: 0000 0080 a0e5 b4bf 0000 0040 6437 b4bf
000002c0: 0000 00a0 046a b3bf 0000 0080 8880 b2bf
000002d0: 0000 0060 1583 b1bf 0000 0000 8470 b0bf
000002e0: 0000 0060 f684 aebf 0000 0080 eaed abbf
000002f0: 0000 0040 1e39 a9bf 0000 0080 f488 a6bf
00000300: 0000 0040 70e1 a3bf 0000 00e0 d7e3 a0bf
00000310: 0000 0020 ef7a 9bbf 0000 00a0 5c0c 95bf
00000320: 0000 0060 bae1 8cbf 0000 0000 90b5 7fbf
00000330: 0000 0080 2f4d 50bf 0000 0000 8fd4 773f
00000340: 0000 00e0 a59d 8b3f 0000 00a0 f3bd 953f
00000350: 0000 0080 79bc 9d3f 0000 0060 12d2 a23f
00000360: 0000 00e0 c6a6 a63f 0000 0080 7156 aa3f
00000370: 0000 0020 19d7 ad3f 0000 00e0 f48f b03f
00000380: 0000 00a0 7925 b23f 0000 0040 0cc4 b33f
00000390: 0000 00e0 e481 b53f 0000 0060 1f49 b73f
000003a0: 0000 0040 b8fc b83f 0000 00a0 b48c ba3f
000003b0: 0000 00e0 e1f6 bb3f 0000 0060 283c bd3f
000003c0: 0000 0040 7954 be3f 0000 00e0 883f bf3f
000003d0: 0000 0080 81fe bf3f 0000 00a0 df4b c03f
000003e0: 0000 00c0 3684 c03f 0000 00e0 59a8 c03f
000003f0: 0000 0000 3bb7 c03f 0000 0000 4db6 c03f
00000400: 0000 0080 8ca9 c03f 0000 00e0 d094 c03f
00000410: 0000 0000 bc7b c03f 0000 00e0 6f63 c03f
00000420: 0000 0000 8e4c c03f 0000 0040 2935 c03f
00000430: 0000 00e0 ac1e c03f 0000 0060 d60a c03f
00000440: 0000 0000 00f5 bf3f 0000 00c0 6ddb bf3f
00000450: 0000 0040 c9c8 bf3f 0000 0080 ffba bf3f
00000460: 0000 0080 65b3 bf3f 0000 0060 f2b1 bf3f
00000470: 0000 0040 eeb7 bf3f 0000 0080 c3c4 bf3f
00000480: 0000 0000 6fd8 bf3f 0000 00a0 62ee bf3f
00000490: 0000 0060 0301 c03f 0000 0060 d308 c03f
000004a0: 0000 00e0 f70f c03f 0000 0000 0917 c03f
000004b0: 0000 0000 551c c03f 0000 00e0 da1d c03f
000004c0: 0000 0060 7d1b c03f 0000 00a0 0817 c03f
000004d0: 0000 00e0 7d10 c03f 0000 0040 3007 c03f
000004e0: 0000 0060 3bf6 bf3f 0000 0060 32dc bf3f
000004f0: 0000 0040 ccc2 bf3f 0000 0060 00ab bf3f
00000500: 0000 0060 9796 bf3f 0000 0060 f582 bf3f
00000510: 0000 00a0 2b6b bf3f 0000 0020 f54a bf3f
00000520: 0000 0020 4822 bf3f 0000 0080 8af2 be3f
00000530: 0000 0040 05be be3f 0000 00a0 5280 be3f
00000540: 0000 00e0 9533 be3f 0000 0060 0fd3 bd3f
00000550: 0000 0080 a960 bd3f 0000 0040 51e0 bc3f
00000560: 0000 0060 5e55 bc3f 0000 00a0 3ab8 bb3f
00000570: 0000 0040 90ff ba3f 0000 0060 0623 ba3f
00000580: 0000 0060 8e1a b93f 0000 0000 36e8 b73f
00000590: 0000 00a0 ff8d b63f 0000 0020 b311 b53f
000005a0: 0000 00a0 0f75 b33f 0000 0060 8bc4 b13f
000005b0: 0000 00e0 9606 b03f 0000 0080 3a82 ac3f
000005c0: 0000 00a0 baeb a83f 0000 00c0 ac4f a53f
000005d0: 0000 0080 dabd a13f 0000 0080 6d81 9a3f
000005e0: 0000 00c0 1269 913f 0000 00c0 1018 813f
000005f0: 0000 00e0 f2b4 13bf 0000 00e0 c97b 80bf
00000600: 0000 00e0 36b1 8fbf 0000 00c0 89eb 96bf
00000610: 0000 00c0 5b7e 9dbf 0000 00c0 67bd a1bf
00000620: 0000 0000 1a6c a4bf 0000 0020 71c9 a6bf
00000630: 0000 0080 76c4 a8bf 0000 00c0 4b57 aabf
00000640: 0000 0020 9d91 abbf 0000 0000 7c72 acbf
00000650: 0000 00e0 c1e7 acbf 0000 0020 2bee acbf
00000660: 0000 0040 3195 acbf 0000 0000 76f1 abbf
00000670: 0000 0080 2e02 abbf 0000 0080 80d3 a9bf
00000680: 0000 0020 ac6e a8bf 0000 0060 cfe2 a6bf
00000690: 0000 0080 8b35 a5bf 0000 00e0 3b74 a3bf
000006a0: 0000 0020 f9a8 a1bf 0000 0060 12be 9fbf
000006b0: 0000 0040 b947 9cbf 0000 0060 6f05 99bf
000006c0: 0000 0080 e300 96bf 0000 0040 393a 93bf
000006d0: 0000 0060 e2b4 90bf 0000 0060 1ee1 8cbf
000006e0: 0000 0080 38d4 88bf 0000 0080 643b 85bf
000006f0: 0000 00e0 b70f 82bf 0000 0080 eb9e 7ebf
00000700: 0000 0080 bbf2 79bf 0000 00a0 681a 76bf
00000710: 0000 00a0 a03c 73bf 0000 00e0 e54a 71bf
00000720: 0000 0060 bb95 903f 0000 0060 bb95 903f
00000730: 0000 00e0 e244 903f 0000 00e0 2f36 903f
00000740: 0000 0020 166e 903f 0000 0040 a6c6 903f
00000750: 0000 0040 1430 913f 0000 0080 e4b2 913f
00000760: 0000 00e0 777e 923f 0000 0020 8bd0 933f
00000770: 0000 00a0 9861 953f 0000 0040 500e 973f
00000780: 0000 00c0 92bb 983f 0000 0020 c860 9a3f
00000790: 0000 00a0 fbf9 9b3f 0000 0080 9486 9d3f
000007a0: 0000 0080 acf0 9e3f 0000 0080 3218 a03f
000007b0: 0000 0020 db99 a03f 0000 0080 f10e a13f
000007c0: 0000 0060 af9a a13f 0000 0060 8338 a23f
000007d0: 0000 00e0 0cd5 a23f 0000 00c0 645c a33f
000007e0: 0000 0020 33cc a33f 0000 0000 3a21 a43f
000007f0: 0000 0040 1054 a43f 0000 00c0 3b66 a43f
-0.004221826791763306 -0.004221826791763306 -0.005415891297161579 -0.0070373970083892345 -0.008571304380893707 -0.01031376700848341 -0.012424984015524387 -0.014851958490908146
-0.01756986975669861 -0.020391492173075676 -0.022849485278129578 -0.02518831193447113 -0.027562998235225677 -0.029984338209033012 -0.03235862776637077 -0.03475591167807579
-0.03726201876997948 -0.03993885964155197 -0.04300519451498985 -0.04664326086640358 -0.0510341115295887 -0.056025732308626175 -0.06145103648304939 -0.06692634522914886
-0.0721551850438118 -0.07701485604047775 -0.08147665858268738 -0.08555375039577484 -0.08921171724796295 -0.09244558960199356 -0.09514445811510086 -0.09730013459920883
-0.09893474727869034 -0.10015563666820526 -0.10097885876893997 -0.1014108955860138 -0.10146816819906235 -0.10130533576011658 -0.10087745636701584 -0.10018697381019592
-0.09933847188949585 -0.09841512143611908 -0.09743756055831909 -0.09646887332201004 -0.09559369087219238 -0.09485990554094315 -0.09430350363254547 -0.0939214751124382
-0.09374628216028214 -0.0937594324350357 -0.09394446760416031 -0.09425519406795502 -0.0946628525853157 -0.09511622041463852 -0.09558992832899094 -0.09604144841432571
-0.09641946852207184 -0.09668905287981033 -0.0968439057469368 -0.09692537039518356 -0.0969480648636818 -0.09695272147655487 -0.09696010500192642 -0.09694185107946396
-0.09687814861536026 -0.09674816578626633 -0.09653399139642715 -0.0962667167186737 -0.09592844545841217 -0.0954931303858757 -0.09497860819101334 -0.09441326558589935
-0.09382732957601547 -0.09324708580970764 -0.09267736226320267 -0.0920984148979187 -0.09155162423849106 -0.09106871485710144 -0.09064045548439026 -0.09021437168121338
-0.08974926918745041 -0.0891374722123146 -0.0882650762796402 -0.08712518215179443 -0.08568494021892548 -0.08387988060712814 -0.08162882924079895 -0.07897020876407623
-0.07583645731210709 -0.07227376103401184 -0.06840642541646957 -0.06421685218811035 -0.05960817262530327 -0.054549530148506165 -0.04926390200853348 -0.04401363432407379
-0.03882933408021927 -0.032988306134939194 -0.02683614380657673 -0.02055496908724308 -0.014102417044341564 -0.00774151086807251 -0.0009949649684131145 0.005817946046590805
0.013484283350408077 0.021232420578598976 0.029039286077022552 0.036758970469236374 0.04424115642905235 0.0514407604932785 0.05828169360756874 0.06469660252332687
0.0708843246102333 0.0772102028131485 0.08401327580213547 0.09095951169729233 0.09760619699954987 0.10370949655771255 0.10923587530851364 0.1141991838812828
0.11847646534442902 0.12206321209669113 0.12497720122337341 0.1273154765367508 0.1290348470211029 0.13013766705989838 0.1305917501449585 0.1305633783340454
0.13017421960830688 0.12954150140285492 0.12877607345581055 0.1280345767736435 0.1273362636566162 0.12662234902381897 0.1259361356496811 0.12533073127269745
0.1248321533203125 0.1244419664144516 0.12415750324726105 0.12394711375236511 0.1238311231136322 0.12380900233983994 0.12390030920505524 0.12409612536430359
0.12439626455307007 0.12473122030496597 0.12503091990947723 0.1252693384885788 0.1254873126745224 0.12570297718048096 0.12586462497711182 0.12591110169887543
0.12583892047405243 0.12570293247699738 0.1255032867193222 0.12521937489509583 0.12485095113515854 0.12445368617773056 0.12406612932682037 0.12370302528142929
0.12339159101247787 0.12309201806783676 0.12272904068231583 0.12223751097917557 0.12161684781312943 0.12088838219642639 0.12008698284626007 0.11914554983377457
0.11797463148832321 0.11650177091360092 0.11475619673728943 0.112797811627388 0.11067762225866318 0.10827986150979996 0.10546208918094635 0.10209693759679794
0.0980614647269249 0.09338700771331787 0.08810422569513321 0.08230132609605789 0.07600495964288712 0.06940528005361557 0.06260054558515549 0.05568106472492218
0.048673469573259354 0.041623495519161224 0.03465159237384796 0.02588435262441635 0.01700238510966301 0.008346682414412498 -7.517559424741194e-05 -0.008048607967793941
-0.015474728308618069 -0.022382881492376328 -0.028802331537008286 -0.03464817255735397 -0.03988724946975708 -0.04450562968850136 -0.04837389290332794 -0.05144726485013962
-0.05384531989693642 -0.055560946464538574 -0.056455668061971664 -0.05650458112359047 -0.055825747549533844 -0.054576575756073 -0.05275101959705353 -0.05044175684452057
-0.04771936312317848 -0.04469917342066765 -0.041424140334129333 -0.03799616917967796 -0.034492287784814835 -0.030998503789305687 -0.027617353945970535 -0.02443479560315609
-0.0214877650141716 -0.018776793032884598 -0.016315018758177757 -0.014101254753768444 -0.012123528867959976 -0.010367188602685928 -0.008819042704999447 -0.007475776597857475
-0.006335003301501274 -0.005396279040724039 -0.0046964907087385654 -0.004221818875521421 0.016196181997656822 0.016196181997656822 0.015887780115008354 0.015831707045435905
0.016044946387410164 0.016382787376642227 0.016784969717264175 0.017283983528614044 0.018060563132166862 0.019350217655301094 0.020880112424492836 0.022515539079904556
0.024153035134077072 0.02575981803238392 0.027320796623826027 0.028833694756031036 0.03021497279405594 0.03143461048603058 0.032423827797174454 0.03331713378429413
0.03438327834010124 0.035587411373853683 0.03678169474005699 0.03781428188085556 0.03866729512810707 0.039315998554229736 0.0397038534283638 0.039842478930950165
