data/mixamo/36_800_24/train/GOBLIN_D_SHAREYKO/Weight_Shift/Weight_Shift.npy (npy, 82208 bytes, 1 tensors)

array f8 [15, 3, 228]
-0.009214701130986214 -0.009214701130986214 -0.010465404950082302 -0.01217824686318636 -0.013853132724761963 -0.015788767486810684 -0.018135739490389824 -0.020807480439543724
-0.023655090481042862 -0.02601885050535202 -0.02795560285449028 -0.02961445413529873 -0.031192060559988022 -0.03279007226228714 -0.03441285714507103 -0.03589661419391632
-0.037443533539772034 -0.038870539516210556 -0.04033689573407173 -0.04225119948387146 -0.04507497698068619 -0.04892905429005623 -0.05391842871904373 -0.05961168184876442
-0.06549592316150665 -0.07116527110338211 -0.07636303454637527 -0.080985888838768 -0.08493594825267792 -0.08828011155128479 -0.09109283238649368 -0.09356335550546646
-0.09571372717618942 -0.09750264883041382 -0.09880544245243073 -0.09950946271419525 -0.09963645786046982 -0.09946122765541077 -0.09896217286586761 -0.09811368584632874
-0.09701497107744217 -0.09579825401306152 -0.09452302753925323 -0.09324721246957779 -0.09203832596540451 -0.09098049998283386 -0.09018491208553314 -0.08966411650180817
-0.08942444622516632 -0.08942536264657974 -0.0896727442741394 -0.0901021808385849 -0.0906413272023201 -0.09121150523424149 -0.09178642928600311 -0.09234060347080231
-0.09284383803606033 -0.09325116872787476 -0.0935269370675087 -0.09370934218168259 -0.09384109079837799 -0.0939984992146492 -0.09421972185373306 -0.0944259911775589
-0.0945228710770607 -0.09447823464870453 -0.09430394321680069 -0.09405355900526047 -0.09370487183332443 -0.09323397278785706 -0.09266339242458344 -0.09202225506305695
-0.09135452657938004 -0.09070878475904465 -0.09009869396686554 -0.08950483798980713 -0.08900541812181473 -0.08866136521100998 -0.0884479433298111 -0.08828790485858917
-0.08816409856081009 -0.08794452250003815 -0.08746100217103958 -0.0866626501083374 -0.08548076450824738 -0.08386729657649994 -0.0818888396024704 -0.07968374341726303
-0.07714775204658508 -0.07425609230995178 -0.07112588733434677 -0.06769270449876785 -0.06389202922582626 -0.0598510205745697 -0.05573950335383415 -0.05140449479222298
-0.04665317386388779 -0.04098431020975113 -0.03487222641706467 -0.028356051072478294 -0.021437305957078934 -0.014532978646457195 -0.007701760157942772 -0.0012540924362838268
0.005680595524609089 0.012497971765697002 0.019049014896154404 0.02524513192474842 0.030933253467082977 0.03615928813815117 0.04062074050307274 0.04447783902287483
0.04818601906299591 0.05263490602374077 0.058538611978292465 0.0654134750366211 0.07271654158830643 0.07988021522760391 0.08632858842611313 0.09189113229513168
0.09659972041845322 0.10047409683465958 0.10372737795114517 0.10674525052309036 0.1094396561384201 0.11147118359804153 0.11265512555837631 0.11309304088354111
0.11298579722642899 0.112618088722229 0.11217018216848373 0.1118457168340683 0.1116042509675026 0.11127281188964844 0.11083896458148956 0.11037646979093552
0.10991973429918289 0.10947978496551514 0.10906660556793213 0.10868406295776367 0.1083655059337616 0.10812915861606598 0.10803079605102539 0.10808002948760986
0.10827361047267914 0.10850588232278824 0.10865334421396255 0.10868019610643387 0.10870911180973053 0.10886053740978241 0.10908378660678864 0.10919556021690369
0.10912224650382996 0.10896529257297516 0.10877830535173416 0.10852468013763428 0.10817161947488785 0.10775917023420334 0.10731204599142075 0.10685988515615463
0.1064624935388565 0.10608828067779541 0.10563568025827408 0.10500455647706985 0.10419856756925583 0.10332299023866653 0.10251100361347198 0.1016833558678627
0.10069002956151962 0.0993896946310997 0.097741037607193 0.09571294486522675 0.09340723603963852 0.09080594778060913 0.08789817243814468 0.08474496006965637
0.08119898289442062 0.07723306119441986 0.07283016294240952 0.0678684189915657 0.06231209263205528 0.05651962012052536 0.050593361258506775 0.044535040855407715
0.038300156593322754 0.03186376392841339 0.025391513481736183 0.01708798296749592 0.008705227635800838 0.0004280777066014707 -0.007863850332796574 -0.015658602118492126
-0.022720681503415108 -0.029272310435771942 -0.03545193001627922 -0.04095720499753952 -0.045608799904584885 -0.049629028886556625 -0.05289243534207344 -0.05546192079782486
-0.057567622512578964 -0.05892358347773552 -0.059583570808172226 -0.05951472744345665 -0.058754052966833115 -0.05744684487581253 -0.055705927312374115 -0.053577277809381485
-0.05103515833616257 -0.048225052654743195 -0.0452132485806942 -0.042051371186971664 -0.03879503905773163 -0.03555614501237869 -0.03244432061910629 -0.02952679805457592
-0.026778241619467735 -0.024192925542593002 -0.02182666026055813 -0.01970367319881916 -0.017802031710743904 -0.016092032194137573 -0.014563634060323238 -0.013180694542825222
-0.011866869404911995 -0.010688881389796734 -0.009809461422264576 -0.009214646182954311 -0.056779541075229645 -0.056779541075229645 -0.05708761513233185 -0.057091325521469116
-0.056768883019685745 -0.05627789720892906 -0.05569150671362877 -0.05498778074979782 -0.053997453302145004 -0.05256962403655052 -0.05085581913590431 -0.04906059429049492
-0.04729248210787773 -0.04555635154247284 -0.04382450506091118 -0.042387060821056366 -0.04120015352964401 -0.04035452380776405 -0.039891935884952545 -0.039492249488830566
-0.03871821612119675 -0.03760651499032974 -0.03633067011833191 -0.035076405853033066 -0.03389783576130867 -0.03295774385333061 -0.032433561980724335 -0.03227651119232178
00000000: 0000 0040 28df 82bf 0000 0040 28df 82bf
00000010: 0000 00e0 e26e 85bf 0000 00a0 e8f0 88bf
00000020: 0000 0000 085f 8cbf 0000 0040 ee2a 90bf
00000030: 0000 00e0 2c92 92bf 0000 0060 8e4e 95bf
00000040: 0000 0040 0a39 98bf 0000 0080 afa4 9abf
00000050: 0000 00c0 64a0 9cbf 0000 0060 4053 9ebf
00000060: 0000 00c0 cff0 9fbf 0000 0040 dcc9 a0bf
00000070: 0000 00e0 8f9e a1bf 0000 0080 0a61 a2bf
00000080: 0000 0080 cc2b a3bf 0000 00e0 d6e6 a3bf
00000090: 0000 00a0 09a7 a4bf 0000 0000 f3a1 a5bf
000000a0: 0000 0040 1114 a7bf 0000 00a0 3a0d a9bf
000000b0: 0000 0040 329b abbf 0000 0020 6c85 aebf
000000c0: 0000 0040 57c4 b0bf 0000 0020 e337 b2bf
000000d0: 0000 0020 878c b3bf 0000 00c0 7dbb b4bf
000000e0: 0000 00c0 5cbe b5bf 0000 0080 8699 b6bf
000000f0: 0000 0020 dc51 b7bf 0000 00a0 c4f3 b7bf
00000100: 0000 00e0 b180 b8bf 0000 0000 eff5 b8bf
00000110: 0000 0040 504b b9bf 0000 00c0 7379 b9bf
00000120: 0000 0060 c681 b9bf 0000 0080 4a76 b9bf
00000130: 0000 00c0 9555 b9bf 0000 0080 fa1d b9bf
00000140: 0000 0020 f9d5 b8bf 0000 0000 3c86 b8bf
00000150: 0000 0040 a932 b8bf 0000 00a0 0cdf b7bf
00000160: 0000 00e0 d28f b7bf 0000 0080 7f4a b7bf
00000170: 0000 00c0 5b16 b7bf 0000 0040 3af4 b6bf
00000180: 0000 0040 85e4 b6bf 0000 00a0 94e4 b6bf
00000190: 0000 0000 cbf4 b6bf 0000 00c0 ef10 b7bf
000001a0: 0000 0020 4534 b7bf 0000 0020 a359 b7bf
000001b0: 0000 00c0 507f b7bf 0000 0040 a2a3 b7bf
000001c0: 0000 0020 9dc4 b7bf 0000 0000 4fdf b7bf
000001d0: 0000 00a0 61f1 b7bf 0000 00e0 55fd b7bf
000001e0: 0000 0040 f805 b8bf 0000 0020 4910 b8bf
000001f0: 0000 00a0 c81e b8bf 0000 0040 4d2c b8bf
00000200: 0000 00a0 a632 b8bf 0000 00c0 b92f b8bf
00000210: 0000 00a0 4d24 b8bf 0000 00e0 e413 b8bf
00000220: 0000 00e0 0afd b7bf 0000 0080 2ede b7bf
00000230: 0000 00c0 c9b8 b7bf 0000 0040 c58e b7bf
00000240: 0000 00a0 0263 b7bf 0000 00e0 b038 b7bf
00000250: 0000 0040 b510 b7bf 0000 0000 cae9 b6bf
00000260: 0000 0020 0fc9 b6bf 0000 00e0 82b2 b6bf
00000270: 0000 0040 86a4 b6bf 0000 0040 099a b6bf
00000280: 0000 0020 ec91 b6bf 0000 0040 8883 b6bf
00000290: 0000 0020 d863 b6bf 0000 0000 862f b6bf
000002a0: 0000 0040 11e2 b5bf 0000 00c0 5378 b5bf
000002b0: 0000 00c0 aaf6 b4bf 0000 0060 2766 b4bf
000002c0: 0000 0080 f4bf b3bf 0000 0080 7202 b3bf
000002d0: 0000 0060 4e35 b2bf 0000 0020 4f54 b1bf
000002e0: 0000 0060 3a5b b0bf 0000 0000 cba4 aebf
000002f0: 0000 0060 e389 acbf 0000 00a0 b051 aabf
00000300: 0000 00c0 ece2 a7bf 0000 0040 e5fb a4bf
00000310: 0000 00c0 c5da a1bf 0000 0060 5e09 9dbf
00000320: 0000 0040 a9f3 95bf 0000 0060 77c3 8dbf
00000330: 0000 0080 e18b 7fbf 0000 0080 0b8c 54bf
00000340: 0000 0040 8944 773f 0000 0060 8998 893f
00000350: 0000 00c0 9581 933f 0000 0020 dcd9 993f
00000360: 0000 0080 f7ac 9f3f 0000 0060 7883 a23f
00000370: 0000 00e0 3dcc a43f 0000 00a0 ccc5 a63f
00000380: 0000 0080 d6ab a83f 0000 0060 f6f2 aa3f
00000390: 0000 00e0 c5f8 ad3f 0000 0000 f0be b03f
000003a0: 0000 0020 8d9d b23f 0000 00a0 0773 b43f
000003b0: 0000 0060 a119 b63f 0000 0060 2d86 b73f
000003c0: 0000 0060 c2ba b83f 0000 00a0 abb8 b93f
000003d0: 0000 00a0 e08d ba3f 0000 0020 a853 bb3f
000003e0: 0000 00c0 3c04 bc3f 0000 0020 6089 bc3f
000003f0: 0000 0060 f7d6 bc3f 0000 0060 aaf3 bc3f
00000400: 0000 0020 a3ec bc3f 0000 0000 8ad4 bc3f
00000410: 0000 0060 2fb7 bc3f 0000 00c0 eba1 bc3f
00000420: 0000 00a0 1892 bc3f 0000 0000 607c bc3f
00000430: 0000 0040 f15f bc3f 0000 00e0 a141 bc3f
00000440: 0000 0020 b323 bc3f 0000 0000 de06 bc3f
00000450: 0000 0000 caeb bb3f 0000 0000 b8d2 bb3f
00000460: 0000 0080 d7bd bb3f 0000 0040 5aae bb3f
00000470: 0000 0000 e8a7 bb3f 0000 0000 22ab bb3f
00000480: 0000 00c0 d1b7 bb3f 0000 00a0 0ac7 bb3f
00000490: 0000 00a0 b4d0 bb3f 0000 0020 77d2 bb3f
000004a0: 0000 0040 5cd4 bb3f 0000 00c0 48de bb3f
000004b0: 0000 0040 eaec bb3f 0000 0080 3df4 bb3f
000004c0: 0000 0080 6fef bb3f 0000 0040 26e5 bb3f
000004d0: 0000 0020 e5d8 bb3f 0000 0000 46c8 bb3f
000004e0: 0000 00a0 22b1 bb3f 0000 00e0 1a96 bb3f
000004f0: 0000 0060 cd78 bb3f 0000 0060 2b5b bb3f
00000500: 0000 0040 2041 bb3f 0000 0000 9a28 bb3f
00000510: 0000 00a0 f00a bb3f 0000 0020 94e1 ba3f
00000520: 0000 00e0 c1ac ba3f 0000 0020 6073 ba3f
00000530: 0000 0040 293e ba3f 0000 00a0 eb07 ba3f
00000540: 0000 0060 d2c6 b93f 0000 0060 9a71 b93f
00000550: 0000 0080 8e05 b93f 0000 00c0 a480 b83f
00000560: 0000 0060 89e9 b73f 0000 0000 0f3f b73f
00000570: 0000 00a0 7e80 b63f 0000 0080 d8b1 b53f
00000580: 0000 00e0 74c9 b43f 0000 00c0 8bc5 b33f
00000590: 0000 0060 ffa4 b23f 0000 0020 d35f b13f
000005a0: 0000 00e0 5ee7 af3f 0000 00c0 23f0 ac3f
000005b0: 0000 0080 5fe7 a93f 0000 0000 4ccd a63f
000005c0: 0000 0000 149c a33f 0000 0080 7250 a03f
000005d0: 0000 00a0 3b00 9a3f 0000 0020 837f 913f
000005e0: 0000 00e0 0bd4 813f 0000 00c0 f30d 3c3f
000005f0: 0000 0020 ec1a 80bf 0000 0000 cf08 90bf
00000600: 0000 0020 1744 97bf 0000 0080 8ff9 9dbf
00000610: 0000 0060 c126 a2bf 0000 00c0 57f8 a4bf
00000620: 0000 0060 095a a7bf 0000 00e0 f968 a9bf
00000630: 0000 00a0 b714 abbf 0000 0040 8165 acbf
00000640: 0000 00e0 8079 adbf 0000 0060 3b2b aebf
00000650: 0000 00e0 bc81 aebf 0000 00e0 b678 aebf
00000660: 0000 00e0 0215 aebf 0000 0040 ac69 adbf
00000670: 0000 00c0 7c85 acbf 0000 0020 7b6e abbf
00000680: 0000 00c0 4721 aabf 0000 0040 f4b0 a8bf
00000690: 0000 00e0 3026 a7bf 0000 00e0 c187 a5bf
000006a0: 0000 0080 f1dc a3bf 0000 0040 6a34 a2bf
000006b0: 0000 00c0 8a9c a0bf 0000 00e0 453c 9ebf
000006c0: 0000 0060 c16b 9bbf 0000 00c0 07c6 98bf
000006d0: 0000 0060 ba59 96bf 0000 0020 332d 94bf
000006e0: 0000 0020 b23a 92bf 0000 0000 6e7a 90bf
000006f0: 0000 00e0 89d3 8dbf 0000 00e0 7afe 8abf
00000700: 0000 0040 a84d 88bf 0000 0060 0de4 85bf
00000710: 0000 00a0 fb16 84bf 0000 00e0 20df 82bf
00000720: 0000 0040 3512 adbf 0000 0040 3512 adbf
00000730: 0000 0080 963a adbf 0000 0000 133b adbf
00000740: 0000 00a0 cf10 adbf 0000 00e0 74d0 acbf
00000750: 0000 00e0 9883 acbf 0000 00c0 5b27 acbf
00000760: 0000 00e0 8da5 abbf 0000 00e0 67ea aabf
00000770: 0000 0020 c609 aabf 0000 0060 781e a9bf
00000780: 0000 0060 b836 a8bf 0000 0080 2953 a7bf
00000790: 0000 0060 2a70 a6bf 0000 00c0 c1b3 a5bf
000007a0: 0000 00c0 2f18 a5bf 0000 0020 59a9 a4bf
000007b0: 0000 0040 b76c a4bf 0000 0000 5438 a4bf
000007c0: 0000 00c0 dfd2 a3bf 0000 0040 2941 a3bf
000007d0: 0000 0000 ef99 a2bf 0000 00e0 88f5 a1bf
000007e0: 0000 00a0 0e5b a1bf 0000 0060 d6df a0bf
000007f0: 0000 00c0 219b a0bf 0000 0000 8c86 a0bf
