data/mixamo/36_800_24/train/PEARL/Weight_Shift/Weight_Shift.npy (npy, 82208 bytes, 1 tensors)

array f8 [15, 3, 228]
000000 00 00 00 e0 88 0f 6b bf 00 00 00 e0 88 0f 6b bf
       -0.003303305944427848 -0.003303305944427848
000010 00 00 00 40 a5 ea 71 bf 00 00 00 40 70 d4 77 bf
       -0.004374166019260883 -0.005817831493914127
000020 00 00 00 80 57 60 7d bf 00 00 00 40 2e d6 81 bf
       -0.007171956822276115 -0.008709298446774483
000030 00 00 00 c0 ec ae 85 bf 00 00 00 e0 12 23 8a bf
       -0.010587548837065697 -0.012762210331857204
000040 00 00 00 20 b0 f7 8e bf 00 00 00 c0 71 98 91 bf
       -0.01512086484581232 -0.0171830914914608
000050 00 00 00 a0 c5 48 93 bf 00 00 00 a0 85 c7 94 bf
       -0.018832290545105934 -0.020292365923523903
000060 00 00 00 00 df 3f 96 bf 00 00 00 e0 29 c0 97 bf
       -0.021728023886680603 -0.023193983361124992
000070 00 00 00 20 47 3c 99 bf 00 00 00 c0 19 bc 9a bf
       -0.024644004181027412 -0.02610817179083824
000080 00 00 00 a0 2f 5c 9c bf 00 00 00 60 fb 20 9e bf
       -0.027695411816239357 -0.029422691091895103
000090 00 00 00 60 7e 1a a0 bf 00 00 00 a0 ca 63 a1 bf
       -0.031452130526304245 -0.03396447375416756
0000a0 00 00 00 60 61 09 a3 bf 00 00 00 c0 6c fe a4 bf
       -0.03718094155192375 -0.04100360721349716
0000b0 00 00 00 e0 1c 41 a7 bf 00 00 00 e0 8c ae a9 bf
       -0.045418646186590195 -0.05015983805060387
0000c0 00 00 00 e0 06 1a ac bf 00 00 00 c0 4b 63 ae bf
       -0.054886069148778915 -0.05935131758451462
0000d0 00 00 00 a0 e6 3b b0 bf 00 00 00 e0 7a 2a b1 bf
       -0.06341401487588882 -0.06705444306135178
0000e0 00 00 00 e0 59 fc b1 bf 00 00 00 c0 38 b3 b2 bf
       -0.07025682181119919 -0.0730472058057785
0000f0 00 00 00 20 7c 4a b3 bf 00 00 00 60 97 c4 b3 bf
       -0.07535529881715775 -0.07721849530935287
000100 00 00 00 e0 25 24 b4 bf 00 00 00 00 de 6d b4 bf
       -0.07867657393217087 -0.07980144023895264
000110 00 00 00 80 7a a0 b4 bf 00 00 00 40 d2 ba b4 bf
       -0.08057370781898499 -0.08097566664218903
000120 00 00 00 20 25 be b4 bf 00 00 00 e0 74 b4 b4 bf
       -0.08102638274431229 -0.08087854832410812
000130 00 00 00 80 4f 9b b4 bf 00 00 00 e0 8c 72 b4 bf
       -0.08049485087394714 -0.07987289875745773
000140 00 00 00 20 f6 3f b4 bf 00 00 00 c0 66 08 b4 bf
       -0.07910097390413284 -0.07825319468975067
000150 00 00 00 80 41 cd b3 bf 00 00 00 00 66 92 b3 bf
       -0.07735070586204529 -0.07645261287689209
000160 00 00 00 60 73 5c b3 bf 00 00 00 60 43 2e b3 bf
       -0.07562943547964096 -0.07492467015981674
000170 00 00 00 e0 d9 0a b3 bf 00 00 00 80 84 f2 b2 bf
       -0.07438432425260544 -0.07401302456855774
000180 00 00 00 60 d1 e6 b2 bf 00 00 00 60 64 e6 b2 bf
       -0.07383450120687485 -0.07382800430059433
000190 00 00 00 a0 89 f0 b2 bf 00 00 00 20 a5 02 b3 bf
       -0.07398281246423721 -0.07425910979509354
0001a0 00 00 00 c0 db 1a b3 bf 00 00 00 80 c1 35 b3 bf
       -0.07462857663631439 -0.07503899931907654
0001b0 00 00 00 60 ce 51 b3 bf 00 00 00 60 fd 6c b3 bf
       -0.07546701282262802 -0.07588180154561996
0001c0 00 00 00 20 75 84 b3 bf 00 00 00 60 e3 95 b3 bf
       -0.07623989135026932 -0.0765058621764183
0001d0 00 00 00 e0 8e a0 b3 bf 00 00 00 c0 a3 a6 b3 bf
       -0.07666867226362228 -0.07676146924495697
0001e0 00 00 00 20 64 a9 b3 bf 00 00 00 a0 69 ab b3 bf
       -0.07680345326662064 -0.0768342986702919
0001f0 00 00 00 40 ae ad b3 bf 00 00 00 40 70 ae b3 bf
       -0.07686890661716461 -0.07688046991825104
000200 00 00 00 a0 59 ac b3 bf 00 00 00 c0 11 a6 b3 bf
       -0.076848603785038 -0.07675276696681976
000210 00 00 00 00 71 9a b3 bf 00 00 00 40 1f 8b b3 bf
       -0.07657533884048462 -0.07634158432483673
000220 00 00 00 80 3a 77 b3 bf 00 00 00 60 fa 5d b3 bf
       -0.07603803277015686 -0.07565274089574814
000230 00 00 00 00 8e 40 b3 bf 00 00 00 60 e5 1f b3 bf
       -0.0752037763595581 -0.07470544427633286
000240 00 00 00 00 84 fd b2 bf 00 00 00 80 32 db b2 bf
       -0.07418084144592285 -0.07365718483924866
000250 00 00 00 60 89 b9 b2 bf 00 00 00 80 fa 97 b2 bf
       -0.07314356416463852 -0.07263150811195374
000260 00 00 00 20 f7 78 b2 bf 00 00 00 80 25 5e b2 bf
       -0.07215828448534012 -0.07174906134605408
000270 00 00 00 c0 ee 46 b2 bf 00 00 00 e0 56 30 b2 bf
       -0.07139484584331512 -0.07105010002851486
000280 00 00 00 40 53 18 b2 bf 00 00 00 60 23 f9 b1 bf
       -0.07068367302417755 -0.07020779699087143
000290 00 00 00 40 44 cc b1 bf 00 00 00 a0 e5 8f b1 bf
       -0.06952311098575592 -0.06860194355249405
0002a0 00 00 00 60 fc 40 b1 bf 00 00 00 a0 c7 dc b0 bf
       -0.06739785522222519 -0.06586883217096329
0002b0 00 00 00 80 67 65 b0 bf 00 00 00 20 1f c1 af bf
       -0.06404730677604675 -0.06202027574181557
0002c0 00 00 00 e0 b0 92 ae bf 00 00 00 20 ff 3b ad bf
       -0.059712912887334824 -0.05709836259484291
0002d0 00 00 00 40 74 c4 ab bf 00 00 00 a0 1f 2b aa bf
       -0.05423320084810257 -0.05111025646328926
0002e0 00 00 00 a0 d7 65 a8 bf 00 00 00 a0 06 75 a6 bf
       -0.0476519949734211 -0.04386158660054207
0002f0 00 00 00 e0 22 6c a4 bf 00 00 00 20 50 5b a2 bf
       -0.03988751396536827 -0.035852912813425064
000300 00 00 00 e0 fd 3f a0 bf 00 00 00 e0 2d 97 9b bf
       -0.031738217920064926 -0.026943890377879143
000310 00 00 00 00 70 45 96 bf 00 00 00 40 b5 b1 90 bf
       -0.021749258041381836 -0.01630290225148201
000320 00 00 00 a0 35 9b 85 bf 00 00 00 a0 93 3e 73 bf
       -0.010549944825470448 -0.004698349628597498
000330 00 00 00 00 9e 2e 54 3f 00 00 00 c0 cf c8 7c 3f
       0.0012318175286054611 0.0070274462923407555
000340 00 00 00 c0 cc 92 8b 3f 00 00 00 00 9f 68 94 3f
       0.013463592156767845 0.019930347800254822
000350 00 00 00 a0 72 eb 9a 3f 00 00 00 20 d3 9b a0 3f
       0.02628878690302372 0.03243884816765785
000360 00 00 00 a0 b6 9b a3 3f 00 00 00 c0 04 7c a6 3f
       0.0382973738014698 0.04391493648290634
000370 00 00 00 60 c2 34 a9 3f 00 00 00 40 65 c4 ab 3f
       0.04923064634203911 0.054232753813266754
000380 00 00 00 20 09 37 ae 3f 00 00 00 60 b0 5b b0 3f
       0.05901363864541054 0.06389906257390976
000390 00 00 00 e0 53 b9 b1 3f 00 00 00 60 e8 28 b3 3f
       0.06923412531614304 0.07484295219182968
0003a0 00 00 00 40 96 9a b4 3f 00 00 00 e0 cc fe b5 3f
       0.0804838091135025 0.08591919392347336
0003b0 00 00 00 a0 69 44 b7 3f 00 00 00 60 bf 64 b8 3f
       0.0908876433968544 0.09528728574514389
0003c0 00 00 00 00 48 5d b9 3f 00 00 00 40 9e 2c ba 3f
       0.09907960891723633 0.1022433191537857
0003d0 00 00 00 80 bd d3 ba 3f 00 00 00 c0 b3 5b bb 3f
       0.10479339957237244 0.10686801373958588
0003e0 00 00 00 80 96 c3 bb 3f 00 00 00 a0 a2 09 bc 3f
       0.1084531843662262 0.1095220223069191
0003f0 00 00 00 40 fa 2a bc 3f 00 00 00 e0 01 2f bc 3f
       0.11003078520298004 0.11009227484464645
000400 00 00 00 c0 7c 1c bc 3f 00 00 00 e0 00 fc bb 3f
       0.10980968177318573 0.10931401699781418
000410 00 00 00 00 b8 d4 bb 3f 00 00 00 80 c1 af bb 3f
       0.10871458053588867 0.10815057158470154
000420 00 00 00 a0 d3 8d bb 3f 00 00 00 a0 c0 6a bb 3f
       0.10763285309076309 0.10709766298532486
000430 00 00 00 20 d9 47 bb 3f 00 00 00 40 ce 27 bb 3f
       0.10656506568193436 0.10607613623142242
000440 00 00 00 a0 cc 0c bb 3f 00 00 00 a0 bf f7 ba 3f
       0.10566405206918716 0.10534284263849258
000450 00 00 00 a0 4a e8 ba 3f 00 00 00 60 65 dc ba 3f
       0.10510698705911636 0.1049254760146141
000460 00 00 00 a0 6c d5 ba 3f 00 00 00 00 8b d3 ba 3f
       0.10481909662485123 0.10479038953781128
000470 00 00 00 20 bb d7 ba 3f 00 00 00 60 8b e1 ba 3f
       0.1048542931675911 0.10500403493642807
000480 00 00 00 80 30 f1 ba 3f 00 00 00 20 c5 02 bb 3f
       0.1052427589893341 0.10551101714372635
000490 00 00 00 00 32 12 bb 3f 00 00 00 40 e2 1d bb 3f
       0.10574638843536377 0.10592474043369293
0004a0 00 00 00 a0 5c 28 bb 3f 00 00 00 a0 36 33 bb 3f
       0.10608462244272232 0.10625020414590836
0004b0 00 00 00 e0 35 3c bb 3f 00 00 00 80 99 3f bb 3f
       0.10638748854398727 0.10643920302391052
0004c0 00 00 00 20 44 3c bb 3f 00 00 00 20 bd 34 bb 3f
       0.10638833791017532 0.10627347975969315
0004d0 00 00 00 a0 80 29 bb 3f 00 00 00 60 0e 1a bb 3f
       0.10610202699899673 0.10586633533239365
0004e0 00 00 00 80 f9 05 bb 3f 00 00 00 60 77 ef ba 3f
       0.10555991530418396 0.10521646589040756
0004f0 00 00 00 40 82 d8 ba 3f 00 00 00 e0 7c c2 ba 3f
       0.104866161942482 0.10453014820814133
000500 00 00 00 00 53 af ba 3f 00 00 00 e0 35 9d ba 3f
       0.10423773527145386 0.10396134108304977
000510 00 00 00 c0 58 88 ba 3f 00 00 00 e0 39 6c ba 3f
       0.10364298522472382 0.10321389883756638
000520 00 00 00 60 4f 47 ba 3f 00 00 00 20 97 1a ba 3f
       0.10265060514211655 0.10196823626756668
000530 00 00 00 00 68 e8 b9 3f 00 00 00 a0 b3 ad b9 3f
       0.10120248794555664 0.10030672699213028
000540 00 00 00 e0 b2 65 b9 3f 00 00 00 c0 e9 0b b9 3f
       0.0992080494761467 0.09783802926540375
000550 00 00 00 60 8b a0 b8 3f 00 00 00 a0 a6 25 b8 3f
       0.09619971364736557 0.0943245068192482
000560 00 00 00 20 7b 9e b7 3f 00 00 00 40 fa 05 b7 3f
       0.09226197749376297 0.08993496000766754
000570 00 00 00 c0 28 57 b6 3f 00 00 00 20 33 94 b5 3f
       0.0872674435377121 0.08429259806871414
000580 00 00 00 a0 37 b6 b4 3f 00 00 00 20 13 bd b3 3f
       0.08090541511774063 0.07710380107164383
000590 00 00 00 e0 44 a9 b2 3f 00 00 00 80 45 7b b1 3f
       0.0728953406214714 0.06828722357749939
0005a0 00 00 00 e0 2f 33 b0 3f 00 00 00 00 52 b6 ad 3f
       0.06328105181455612 0.05803161859512329
0005b0 00 00 00 60 3f f5 aa 3f 00 00 00 c0 d4 2a a8 3f
       0.05265234038233757 0.04720177501440048
0005c0 00 00 00 20 cb 55 a5 3f 00 00 00 20 6f 77 a2 3f
       0.04167017713189125 0.03606745973229408
0005d0 00 00 00 c0 90 33 9f 3f 00 00 00 a0 a2 b1 97 3f
       0.030470144003629684 0.023138562217354774
0005e0 00 00 00 e0 e0 e6 8f 3f 00 00 00 e0 70 91 80 3f
       0.015577084384858608 0.00808990653604269
0005f0 00 00 00 e0 38 1d 45 3f 00 00 00 20 34 5e 7a bf
       0.0006443526945076883 -0.006437495816498995
000600 00 00 00 60 12 9f 8a bf 00 00 00 a0 a8 8b 93 bf
       -0.012998717837035656 -0.019087443128228188
000610 00 00 00 e0 78 57 99 bf 00 00 00 20 0c 9d 9e bf
       -0.02474774233996868 -0.0298959631472826
000620 00 00 00 e0 e4 a2 a1 bf 00 00 00 60 9c ae a3 bf
       -0.034445907920598984 -0.038441549986600876
000630 00 00 00 80 56 65 a5 bf 00 00 00 40 79 c5 a6 bf
       -0.041788771748542786 -0.04447535425424576
000640 00 00 00 e0 51 d2 a7 bf 00 00 00 a0 ce 89 a8 bf
       -0.04652648791670799 -0.04792638495564461
000650 00 00 00 c0 cc e5 a8 bf 00 00 00 e0 cc e6 a8 bf
       -0.04862823337316513 -0.04863586649298668
000660 00 00 00 a0 4f 97 a8 bf 00 00 00 00 23 08 a8 bf
       -0.04802941158413887 -0.04693707823753357
000670 00 00 00 60 dd 39 a7 bf 00 00 00 c0 15 35 a6 bf
       -0.045363347977399826 -0.04337375611066818
000680 00 00 00 40 7c ff a4 bf 00 00 00 00 8b a7 a3 bf
       -0.04101169854402542 -0.03838762640953064
000690 00 00 00 80 74 34 a2 bf 00 00 00 00 46 b2 a0 bf
       -0.035556450486183167 -0.03261011838912964
0006a0 00 00 00 a0 db 52 9e bf 00 00 00 80 ad 44 9b bf
       -0.02961295284330845 -0.026629172265529633
0006b0 00 00 00 c0 bd 4c 98 bf 00 00 00 80 4b 7d 95 bf
       -0.023730244487524033 -0.02098577469587326
0006c0 00 00 00 00 a7 df 92 bf 00 00 00 80 d2 75 90 bf
       -0.018431290984153748 -0.01607445627450943
0006d0 00 00 00 20 54 8b 8c bf 00 00 00 40 39 a0 88 bf
       -0.013937623240053654 -0.012024352326989174
0006e0 00 00 00 e0 e9 21 85 bf 00 00 00 60 96 04 82 bf
       -0.010318591259419918 -0.008797812275588512
0006f0 00 00 00 40 21 84 7e bf 00 00 00 60 31 b0 79 bf
       -0.007450227625668049 -0.0062715462408959866
000700 00 00 00 20 c0 7f 75 bf 00 00 00 20 39 fb 71 bf
       -0.005248785484582186 -0.004389975685626268
000710 00 00 00 80 f1 ad 6e bf 00 00 00 40 91 0f 6b bf
       -0.00374505203217268 -0.0033033215440809727
000720 00 00 00 80 3f 33 6a 3f 00 00 00 80 3f 33 6a 3f
       0.0031982650980353355 0.0031982650980353355
000730 00 00 00 e0 d5 e8 67 3f 00 00 00 00 a9 33 67 3f
       0.0029186417814344168 0.0028322506695985794
000740 00 00 00 80 9d 44 68 3f 00 00 00 a0 db 4d 6a 3f
       0.0029624057933688164 0.0032109536696225405
000750 00 00 00 a0 b2 ff 6c 3f 00 00 00 00 41 40 70 3f
       0.0035398949403315783 0.0039675273001194
000760 00 00 00 c0 18 f0 72 3f 00 00 00 60 10 3d 77 3f
       0.004623505286872387 0.0056734695099294186
000770 00 00 00 40 23 6f 7c 3f 00 00 00 80 37 09 81 3f
       0.0069419266656041145 0.008318360894918442
000780 00 00 00 a0 3f e9 83 3f 00 00 00 20 83 c9 86 3f
       0.009722230024635792 0.011126541532576084
000790 00 00 00 60 90 a4 89 3f 00 00 00 e0 49 0a 8c 3f
       0.012520912103354931 0.013691498897969723
0007a0 00 00 00 00 4e e8 8d 3f 00 00 00 20 84 36 8f 3f
       0.01460324227809906 0.015240699984133244
0007b0 00 00 00 40 8d d3 8f 3f 00 00 00 e0 3a 10 90 3f
       0.015540221706032753 0.015686912462115288
0007c0 00 00 00 60 14 73 90 3f 00 00 00 00 e7 30 91 3f
       0.0160639937967062 0.01678811013698578
0007d0 00 00 00 60 14 3e 92 3f 00 00 00 e0 02 5c 93 3f
       0.017814939841628075 0.018905682489275932
0007e0 00 00 00 20 59 5c 94 3f 00 00 00 a0 ef 13 95 3f
       0.0198835302144289 0.02058386243879795
0007f0 00 00 00 a0 aa 73 95 3f 00 00 00 00 9e 94 95 3f
       0.020949045196175575 0.021074742078781128
