data/mixamo/36_800_24/train/BRUTE/Weight_Shift/Weight_Shift.npy (npy, 82208 bytes, 1 tensors)

array f8 [15, 3, 228]
00000000: 0000 0020 2b1c 5bbf 0000 0020 2b1c 5bbf
00000010: 0000 0080 249b 69bf 0000 0040 70fb 74bf
00000020: 0000 00c0 b7ba 7cbf 0000 0040 9cbe 82bf
00000030: 0000 0040 9a0f 88bf 0000 0080 7a37 8ebf
00000040: 0000 0060 d77e 92bf 0000 0080 53a6 95bf
00000050: 0000 0060 bd40 98bf 0000 0000 f79e 9abf
00000060: 0000 0040 a4fe 9cbf 0000 00e0 8d6f 9fbf
00000070: 0000 00e0 d8ec a0bf 0000 00e0 b925 a2bf
00000080: 0000 0080 2c75 a3bf 0000 0020 99db a4bf
00000090: 0000 0000 6870 a6bf 0000 00e0 dc4e a8bf
000000a0: 0000 00e0 4a9d aabf 0000 0000 d454 adbf
000000b0: 0000 0080 c339 b0bf 0000 00e0 97e2 b1bf
000000c0: 0000 00c0 dc86 b3bf 0000 0040 1913 b5bf
000000d0: 0000 0080 dc7e b6bf 0000 00c0 08c8 b7bf
000000e0: 0000 00e0 bde8 b8bf 0000 00c0 afe1 b9bf
000000f0: 0000 0060 2bb0 babf 0000 0060 ae5a bbbf
00000100: 0000 0080 15e4 bbbf 0000 0060 1650 bcbf
00000110: 0000 0000 139b bcbf 0000 0020 3dc2 bcbf
00000120: 0000 00c0 bdc7 bcbf 0000 0060 0fbb bcbf
00000130: 0000 0040 d999 bcbf 0000 0080 3363 bcbf
00000140: 0000 0060 391e bcbf 0000 0080 4ed2 bbbf
00000150: 0000 00c0 7182 bbbf 0000 00a0 3833 bbbf
00000160: 0000 0000 92e9 babf 0000 0040 96a9 babf
00000170: 0000 0080 9078 babf 0000 00c0 5057 babf
00000180: 0000 00e0 7c47 babf 0000 0060 0147 babf
00000190: 0000 00a0 8455 babf 0000 00e0 416f babf
000001a0: 0000 0060 0591 babf 0000 0040 f4b5 babf
000001b0: 0000 00a0 ebdb babf 0000 0000 6a00 bbbf
000001c0: 0000 0020 5c20 bbbf 0000 00a0 8738 bbbf
000001d0: 0000 0000 3f47 bbbf 0000 0000 5c4f bbbf
000001e0: 0000 00a0 c252 bbbf 0000 0040 6655 bbbf
000001f0: 0000 00c0 2b59 bbbf 0000 00c0 2d5b bbbf
00000200: 0000 0040 6858 bbbf 0000 0000 e04e bbbf
00000210: 0000 0080 fc3d bbbf 0000 00e0 b428 bbbf
00000220: 0000 0000 a00d bbbf 0000 0000 f4ea babf
00000230: 0000 00e0 04c2 babf 0000 0000 7494 babf
00000240: 0000 0020 9964 babf 0000 0000 db34 babf
00000250: 0000 0080 ca05 babf 0000 0080 23d6 b9bf
00000260: 0000 0040 6ca9 b9bf 0000 00c0 b582 b9bf
00000270: 0000 0000 8261 b9bf 0000 0000 3841 b9bf
00000280: 0000 0000 081f b9bf 0000 0040 f5f2 b8bf
00000290: 0000 00c0 ddb3 b8bf 0000 0080 465f b8bf
000002a0: 0000 00c0 e1f0 b7bf 0000 0000 9664 b7bf
000002b0: 0000 0020 d3ba b6bf 0000 00e0 44fa b5bf
000002c0: 0000 0020 5b1c b5bf 0000 0000 da20 b4bf
000002d0: 0000 00c0 c10e b3bf 0000 0060 9be4 b1bf
000002e0: 0000 0000 ae9c b0bf 0000 0040 0174 aebf
000002f0: 0000 0060 b396 abbf 0000 0000 2fae a8bf
00000300: 0000 0020 90b0 a5bf 0000 00c0 4239 a2bf
00000310: 0000 00e0 4103 9dbf 0000 00a0 fc3e 95bf
00000320: 0000 00a0 2829 8abf 0000 0040 f065 73bf
00000330: 0000 0080 9bf4 6c3f 0000 00c0 0cf6 873f
00000340: 0000 0040 7d41 953f 0000 00c0 138f 9e3f
00000350: 0000 00c0 68df a33f 0000 00a0 0657 a83f
00000360: 0000 0060 769d ac3f 0000 00c0 695b b03f
00000370: 0000 0000 024a b23f 0000 0000 7114 b43f
00000380: 0000 0040 14c6 b53f 0000 0080 9282 b73f
00000390: 0000 0000 566e b93f 0000 00e0 2575 bb3f
000003a0: 0000 0060 e678 bd3f 0000 00a0 a663 bf3f
000003b0: 0000 0080 2492 c03f 0000 00c0 ea5a c13f
000003c0: 0000 0000 6006 c23f 0000 00e0 a393 c23f
000003d0: 0000 00c0 8f05 c33f 0000 00c0 7164 c33f
000003e0: 0000 0000 5ab0 c33f 0000 00c0 f1e5 c33f
000003f0: 0000 0060 6c00 c43f 0000 0040 1605 c43f
00000400: 0000 00c0 9af9 c33f 0000 00e0 83e4 c33f
00000410: 0000 0080 8ccb c33f 0000 0080 feb4 c33f
00000420: 0000 00c0 9fa0 c33f 0000 00e0 f68a c33f
00000430: 0000 00a0 1575 c33f 0000 0060 1261 c33f
00000440: 0000 0000 e34f c33f 0000 0040 c241 c33f
00000450: 0000 00e0 0037 c33f 0000 00c0 d22e c33f
00000460: 0000 0020 9d29 c33f 0000 0020 3f27 c33f
00000470: 0000 00e0 1629 c33f 0000 0020 4a2f c33f
00000480: 0000 0060 e939 c33f 0000 0000 ea45 c33f
00000490: 0000 0060 e94f c33f 0000 0040 a356 c33f
000004a0: 0000 00e0 a75c c33f 0000 0020 2b64 c33f
000004b0: 0000 00e0 486b c33f 0000 00e0 fe6d c33f
000004c0: 0000 00e0 1d6b c33f 0000 0080 5765 c33f
000004d0: 0000 0000 7b5d c33f 0000 0080 d052 c33f
000004e0: 0000 00e0 0545 c33f 0000 0040 c135 c33f
000004f0: 0000 00c0 f225 c33f 0000 0020 7a16 c33f
00000500: 0000 00c0 0f09 c33f 0000 00a0 37fc c23f
00000510: 0000 00e0 9aec c23f 0000 00c0 50d7 c23f
00000520: 0000 00e0 fcbb c23f 0000 0060 df9b c23f
00000530: 0000 0040 e878 c23f 0000 0000 9e50 c23f
00000540: 0000 00e0 601f c23f 0000 00e0 ebe1 c13f
00000550: 0000 00e0 5198 c13f 0000 00a0 4b44 c13f
00000560: 0000 00a0 cce8 c03f 0000 00e0 7982 c03f
00000570: 0000 00e0 b40c c03f 0000 00c0 700c bf3f
00000580: 0000 0020 ccd5 bd3f 0000 0080 2e76 bc3f
00000590: 0000 0060 87ec ba3f 0000 00e0 7e39 b93f
000005a0: 0000 0000 575e b73f 0000 0040 bd6c b53f
000005b0: 0000 0000 2a70 b33f 0000 0080 ff6c b13f
000005c0: 0000 0060 28c5 ae3f 0000 0080 d2a3 aa3f
000005d0: 0000 00c0 8c83 a63f 0000 00c0 6136 a13f
000005e0: 0000 0080 aaa0 973f 0000 00e0 5504 8a3f
000005f0: 0000 0040 7037 643f 0000 0040 8e67 7dbf
00000600: 0000 0040 5b6f 90bf 0000 0000 eee4 98bf
00000610: 0000 0040 f466 a0bf 0000 0040 b6fc a3bf
00000620: 0000 00a0 3828 a7bf 0000 0000 f4ed a9bf
00000630: 0000 0000 ce39 acbf 0000 00e0 4e0b aebf
00000640: 0000 0000 df70 afbf 0000 00e0 f533 b0bf
00000650: 0000 00c0 3571 b0bf 0000 0000 ec6e b0bf
00000660: 0000 0040 a034 b0bf 0000 00c0 a39d afbf
00000670: 0000 00e0 5d7d aebf 0000 0060 5913 adbf
00000680: 0000 0000 ef66 abbf 0000 0000 f68c a9bf
00000690: 0000 0040 b68e a7bf 0000 00e0 ce79 a5bf
000006a0: 0000 0000 9859 a3bf 0000 00e0 293d a1bf
000006b0: 0000 0080 7168 9ebf 0000 0060 4593 9abf
000006c0: 0000 0000 b6ff 96bf 0000 0020 77ac 93bf
000006d0: 0000 0000 d1a2 90bf 0000 00c0 41d4 8bbf
000006e0: 0000 0040 a201 87bf 0000 00a0 81b9 82bf
000006f0: 0000 0060 8be0 7dbf 0000 00c0 414b 77bf
00000700: 0000 0000 fe96 71bf 0000 0000 bc88 69bf
00000710: 0000 00c0 3657 62bf 0000 00c0 e31b 5bbf
00000720: 0000 0040 743c 783f 0000 0040 743c 783f
00000730: 0000 0060 d0ba 763f 0000 0060 fa69 763f
00000740: 0000 0040 5e63 773f 0000 0080 5d01 793f
00000750: 0000 0000 5304 7b3f 0000 00c0 b191 7d3f
00000760: 0000 0080 51bb 803f 0000 00c0 4fdb 833f
00000770: 0000 0000 4095 873f 0000 00e0 a396 8b3f
00000780: 0000 0060 fea3 8f3f 0000 00e0 0bd6 913f
00000790: 0000 0060 1bd4 933f 0000 0000 cb98 953f
000007a0: 0000 0080 4a13 973f 0000 0020 5c3e 983f
000007b0: 0000 0040 f204 993f 0000 00c0 faa1 993f
000007c0: 0000 0000 658d 9a3f 0000 0060 74d8 9b3f
000007d0: 0000 0000 3a5c 9d3f 0000 0060 c3cd 9e3f
000007e0: 0000 0040 4f03 a03f 0000 00a0 8c71 a03f
000007f0: 0000 0080 b2a8 a03f 0000 00c0 3fb7 a03f
-0.001654665102250874 -0.001654665102250874 -0.0031257355585694313 -0.005122602917253971 -0.007014005444943905 -0.009152622893452644 -0.011748509481549263 -0.01475425437092781
-0.018061986193060875 -0.021142296493053436 -0.023684462532401085 -0.02599702775478363 -0.02831513062119484 -0.030698982998728752 -0.03305700048804283 -0.03544407710433006
-0.0380033403635025 -0.040737900882959366 -0.04382634162902832 -0.04747667536139488 -0.05198129639029503 -0.05728781223297119 -0.06338140368461609 -0.06986378878355026
-0.07627658545970917 -0.08232267200946808 -0.08787325024604797 -0.09289602935314178 -0.09730135649442673 -0.10109995305538177 -0.10425063222646713 -0.10685243457555771
-0.10894903540611267 -0.11059703677892685 -0.11174124479293823 -0.1123388484120369 -0.11242280900478363 -0.11222930997610092 -0.11172254383563995 -0.11088868975639343
-0.10983618348836899 -0.10867777466773987 -0.1074591726064682 -0.1062503233551979 -0.10512650012969971 -0.10415019094944 -0.10340216755867004 -0.10289482772350311
-0.10265331715345383 -0.10264595597982407 -0.10286740213632584 -0.10326015204191208 -0.10377534478902817 -0.10433889925479889 -0.1049182191491127 -0.10547506809234619
-0.10596252232789993 -0.10633132606744766 -0.10655587911605835 -0.10667967796325684 -0.10673157125711441 -0.10677184164524078 -0.10682938992977142 -0.10686002671718597
-0.10681773722171783 -0.10667228698730469 -0.10641458630561829 -0.10608988255262375 -0.10567665100097656 -0.1051476001739502 -0.10452299565076828 -0.10382771492004395
-0.10309750586748123 -0.10236901044845581 -0.10165086388587952 -0.10092374682426453 -0.10024143755435944 -0.09965072572231293 -0.0991441011428833 -0.09865140914916992
-0.0981297492980957 -0.09745724499225616 -0.09649454057216644 -0.09520378708839417 -0.09351931512355804 -0.09137856960296631 -0.0887882187962532 -0.0858500525355339
-0.08246392756700516 -0.07862627506256104 -0.07444392144680023 -0.06989451497793198 -0.06489074230194092 -0.059478797018527985 -0.05388412997126579 -0.04820391535758972
-0.04236269369721413 -0.03559311479330063 -0.02833273820579052 -0.020748088136315346 -0.012773816473782063 -0.004735887981951237 0.003534606657922268 0.011699771508574486
0.020757634192705154 0.029842671006917953 0.03881385177373886 0.04753895476460457 0.05588884279131889 0.0638948529958725 0.07144176959991455 0.07843691110610962
0.0850536972284317 0.0918361246585846 0.09933984279632568 0.10725628584623337 0.11512603610754013 0.1226143017411232 0.1294599175453186 0.13558706641197205
0.14081954956054688 0.14513061940670013 0.14860722422599792 0.1515028178691864 0.15381932258605957 0.1554548442363739 0.15626291930675507 0.1564052402973175
0.15605482459068298 0.1554112285375595 0.15464931726455688 0.15396100282669067 0.15333935618400574 0.15267835557460785 0.15201063454151154 0.1513998955488205
0.15087544918060303 0.15044429898262024 0.15011607110500336 0.14986643195152283 0.14970745146274567 0.1496352106332779 0.14969144761562347 0.14988066256046295
0.1502048224210739 0.15057110786437988 0.1508762091398239 0.15108147263526917 0.15126512944698334 0.15149439871311188 0.151711568236351 0.15179429948329926
0.15170644223690033 0.1515302062034607 0.15129029750823975 0.15096479654312134 0.1505439132452011 0.1500779688358307 0.14959558844566345 0.1491234451532364
0.14871403574943542 0.14832206070423126 0.14784561097621918 0.14719590544700623 0.14636193215847015 0.1453818529844284 0.14431479573249817 0.14308524131774902
0.14158259332180023 0.1397070735692978 0.13746093213558197 0.13489671051502228 0.13210447132587433 0.128981813788414 0.1253877729177475 0.12128357589244843
0.11654353886842728 0.11117830872535706 0.10517164319753647 0.09853356331586838 0.09128326177597046 0.08369047939777374 0.07593023777008057 0.06806942820549011
0.06009794399142265 0.05203111469745636 0.04397239536046982 0.0336180254817009 0.02307382971048355 0.01270358171314001 0.002467841375619173 -0.0071788365021348
-0.016049791127443314 -0.024310797452926636 -0.032035477459430695 -0.03903741389513016 -0.0452287383377552 -0.05064356327056885 -0.055128514766693115 -0.05868002399802208
-0.061408013105392456 -0.06329285353422165 -0.06422744691371918 -0.06419253349304199 -0.06330300867557526 -0.061749570071697235 -0.059550222009420395 -0.05678824707865715
-0.05351969599723816 -0.04990357160568237 -0.04601068049669266 -0.041944947093725204 -0.03779292106628418 -0.033669766038656235 -0.0296952947974205 -0.025952419266104698
-0.022459834814071655 -0.019212590530514717 -0.016246095299720764 -0.013588441535830498 -0.011233584955334663 -0.009142887778580189 -0.007294220384210348 -0.005687004886567593
-0.004294387996196747 -0.0031169578433036804 -0.0022388524375855923 -0.0016545986291021109 0.005917028523981571 0.005917028523981571 0.0055492534302175045 0.005472162272781134
0.005709999240934849 0.0061048176139593124 0.006595920771360397 0.007219023071229458 0.008169781416654587 0.009695647284388542 0.011515140533447266 0.013470917008817196
0.01544951181858778 0.017418084666132927 0.01936381123960018 0.02109067142009735 0.022534526884555817 0.023675383999943733 0.02443293109536171 0.025031965225934982
0.025930002331733704 0.027192896232008934 0.028672128915786743 0.030081799253821373 0.031275250017642975 0.03211631253361702 0.032537057995796204 0.032648079097270966
