data/mixamo/36_800_24/train/REMY/Weight_Shift/Weight_Shift.npy (npy, 82208 bytes, 1 tensors)

array f8 [15, 3, 228]
-0.0006366270827129483 -0.0006366270827129483 -0.0032257982529699802 -0.006705996114760637 -0.009970223531126976 -0.013634401373565197 -0.01809210702776909 -0.023277131840586662
-0.029005801305174828 -0.03441600129008293 -0.03884405270218849 -0.042863987386226654 -0.046924155205488205 -0.0511351078748703 -0.05528128892183304 -0.059486664831638336
-0.06394091248512268 -0.06865262985229492 -0.07390175014734268 -0.08003660291433334 -0.08754073083400726 -0.09639611840248108 -0.10674463957548141 -0.11798767000436783
-0.12934806942939758 -0.1402280181646347 -0.15032225847244263 -0.15944433212280273 -0.16732680797576904 -0.17402447760105133 -0.179568350315094 -0.18421271443367004
-0.18803997337818146 -0.1911039650440216 -0.19326768815517426 -0.19443875551223755 -0.19466060400009155 -0.19435657560825348 -0.19346202909946442 -0.1919487714767456
-0.19000203907489777 -0.18783219158649445 -0.18552984297275543 -0.18323305249214172 -0.18107818067073822 -0.17919307947158813 -0.17775626480579376 -0.1767922043800354
-0.17632684111595154 -0.17629408836364746 -0.17669159173965454 -0.17742106318473816 -0.17838849127292633 -0.17943869531154633 -0.18050113320350647 -0.18152230978012085
-0.1824304312467575 -0.18313662707805634 -0.18358878791332245 -0.1838594526052475 -0.18400529026985168 -0.18414044380187988 -0.18431483209133148 -0.18444769084453583
-0.18445049226284027 -0.18425700068473816 -0.183846578001976 -0.18330028653144836 -0.1825784295797348 -0.18164579570293427 -0.18054461479187012 -0.1793096661567688
-0.1780024617910385 -0.17669792473316193 -0.1754215955734253 -0.17414599657058716 -0.17296133935451508 -0.17195525765419006 -0.1711357831954956 -0.17039182782173157
-0.16966289281845093 -0.16873328387737274 -0.16734181344509125 -0.16537901759147644 -0.1627091020345688 -0.15924112498760223 -0.15498776733875275 -0.15010148286819458
-0.1443740427494049 -0.13777625560760498 -0.13046476244926453 -0.12240318953990936 -0.11346974968910217 -0.10383889079093933 -0.09388001263141632 -0.08363764733076096
-0.07295054942369461 -0.06058456376194954 -0.04733993113040924 -0.03356225788593292 -0.019189175218343735 -0.004783934913575649 0.00996039155870676 0.024444207549095154
0.04036591947078705 0.05625148490071297 0.07191489636898041 0.0871334820985794 0.10161450505256653 0.11540022492408752 0.12843380868434906 0.14050567150115967
0.15184636414051056 0.1633254736661911 0.17599406838417053 0.18946416676044464 0.20295685529708862 0.21583878993988037 0.22777879238128662 0.23857322335243225
0.24780036509037018 0.2554148733615875 0.2616056501865387 0.26686182618141174 0.27123600244522095 0.2744872272014618 0.27623188495635986 0.27673593163490295
0.276324599981308 0.27537429332733154 0.274227112531662 0.2732197940349579 0.2723102271556854 0.27128368616104126 0.27018076181411743 0.2691159248352051
0.2681503891944885 0.26732137799263 0.2666519582271576 0.2661001980304718 0.265685111284256 0.26541635394096375 0.265380859375 0.265586256980896
0.2660343050956726 0.26656705141067505 0.266995906829834 0.2672387361526489 0.26745113730430603 0.2677837312221527 0.26814961433410645 0.2683080732822418
0.26816582679748535 0.2678595185279846 0.26744934916496277 0.2669002115726471 0.26617804169654846 0.265350341796875 0.2644670307636261 0.2635979950428009
0.2628585696220398 0.2621767222881317 0.2613789439201355 0.2603013217449188 0.25890159606933594 0.25722652673721313 0.2553776800632477 0.2532452344894409
0.25065091252326965 0.2474055290222168 0.24349018931388855 0.23901008069515228 0.23415790498256683 0.2287873476743698 0.22262705862522125 0.2155553251504898
0.20737481117248535 0.19807811081409454 0.18755954504013062 0.17581868171691895 0.16292095184326172 0.1493629664182663 0.1354912966489792 0.12144967168569565
0.1072581559419632 0.09297875314950943 0.07880263775587082 0.06073475629091263 0.04246748983860016 0.024639133363962173 0.007206349167972803 -0.009101912379264832
-0.024007877334952354 -0.037847958505153656 -0.050761159509420395 -0.06245291233062744 -0.07281439006328583 -0.08187925070524216 -0.08942843973636627 -0.0954517051577568
-0.10008932650089264 -0.10337363183498383 -0.10508082807064056 -0.10518015921115875 -0.10384965687990189 -0.10138235986232758 -0.0978001281619072 -0.0932445377111435
-0.08780809491872787 -0.08176479488611221 -0.07525311410427094 -0.06845936179161072 -0.061523713171482086 -0.054633043706417084 -0.04797421395778656 -0.04168190062046051
-0.03579597920179367 -0.030321598052978516 -0.025333745405077934 -0.020891249179840088 -0.016976695507764816 -0.01349484920501709 -0.01038831565529108 -0.007665017619729042
-0.005276157520711422 -0.0032237486448138952 -0.0016724442830309272 -0.0006365674780681729 -0.03858112171292305 -0.03858112171292305 -0.03928527981042862 -0.039487991482019424
-0.03913317248225212 -0.038488104939460754 -0.037660151720047 -0.03659477457404137 -0.03494181111454964 -0.032238028943538666 -0.028995582833886147 -0.02548893727362156
-0.02192819118499756 -0.018396029248833656 -0.014935795217752457 -0.012010851874947548 -0.009730415418744087 -0.008133316412568092 -0.007353663444519043 -0.006908571347594261
-0.005857400596141815 -0.003928041085600853 -0.0012734148185700178 0.0014890481252223253 0.003921108320355415 0.005654432810842991 0.006557402666658163 0.00685105100274086
00000000: 0000 0040 6adc 44bf 0000 0040 6adc 44bf
00000010: 0000 0040 fd6c 6abf 0000 0020 bf77 7bbf
00000020: 0000 00c0 446b 84bf 0000 0060 5aec 8bbf
00000030: 0000 00c0 bc86 92bf 0000 00e0 f5d5 97bf
00000040: 0000 0060 b2b3 9dbf 0000 0060 f99e a1bf
00000050: 0000 0020 5ee3 a3bf 0000 00c0 44f2 a5bf
00000060: 0000 0060 7106 a8bf 0000 0080 612e aabf
00000070: 0000 0040 d44d acbf 0000 0040 0975 aebf
00000080: 0000 0080 6e5e b0bf 0000 0000 3893 b1bf
00000090: 0000 00a0 39eb b2bf 0000 0060 477d b4bf
000000a0: 0000 00c0 1169 b6bf 0000 0080 6aad b8bf
000000b0: 0000 00e0 9d53 bbbf 0000 00a0 7034 bebf
000000c0: 0000 0040 7a8e c0bf 0000 00e0 fdf2 c1bf
000000d0: 0000 0080 c23d c3bf 0000 0000 ac68 c4bf
000000e0: 0000 0000 f76a c5bf 0000 0020 6f46 c6bf
000000f0: 0000 0080 18fc c6bf 0000 0040 4894 c7bf
00000100: 0000 00a0 b111 c8bf 0000 0040 1876 c8bf
00000110: 0000 00e0 febc c8bf 0000 0080 5ee3 c8bf
00000120: 0000 0080 a3ea c8bf 0000 0020 ade0 c8bf
00000130: 0000 0020 5dc3 c8bf 0000 0000 c791 c8bf
00000140: 0000 00a0 fc51 c8bf 0000 00a0 e20a c8bf
00000150: 0000 0020 71bf c7bf 0000 0040 2e74 c7bf
00000160: 0000 00e0 912d c7bf 0000 0080 ccef c6bf
00000170: 0000 00a0 b7c0 c6bf 0000 0080 20a1 c6bf
00000180: 0000 00c0 e091 c6bf 0000 0000 ce90 c6bf
00000190: 0000 0080 d49d c6bf 0000 00c0 bbb5 c6bf
000001a0: 0000 0020 6fd5 c6bf 0000 00e0 d8f7 c6bf
000001b0: 0000 0040 a91a c7bf 0000 0080 1f3c c7bf
000001c0: 0000 0060 e159 c7bf 0000 0060 0571 c7bf
000001d0: 0000 0060 d67f c7bf 0000 00e0 b488 c7bf
000001e0: 0000 0040 7c8d c7bf 0000 0000 ea91 c7bf
000001f0: 0000 00e0 a097 c7bf 0000 0060 fb9b c7bf
00000200: 0000 00e0 129c c7bf 0000 00c0 bb95 c7bf
00000210: 0000 00e0 4888 c7bf 0000 0040 6276 c7bf
00000220: 0000 00e0 ba5e c7bf 0000 0060 2b40 c7bf
00000230: 0000 0000 161c c7bf 0000 0080 9ef3 c6bf
00000240: 0000 00e0 c8c8 c6bf 0000 00a0 099e c6bf
00000250: 0000 0000 3774 c6bf 0000 0080 6a4a c6bf
00000260: 0000 00e0 9823 c6bf 0000 0040 a102 c6bf
00000270: 0000 0000 c7e7 c5bf 0000 0040 66cf c5bf
00000280: 0000 0080 83b7 c5bf 0000 0060 0d99 c5bf
00000290: 0000 00e0 746b c5bf 0000 00c0 232b c5bf
000002a0: 0000 00e0 a6d3 c4bf 0000 0060 0362 c4bf
000002b0: 0000 00a0 a3d6 c3bf 0000 0080 8636 c3bf
000002c0: 0000 0040 d97a c2bf 0000 0000 a7a2 c1bf
000002d0: 0000 00c0 11b3 c0bf 0000 00c0 d055 bfbf
000002e0: 0000 0080 5a0c bdbf 0000 0080 2f95 babf
000002f0: 0000 0040 8508 b8bf 0000 00e0 4669 b5bf
00000300: 0000 0020 e3ac b2bf 0000 00a0 f004 afbf
00000310: 0000 0080 f03c a8bf 0000 0080 122f a1bf
00000320: 0000 00c0 53a6 93bf 0000 00c0 5198 73bf
00000330: 0000 0020 1d66 843f 0000 0000 e707 993f
00000340: 0000 0080 d7aa a43f 0000 00a0 fecc ac3f
00000350: 0000 00c0 0369 b23f 0000 0040 614e b63f
00000360: 0000 0080 6803 ba3f 0000 0080 de8a bd3f
00000370: 0000 00e0 8470 c03f 0000 0000 17fc c13f
00000380: 0000 00a0 b36f c33f 0000 0060 d9e7 c43f
00000390: 0000 0040 f986 c63f 0000 00a0 5c40 c83f
000003a0: 0000 0080 7dfa c93f 0000 0000 9ba0 cb3f
000003b0: 0000 0000 db27 cd3f 0000 0040 9189 ce3f
000003c0: 0000 0020 ecb7 cf3f 0000 00a0 b758 d03f
000003d0: 0000 00a0 25be d03f 0000 00a0 4314 d13f
000003e0: 0000 0040 ee5b d13f 0000 00e0 3291 d13f
000003f0: 0000 0080 c8ad d13f 0000 00a0 0ab6 d13f
00000400: 0000 0060 4daf d13f 0000 0080 bb9f d13f
00000410: 0000 00e0 ef8c d13f 0000 00e0 6e7c d13f
00000420: 0000 00e0 876d d13f 0000 0040 b65c d13f
00000430: 0000 0040 a44a d13f 0000 0000 3239 d13f
00000440: 0000 0040 6029 d13f 0000 0020 cb1b d13f
00000450: 0000 0060 d310 d13f 0000 0020 c907 d13f
00000460: 0000 0020 fc00 d13f 0000 00e0 94fc d03f
00000470: 0000 0000 00fc d03f 0000 0080 5dff d03f
00000480: 0000 00c0 b406 d13f 0000 0040 6f0f d13f
00000490: 0000 0000 7616 d13f 0000 0080 701a d13f
000004a0: 0000 0060 eb1d d13f 0000 0060 5e23 d13f
000004b0: 0000 0000 5d29 d13f 0000 00a0 f52b d13f
000004c0: 0000 0000 a129 d13f 0000 0040 9c24 d13f
000004d0: 0000 00e0 e31d d13f 0000 00a0 e414 d13f
000004e0: 0000 00a0 0f09 d13f 0000 0000 80fb d03f
000004f0: 0000 0020 07ed d03f 0000 0020 cade d03f
00000500: 0000 00c0 acd2 d03f 0000 00e0 80c7 d03f
00000510: 0000 00c0 6eba d03f 0000 00e0 c6a8 d03f
00000520: 0000 0000 d891 d03f 0000 0040 6676 d03f
00000530: 0000 00a0 1b58 d03f 0000 0080 2b35 d03f
00000540: 0000 0020 aa0a d03f 0000 0000 fcaa cf3f
00000550: 0000 00c0 af2a cf3f 0000 00e0 e197 ce3f
00000560: 0000 00e0 e2f8 cd3f 0000 0060 e748 cd3f
00000570: 0000 0020 0b7f cc3f 0000 0020 5197 cb3f
00000580: 0000 0000 428b ca3f 0000 00a0 9f5a c93f
00000590: 0000 0080 f301 c83f 0000 0000 3a81 c63f
000005a0: 0000 0000 98da c43f 0000 0060 531e c33f
000005b0: 0000 0060 c757 c13f 0000 0060 5317 bf3f
000005c0: 0000 0040 4575 bb3f 0000 00a0 74cd b73f
000005d0: 0000 00e0 682c b43f 0000 0040 a018 af3f
000005e0: 0000 0080 4cbe a53f 0000 0040 003b 993f
000005f0: 0000 00a0 6784 7d3f 0000 0000 06a4 82bf
00000600: 0000 0060 8595 98bf 0000 00c0 ce60 a3bf
00000610: 0000 00e0 5dfd a9bf 0000 0000 d4f9 afbf
00000620: 0000 00c0 f6a3 b2bf 0000 00e0 09f6 b4bf
00000630: 0000 0040 c8e4 b6bf 0000 00e0 856f b8bf
00000640: 0000 0040 749f b9bf 0000 00c0 b176 babf
00000650: 0000 00c0 93e6 babf 0000 0040 16ed babf
00000660: 0000 0020 e495 babf 0000 00c0 31f4 b9bf
00000670: 0000 00e0 6d09 b9bf 0000 00c0 dfde b7bf
00000680: 0000 0060 977a b6bf 0000 00a0 89ee b4bf
00000690: 0000 00c0 c943 b3bf 0000 0080 8d86 b1bf
000006a0: 0000 0040 0980 afbf 0000 00c0 dcf8 abbf
000006b0: 0000 0080 1390 a8bf 0000 0080 5457 a5bf
000006c0: 0000 00c0 d953 a2bf 0000 0000 a00c 9fbf
000006d0: 0000 00e0 16f1 99bf 0000 0000 8464 95bf
000006e0: 0000 00c0 5662 91bf 0000 0000 30a3 8bbf
000006f0: 0000 0020 7846 85bf 0000 0080 5a65 7fbf
00000700: 0000 00c0 739c 75bf 0000 00e0 b068 6abf
00000710: 0000 0060 bd66 5bbf 0000 0040 eadb 44bf
00000720: 0000 00a0 e7c0 a3bf 0000 00a0 e7c0 a3bf
00000730: 0000 0040 331d a4bf 0000 0020 c537 a4bf
00000740: 0000 0060 4309 a4bf 0000 0080 b6b4 a3bf
00000750: 0000 0000 3148 a3bf 0000 00e0 8cbc a2bf
00000760: 0000 00a0 e4e3 a1bf 0000 00c0 8081 a0bf
00000770: 0000 00a0 04b1 9dbf 0000 00a0 c519 9abf
00000780: 0000 0000 5874 96bf 0000 00a0 68d6 92bf
00000790: 0000 0080 a896 8ebf 0000 0040 2599 88bf
000007a0: 0000 0040 8aed 83bf 0000 0040 33a8 80bf
000007b0: 0000 0000 e01e 7ebf 0000 0080 294c 7cbf
000007c0: 0000 0000 eefd 77bf 0000 0080 d916 70bf
000007d0: 0000 00c0 16dd 54bf 0000 0040 8565 583f
000007e0: 0000 0080 940f 703f 0000 0040 1a29 773f
000007f0: 0000 0060 efdb 7a3f 0000 0000 d90f 7c3f
