data/mixamo/36_800_24/train/MREMREH_O/Weight_Shift/Weight_Shift.npy (npy, 82208 bytes, 1 tensors)

array f8 [15, 3, 228]
-0.014262443408370018 -0.014262443408370018 -0.015597175806760788 -0.01735544577240944 -0.01899043098092079 -0.020848287269473076 -0.02314000017940998 -0.025793852284550667
-0.028627753257751465 -0.030981210991740227 -0.03277180716395378 -0.034271564334630966 -0.035727836191654205 -0.037234291434288025 -0.03870005905628204 -0.040102582424879074
-0.041574716567993164 -0.043087348341941833 -0.044897351413965225 -0.047354426234960556 -0.05078298598527908 -0.05515437573194504 -0.06065291911363602 -0.0669628158211708
-0.07358213514089584 -0.08006452023983002 -0.08610004186630249 -0.09149064868688583 -0.09608516842126846 -0.09997475147247314 -0.10319540649652481 -0.10589388757944107
-0.10812093317508698 -0.10991478711366653 -0.11120256781578064 -0.11193022131919861 -0.11209467053413391 -0.11191585659980774 -0.1113404855132103 -0.11036462336778641
-0.10910769551992416 -0.10768604278564453 -0.10614617168903351 -0.1045960783958435 -0.10314871370792389 -0.10189414024353027 -0.10094690322875977 -0.10031388700008392
-0.10000645369291306 -0.09998062998056412 -0.10022930055856705 -0.10069237649440765 -0.10131693631410599 -0.10199525952339172 -0.10267943888902664 -0.10334400087594986
-0.103937529027462 -0.10440561920404434 -0.10472710430622101 -0.10494288057088852 -0.10509226471185684 -0.10524894297122955 -0.10543718934059143 -0.1056075468659401
-0.10571067780256271 -0.10569951683282852 -0.10554470121860504 -0.10528387874364853 -0.10489410161972046 -0.10437598079442978 -0.10376792401075363 -0.10308194160461426
-0.102352075278759 -0.10163506120443344 -0.1009630337357521 -0.10033264756202698 -0.09979912638664246 -0.09941136091947556 -0.09918008744716644 -0.09905382245779037
-0.09901262819766998 -0.09892304986715317 -0.09860958904027939 -0.09797482937574387 -0.09694097191095352 -0.09547452628612518 -0.09364601224660873 -0.0915629044175148
-0.08907357603311539 -0.08611737191677094 -0.08275386691093445 -0.07894764840602875 -0.07461757957935333 -0.06988158077001572 -0.06491341441869736 -0.059705741703510284
-0.054155949503183365 -0.047644078731536865 -0.040573686361312866 -0.033160336315631866 -0.02542736940085888 -0.017686877399683 -0.010071506723761559 -0.002863645553588867
0.0049031926319003105 0.012590494938194752 0.020046915858983994 0.02714049071073532 0.033672187477350235 0.0397488996386528 0.04538857191801071 0.05072915926575661
0.05584012717008591 0.06111029535531998 0.0671798512339592 0.07397201657295227 0.08114393055438995 0.08827284723520279 0.09491559118032455 0.10091032832860947
0.10610496997833252 0.11045341938734055 0.11402863264083862 0.11710872501134872 0.11969339102506638 0.12160655111074448 0.1226474717259407 0.12294436991214752
0.12267812341451645 0.12209451198577881 0.12138783186674118 0.1207646057009697 0.12020054459571838 0.11955292522907257 0.11881383508443832 0.11804524064064026
0.11731624603271484 0.1166820302605629 0.11613490432500839 0.11563301086425781 0.1152234598994255 0.11494385451078415 0.11482791602611542 0.11485466361045837
0.11502522975206375 0.11526091396808624 0.11546091735363007 0.11557487398386002 0.11567958444356918 0.11585019528865814 0.11606033146381378 0.11619627475738525
0.11618950217962265 0.11607957631349564 0.1158977597951889 0.1156366690993309 0.1152581200003624 0.11478656530380249 0.1142725721001625 0.11378312855958939
0.11339416354894638 0.11308902502059937 0.11279717832803726 0.11240004003047943 0.1118365079164505 0.11112696677446365 0.11034788191318512 0.10946802794933319
0.10839340090751648 0.10699634253978729 0.10525103658437729 0.10319820046424866 0.10095645487308502 0.09849227964878082 0.09571828693151474 0.09263942390680313
0.08910602331161499 0.08506294339895248 0.08043162524700165 0.07515693455934525 0.06923142075538635 0.06289231777191162 0.05632444843649864 0.04962826520204544
0.04281918331980705 0.03594152629375458 0.029147479683160782 0.020421693101525307 0.011542503722012043 0.0028303200379014015 -0.005768725648522377 -0.013884942047297955
-0.021386999636888504 -0.02837478555738926 -0.03492489084601402 -0.04084164649248123 -0.04604100435972214 -0.05066912621259689 -0.05464613810181618 -0.0579567514359951
-0.060657113790512085 -0.06263460218906403 -0.06384149193763733 -0.06429267674684525 -0.06403378397226334 -0.06317465007305145 -0.06173069030046463 -0.05977204814553261
-0.05731578171253204 -0.05450071394443512 -0.051418229937553406 -0.048195380717515945 -0.04489683359861374 -0.04158449545502663 -0.03833112493157387 -0.035228464752435684
-0.03232615441083908 -0.029649334028363228 -0.027244985103607178 -0.025110850110650063 -0.023199299350380898 -0.021457280963659286 -0.0198561679571867 -0.018394190818071365
-0.017041096463799477 -0.01583896577358246 -0.01490871049463749 -0.01426243968307972 -0.07232997566461563 -0.07232997566461563 -0.07278522849082947 -0.07294655591249466
-0.07276994735002518 -0.07240303605794907 -0.07191406935453415 -0.07128177583217621 -0.07030860334634781 -0.06875419616699219 -0.06686965376138687 -0.06483477354049683
-0.06277479976415634 -0.060753095895051956 -0.05881213769316673 -0.057452037930488586 -0.05669147148728371 -0.05661151930689812 -0.05727333575487137 -0.05821801722049713
-0.05869215726852417 -0.058311592787504196 -0.05696507915854454 -0.055104028433561325 -0.05320144444704056 -0.051720697432756424 -0.05084412917494774 -0.050464943051338196
00000000: 0000 00c0 a035 8dbf 0000 00c0 a035 8dbf
00000010: 0000 0080 69f1 8fbf 0000 0040 a0c5 91bf
00000020: 0000 0040 3a72 93bf 0000 00e0 4059 95bf
00000030: 0000 0020 03b2 97bf 0000 0020 b469 9abf
00000040: 0000 0000 9850 9dbf 0000 00e0 89b9 9fbf
00000050: 0000 0060 77c7 a0bf 0000 00e0 0a8c a1bf
00000060: 0000 0040 eb4a a2bf 0000 0080 5f10 a3bf
00000070: 0000 0080 7ed0 a3bf 0000 0060 5388 a4bf
00000080: 0000 0000 4849 a5bf 0000 0080 8b0f a6bf
00000090: 0000 0020 c9fc a6bf 0000 00e0 d63e a8bf
000000a0: 0000 0040 3a00 aabf 0000 00c0 313d acbf
000000b0: 0000 0040 e60d afbf 0000 00a0 7924 b1bf
000000c0: 0000 0060 47d6 b2bf 0000 00c0 1b7f b4bf
000000d0: 0000 0000 a70a b6bf 0000 0060 ee6b b7bf
000000e0: 0000 00a0 0999 b8bf 0000 0000 f297 b9bf
000000f0: 0000 00a0 036b babf 0000 00a0 dc1b bbbf
00000100: 0000 0040 d0ad bbbf 0000 0020 6023 bcbf
00000110: 0000 0080 c577 bcbf 0000 0080 75a7 bcbf
00000120: 0000 0080 3cb2 bcbf 0000 0080 84a6 bcbf
00000130: 0000 0060 cf80 bcbf 0000 0020 db40 bcbf
00000140: 0000 0060 7bee bbbf 0000 0000 5091 bbbf
00000150: 0000 0040 652c bbbf 0000 0000 cfc6 babf
00000160: 0000 0040 f467 babf 0000 0000 bc15 babf
00000170: 0000 0000 a8d7 b9bf 0000 00c0 2bae b9bf
00000180: 0000 00e0 059a b9bf 0000 00a0 5498 b9bf
00000190: 0000 00a0 a0a8 b9bf 0000 00c0 f9c6 b9bf
000001a0: 0000 0020 e8ef b9bf 0000 0080 5c1c babf
000001b0: 0000 0020 3349 babf 0000 00a0 c074 babf
000001c0: 0000 0060 a69b babf 0000 00a0 53ba babf
000001d0: 0000 0040 65cf babf 0000 0060 89dd babf
000001e0: 0000 00a0 53e7 babf 0000 0040 98f1 babf
000001f0: 0000 0080 eefd babf 0000 00a0 1809 bbbf
00000200: 0000 00e0 da0f bbbf 0000 00a0 1f0f bbbf
00000210: 0000 0040 fa04 bbbf 0000 0060 e2f3 babf
00000220: 0000 0000 57da babf 0000 0060 62b8 babf
00000230: 0000 00e0 8890 babf 0000 0000 9463 babf
00000240: 0000 00e0 be33 babf 0000 0060 c104 babf
00000250: 0000 00a0 b6d8 b9bf 0000 0080 66af b9bf
00000260: 0000 0080 6f8c b9bf 0000 00e0 0573 b9bf
00000270: 0000 00c0 dd63 b9bf 0000 0060 975b b9bf
00000280: 0000 0040 e458 b9bf 0000 0060 0553 b9bf
00000290: 0000 0060 7a3e b9bf 0000 00e0 e014 b9bf
000002a0: 0000 00a0 1fd1 b8bf 0000 00c0 0471 b8bf
000002b0: 0000 0060 2ff9 b7bf 0000 00a0 aa70 b7bf
000002c0: 0000 00a0 86cd b6bf 0000 00c0 c90b b6bf
000002d0: 0000 0080 5b2f b5bf 0000 00c0 e935 b4bf
000002e0: 0000 0040 231a b3bf 0000 0060 c2e3 b1bf
000002f0: 0000 0060 2a9e b0bf 0000 0040 c091 aebf
00000300: 0000 0020 54ba abbf 0000 0000 ce64 a8bf
00000310: 0000 0000 13c6 a4bf 0000 0040 64fa a0bf
00000320: 0000 00e0 a109 9abf 0000 0040 821c 92bf
00000330: 0000 00c0 5ea0 84bf 0000 0000 8075 67bf
00000340: 0000 00c0 5e15 743f 0000 00a0 0bc9 893f
00000350: 0000 00c0 2d87 943f 0000 0080 b7ca 9b3f
00000360: 0000 0020 7b3d a13f 0000 00c0 f759 a43f
00000370: 0000 00c0 2b3d a73f 0000 0020 2cf9 a93f
00000380: 0000 00c0 1397 ac3f 0000 0040 d949 af3f
00000390: 0000 00e0 b232 b13f 0000 0080 d4ef b23f
000003a0: 0000 0040 d9c5 b43f 0000 00a0 0c99 b63f
000003b0: 0000 0060 634c b83f 0000 0060 42d5 b93f
000003c0: 0000 0000 b229 bb3f 0000 00e0 ac46 bc3f
000003d0: 0000 0000 fb30 bd3f 0000 0060 d6fa bd3f
000003e0: 0000 00e0 39a4 be3f 0000 0060 9b21 bf3f
000003f0: 0000 0020 d365 bf3f 0000 0040 4879 bf3f
00000400: 0000 0060 d567 bf3f 0000 0000 9641 bf3f
00000410: 0000 00e0 4513 bf3f 0000 00e0 6dea be3f
00000420: 0000 0080 76c5 be3f 0000 0040 059b be3f
00000430: 0000 0060 956a be3f 0000 0080 3638 be3f
00000440: 0000 0000 7008 be3f 0000 00a0 dfde bd3f
00000450: 0000 0060 04bb bd3f 0000 0000 209a bd3f
00000460: 0000 00e0 487f bd3f 0000 00e0 f56c bd3f
00000470: 0000 00c0 5c65 bd3f 0000 0080 1d67 bd3f
00000480: 0000 0020 4b72 bd3f 0000 0040 bd81 bd3f
00000490: 0000 00c0 d88e bd3f 0000 00a0 5096 bd3f
000004a0: 0000 0060 2d9d bd3f 0000 00c0 5ba8 bd3f
000004b0: 0000 0040 21b6 bd3f 0000 0000 0abf bd3f
000004c0: 0000 0060 98be bd3f 0000 0020 64b7 bd3f
000004d0: 0000 00c0 79ab bd3f 0000 0060 5d9a bd3f
000004e0: 0000 0060 8e81 bd3f 0000 0000 a762 bd3f
000004f0: 0000 00a0 f740 bd3f 0000 0020 e420 bd3f
00000500: 0000 0060 6607 bd3f 0000 0000 67f3 bc3f
00000510: 0000 00a0 46e0 bc3f 0000 00c0 3fc6 bc3f
00000520: 0000 0040 51a1 bc3f 0000 0020 d172 bc3f
00000530: 0000 0040 c23f bc3f 0000 00c0 1806 bc3f
00000540: 0000 0080 abbf bb3f 0000 00c0 1c64 bb3f
00000550: 0000 0060 bbf1 ba3f 0000 0080 326b ba3f
00000560: 0000 0040 48d8 b93f 0000 0040 ca36 b93f
00000570: 0000 0060 fe80 b83f 0000 00a0 37b7 b73f
00000580: 0000 0000 a7cf b63f 0000 0060 afc6 b53f
00000590: 0000 00c0 2a97 b43f 0000 0020 7c3d b33f
000005a0: 0000 0080 26b9 b13f 0000 0000 b619 b03f
000005b0: 0000 00e0 8ed6 ac3f 0000 0040 e068 a93f
000005c0: 0000 0060 65ec a53f 0000 0080 ed66 a23f
000005d0: 0000 0040 d6d8 9d3f 0000 00a0 6ce9 943f
000005e0: 0000 00a0 98a3 873f 0000 0080 9c2f 673f
000005f0: 0000 0080 f2a0 77bf 0000 0060 b56f 8cbf
00000600: 0000 0040 79e6 95bf 0000 00a0 470e 9dbf
00000610: 0000 00e0 ace1 a1bf 0000 0040 32e9 a4bf
00000620: 0000 00c0 af92 a7bf 0000 00c0 4df1 a9bf
00000630: 0000 0020 94fa abbf 0000 00e0 81ac adbf
00000640: 0000 0000 730e afbf 0000 0040 d208 b0bf
00000650: 0000 0080 ea57 b0bf 0000 0020 7c75 b0bf
00000660: 0000 00a0 8464 b0bf 0000 00c0 362c b0bf
00000670: 0000 0040 2a9b afbf 0000 0020 719a aebf
00000680: 0000 0080 7e58 adbf 0000 0080 84e7 abbf
00000690: 0000 0080 7d53 aabf 0000 00a0 10ad a8bf
000006a0: 0000 00c0 b7fc a6bf 0000 0020 904a a5bf
000006b0: 0000 0020 23a0 a3bf 0000 0020 7709 a2bf
000006c0: 0000 00c0 0d8d a0bf 0000 0020 655c 9ebf
000006d0: 0000 0000 1ce6 9bbf 0000 00a0 a8b6 99bf
000006e0: 0000 00a0 8ec1 97bf 0000 00c0 e5f8 95bf
000006f0: 0000 00e0 2c55 94bf 0000 0040 edd5 92bf
00000700: 0000 00a0 3873 91bf 0000 0000 1738 90bf
00000710: 0000 0040 7588 8ebf 0000 0040 a035 8dbf
00000720: 0000 00a0 3784 b2bf 0000 00a0 3784 b2bf
00000730: 0000 0080 0da2 b2bf 0000 0020 a0ac b2bf
00000740: 0000 0020 0da1 b2bf 0000 0060 0189 b2bf
00000750: 0000 00e0 f568 b2bf 0000 00c0 853f b2bf
00000760: 0000 00a0 beff b1bf 0000 0000 e099 b1bf
00000770: 0000 00a0 5e1e b1bf 0000 0000 0399 b0bf
00000780: 0000 0060 0212 b0bf 0000 00a0 071b afbf
00000790: 0000 00e0 9f1c aebf 0000 0080 5a6a adbf
000007a0: 0000 0020 aa06 adbf 0000 0060 2ffc acbf
000007b0: 0000 0040 ee52 adbf 0000 0080 c0ce adbf
000007c0: 0000 0000 e60c aebf 0000 0060 04db adbf
000007d0: 0000 00e0 862a adbf 0000 0060 9836 acbf
000007e0: 0000 0040 383d abbf 0000 00a0 227b aabf
000007f0: 0000 00e0 3d08 aabf 0000 0080 8ad6 a9bf
